TP6/models/lab6/lab6_dqn1_q_network.pth (torch, 73472 bytes, 6 tensors)

weight f4 [128, 4]
000000 f3 b9 cd 3d d5 09 87 bd f3 ec a4 be 96 82 02 bf
       0.100452326 -0.06593672 -0.32212028 -0.5098051
000010 ca 96 e6 3d 53 33 eb bd 7a 34 b0 3e 5e 0f ee bd
       0.112592295 -0.11484399 0.34415036 -0.11624025
000020 aa ca 74 3d 25 35 fd bc d3 48 11 be 36 4d 9c be
       0.059763588 -0.03090913 -0.14187936 -0.30527657
000030 d9 42 e7 be df aa 5b 3e 4f 51 20 3f 46 c8 fb bd
       -0.45168188 0.21451901 0.6262407 -0.122940585
000040 4e a1 fd be de 4e ab bd ee 89 18 bf 68 2c 9d 3d
       -0.49537128 -0.08364652 -0.59585464 0.076744854
000050 4f 34 4a 3e e9 57 29 bd d3 31 17 be fb 20 09 be
       0.19746517 -0.041343603 -0.147651 -0.13391487
000060 82 86 9b bd 76 63 a6 3e 4e 4e e1 be 1c d1 fc be
       -0.07594015 0.32497758 -0.44005054 -0.49378288
000070 15 bf bf 3d 36 d4 df be fb 45 6b 3e a5 e3 92 3e
       0.09362618 -0.43716592 0.22975914 0.28689304
000080 49 d9 93 be 4f b3 ac be d1 88 0e 3e f7 29 9d bd
       -0.28876713 -0.33730552 0.13919379 -0.0767402
000090 4f 5b cf 3e 35 86 a8 3e e8 68 e2 3e 76 04 f2 3e
       0.4049935 0.32914892 0.44220662 0.47269028
0000a0 be 7f 0b bf bf 79 a8 3d a2 71 88 be f2 f5 e4 3d
       -0.54491794 0.08226346 -0.26649195 0.11179723
0000b0 90 71 ec bd 9f 9e a9 3e 2b d0 68 be a0 d3 ab be
       -0.11545098 0.3312883 -0.2273566 -0.33559895
0000c0 54 e9 36 3e 60 c9 af be 5e 9c 46 3e c3 40 a0 be
       0.17862445 -0.34333324 0.19395587 -0.3129941
0000d0 b8 63 82 3e cc 5d ef be 70 53 1b bf ba 48 e2 be
       0.25466704 -0.4675125 -0.6067419 -0.4419611
0000e0 10 65 f9 bd 03 c4 8e 3e 1e a1 b0 be 80 3f 44 3e
       -0.12177479 0.2788392 -0.34497923 0.19164848
0000f0 c7 04 9c 3e 65 7b 5e be ae 38 e8 be 55 dd ed be
       0.30472395 -0.21726759 -0.45355743 -0.46457925
000100 8f 3a db be 3d 4a f8 be d9 a0 22 3e 75 ff c0 bd
       -0.42818114 -0.4849414 0.15881671 -0.094237246
000110 8e 88 1f 3e ea da 75 be 1d 59 a7 be 9b f5 54 be
       0.15579435 -0.2400929 -0.32685176 -0.20796816
000120 cc 29 94 bd 5a 67 09 3d 85 84 d6 bd 97 be 32 3e
       -0.072345346 0.03354583 -0.10474495 0.17455517
000130 6f 46 57 be e2 3a 3c 3e ff 6d fe 3d d7 8b e4 bb
       -0.21022962 0.18381837 0.12423324 -0.006974678
000140 72 2a 87 3e 4a 99 a7 be 7f 60 4d 3d f7 41 1c be
       0.2639957 -0.32734138 0.050140854 -0.15259539
000150 45 a0 7e 3e dc 69 5a be d7 82 65 3e 62 61 2d 3e
       0.24865825 -0.21329445 0.22413193 0.1693168
000160 41 8e fc 3e 5b ff 5b 3d 80 16 59 3e 0c cf ef be
       0.4932728 0.053710323 0.2119999 -0.46837652
000170 56 b2 ec be e0 ea f1 bd 29 c0 8f bd 9b f0 96 bd
       -0.4622981 -0.11812377 -0.070190735 -0.073701106
000180 49 21 0d 3e 47 72 86 3d 19 91 e8 3d 8e 3d 19 3e
       0.13782229 0.065647654 0.113558 0.14964887
000190 18 84 56 be 7b f1 cf 3e 2e 58 63 3e 2a 0e 1b 3f
       -0.20948827 0.40613922 0.22201607 0.6056849
0001a0 2f 2c cd be 4b 6e cc be 74 0c f9 3e 02 73 ba be
       -0.40072772 -0.39927897 0.48642313 -0.3641587
0001b0 4f e6 f5 bd be 5b 62 3e c7 22 c5 be d2 17 6f 3e
       -0.120068185 0.2210531 -0.38503096 0.2334893
0001c0 4f 71 33 be 87 5c 6d bd 19 b2 54 3e ce a2 59 3e
       -0.17523693 -0.05794957 0.20771064 0.21253511
0001d0 e4 24 a1 3e 01 14 a7 bc 04 d4 60 3d 69 d8 8a 3d
       0.31473458 -0.02039528 0.054889694 0.06779558
0001e0 15 ce ec bc 34 52 ac be 31 38 a1 be 93 8d 42 3d
       -0.028906861 -0.33656466 -0.31488183 0.047498297
0001f0 32 6c 31 bd a2 e5 6a 3c 70 94 da 3e 23 a9 d1 be
       -0.043316074 0.014336975 0.42691374 -0.40949354
000200 06 46 1c 3e 38 22 70 3e 17 ea 84 be cc be d9 3e
       0.15261087 0.23450553 -0.25959846 0.4252838
000210 a0 9d 4a be 9e b3 00 be c5 2c ab be 89 1d c3 3c
       -0.19786692 -0.12568519 -0.33432594 0.023817794
000220 54 c0 45 3e 24 84 3e 3d 5b 36 ed 3d 6d 33 ed bc
       0.19311649 0.046512738 0.11582633 -0.028955186
000230 23 d4 db 3c ad bc 3a 3e 39 a1 f0 bd 6b 23 d3 bd
       0.026834553 0.18236037 -0.11749501 -0.1030949
000240 0a 83 89 3e dc 84 9b be 45 3b 68 3e 56 01 6f 3e
       0.26857787 -0.303748 0.2267886 0.23340353
000250 8d 93 d2 be c0 3b a9 3e 4e 14 90 3e d0 fb de 3e
       -0.41128197 0.33053398 0.2814049 0.43551493
000260 7a 9a 14 3b 62 c5 06 3e 00 65 a1 3e 5d 25 9f 3e
       0.0022675083 0.13161233 0.3152237 0.31083193
000270 d7 72 79 3d ef b4 02 bf 14 02 a9 be 22 4b a9 be
       0.060900535 -0.5105733 -0.33009398 -0.33065134
000280 04 f4 32 be 2f 5b e4 3e f9 b1 eb 3e 1c ce e2 be
       -0.17475897 0.44600818 0.4603422 -0.44297874
000290 88 d0 4a be bd 28 36 be ec a0 29 bf fb ed d6 be
       -0.19806111 -0.17788978 -0.6626117 -0.4197844
0002a0 a7 81 f8 3e bc 41 8c be 7d 40 17 3f 62 21 a2 bd
       0.48536417 -0.273939 0.59082776 -0.079165235
0002b0 19 53 17 3e 13 12 9a be e7 f4 ed bd fe 98 52 bd
       0.14777793 -0.30091915 -0.11618977 -0.051415436
0002c0 01 91 c0 3d 3b 46 d2 3e e2 ad b9 3e de 23 e9 3e
       0.09402657 0.41069207 0.36265475 0.45535177
0002d0 a0 3b ff 3e b3 b1 5d 3d 98 24 b3 be a5 93 7c be
       0.49850178 0.054124545 -0.34988856 -0.24665697
0002e0 83 f2 7f 3d 2e 69 a8 be 52 4f 41 be 0a ed 97 3e
       0.062487137 -0.32892746 -0.18877915 0.29673034
0002f0 2c 23 33 bd 1a fa f5 be e8 f6 4b 3e 57 4d 3e 3e
       -0.043734714 -0.48042375 0.19918406 0.1858419
000300 78 c1 68 3e ee d8 09 bd 48 35 5f bc 5f be 33 be
       0.22730052 -0.033654146 -0.013623543 -0.1755309
000310 31 2b 55 bd 05 54 a6 3e 36 8b 97 3d 87 eb 8d bb
       -0.052043144 0.32485977 0.07399599 -0.0043310556
000320 6a e5 9e be 0e 67 c6 bb 55 dc d4 bd e8 8f 2b be
       -0.31034404 -0.0060547655 -0.103935875 -0.16754115
000330 d8 45 66 3e ed 67 3f 3e 14 b5 19 3f 8f 9b 0a 3f
       0.22487581 0.18691988 0.6004193 0.54143614
000340 0a 45 41 3e ca 68 88 bd d7 c8 8f be 05 53 53 3e
       0.18873993 -0.06660612 -0.28082916 0.20637138
000350 8f 48 2d 3e 39 1d 4a bd 88 08 18 be f3 8a 1b be
       0.1692221 -0.049344275 -0.14847004 -0.15189724
000360 1c 52 16 3e 93 b3 03 3e 95 4b 32 be 50 fe 8f 3e
       0.1467976 0.12861471 -0.17411645 0.28123713
000370 ad 88 e7 3e ba a0 95 be 4a 06 ec be 13 b9 8e bc
       0.45221463 -0.29224187 -0.46098548 -0.017422235
000380 34 ad 2b 3e 57 b3 81 3e d7 90 fa 3d 78 13 69 3e
       0.1676529 0.25332138 0.12234657 0.22761333
000390 c4 57 7f 3d 25 a8 d8 3d 9e ca b8 3e bc 58 39 be
       0.06233956 0.10578946 0.36092085 -0.18100256
0003a0 ee cf 55 3e 07 0a 0a be b7 6c 93 bd ce 5b 9f be
       0.208801 -0.13480388 -0.0719847 -0.3112473
0003b0 ce e7 f1 bc 13 3e b3 be f3 a8 dd be c0 44 cc be
       -0.029529478 -0.35008296 -0.4329296 -0.39896202
0003c0 7b b1 ee 3e 98 9b c2 3e 6d 59 09 be 3a fb c9 3e
       0.46619782 0.38009334 -0.1341302 0.39449483
0003d0 49 f5 25 3e 69 27 d9 be 2f c5 71 3e 87 42 90 3e
       0.1620685 -0.4241288 0.23610376 0.28175756
0003e0 aa b0 c7 bd 1a eb e6 3e 42 dc ea be c2 b7 cf 3e
       -0.09750493 0.45101243 -0.45871168 0.40569884
0003f0 98 6a 0c 3e f6 3c c1 3e 2a 90 e7 3d 0d 14 c5 3e
       0.13712537 0.37741822 0.11306794 0.3849186

bias f4 [128]
000000 a8 9f bd be 00 4d 80 3e 32 8f 9e 3e cf 62 a6 3d
       -0.3703587 0.25058746 0.30968624 0.08124315
000010 79 d7 03 be 58 c7 02 3f b3 af ca be 0c a9 9d bd
       -0.12875165 0.51085424 -0.39587173 -0.07698259
000020 09 14 ca 3e d3 7b db bd 3f 4e 82 bd c6 f0 4b 3c
       0.3946841 -0.10716977 -0.063625805 0.012447542
000030 18 b0 ad 3d 5c 6c 12 3e 74 b4 51 3e 0e b0 af be
       0.08480853 0.14299148 0.20478994 -0.34314007
000040 b7 f6 c4 be 60 6c 9e 3e 94 cf b1 3e a2 14 9c 3e
       -0.38469478 0.3094206 0.34728682 0.30484492
000050 ca 99 0c 3f 3f 32 0f 3f f4 f5 83 be 76 93 4d bc
       0.54922163 0.55936044 -0.25773585 -0.012547364
000060 c2 24 92 3e 0f b6 34 be a4 8f 61 3e 15 cf 76 3e
       0.2854367 -0.17647575 0.22027451 0.24102433
000070 d3 f9 45 3e dd c1 37 3e d7 e4 f0 3d 6f 21 25 3e
       0.19333582 0.17945047 0.11762398 0.16126035
000080 04 18 19 3f 32 eb ae 3e 13 3d 04 3f f2 0b cf 3e
       0.5980227 0.34163815 0.5165569 0.404388
000090 a3 12 b6 be 5e 22 db be 9e cb 0d 3f 37 85 97 be
       -0.35561094 -0.42799658 0.5538882 -0.29593822
0000a0 d9 32 fc bb 00 9e 2d bd 81 ac fe bd 9e 1b 97 be
       -0.007696491 -0.04238701 -0.12435246 -0.29513258
0000b0 66 5f c4 bd 7b ba c3 be f5 96 03 3f 8b dd 69 3d
       -0.09588508 -0.3822821 0.5140222 0.057096045
0000c0 a0 3c 1d 3f d0 11 0e 3f 3a ca e4 3e 52 4b 97 be
       0.6142063 0.5549593 0.44685537 -0.29549652
0000d0 da 9e f2 3e ed 1d f3 3e 40 20 fa 3e 74 79 af be
       0.4738682 0.4748377 0.4885273 -0.3427235
0000e0 bb c7 6e 3e 87 fc c1 3e 93 09 57 3e 89 bb 10 3f
       0.23318379 0.37887976 0.20999746 0.56536156
0000f0 94 ce b5 3d 0d 54 c5 be ad 25 40 3e 44 9f 1d 3f
       0.08877292 -0.38540688 0.18764372 0.61571145
000100 ed 1c 6a 3e ab 35 14 3e 46 8d e4 3e 97 f7 8e bd
       0.22862597 0.14473598 0.44639033 -0.06980818
000110 62 9b 26 3e f0 ef 88 be be 23 c4 be 49 be 21 be
       0.16270211 -0.26745558 -0.3830852 -0.15795244
000120 32 23 7b 3e cf 51 b1 be 0e 5a e0 3e 2b fb b4 be
       0.24525145 -0.34632728 0.43818706 -0.35347876
000130 d8 89 52 3e fa a2 da 3e 84 d9 b0 be 8d fa c3 3e
       0.20560396 0.42702466 -0.3454095 0.38277093
000140 60 8a bd be 56 4f d6 bc 8a 7c ee 3e e3 14 b5 3e
       -0.37019634 -0.026160877 0.4657939 0.35367498
000150 cc 26 ba 3e 27 bc 84 be 1f aa 6b be b6 c0 11 3f
       0.36357725 -0.259248 -0.23014115 0.5693468
000160 9a 62 b8 be 34 27 0d 3f 56 26 c2 be ce 11 e5 3e
       -0.36012727 0.55137944 -0.37919873 0.44740146
000170 a6 ec 8a be 30 e1 0d 3e b5 db 38 3e fa 63 ae 3d
       -0.27133673 0.13855433 0.18052562 0.08515163
000180 2b 16 b4 be 11 c9 b5 3e 01 38 ca 3e e4 2a 75 be
       -0.35173163 0.35504964 0.39495853 -0.23942143
000190 1f e6 c7 3d 1d 11 d8 3e 85 7b 09 bf cc 4c f3 3e
       0.09760689 0.42200556 -0.537041 0.4751953
0001a0 8e 13 98 be 03 2d f8 3e 6b e7 7d 3e 43 5a b9 3e
       -0.2970242 0.4847184 0.2479531 0.36201677
0001b0 e3 d0 82 3e 6b b6 d4 bd 0e b8 28 3e dd 04 9c 3b
       0.25549993 -0.10386356 0.16476461 0.004761322
0001c0 bd d6 0b 3e b9 f4 46 3e b1 87 8b 3e d8 d8 aa bd
       0.13656135 0.19429292 0.27251962 -0.08342141
0001d0 ee ec 97 bc c9 65 fd 3e b7 03 9d 3e ef e7 09 3d
       -0.018545594 0.49491718 0.30666897 0.033668455
0001e0 88 b5 4a 3e 3a a8 cf be c2 d3 d5 be 24 e4 df be
       0.19795811 -0.40558034 -0.4176312 -0.43728745
0001f0 28 72 f4 3e 68 04 a6 3e 17 bf ca bd 1d 3b 03 3f
       0.47743344 0.32425237 -0.09899729 0.51262075

weight f4 [128, 128]
000000 ce 8a d7 3b 76 38 0d bd be 06 52 bd 0e 2f bf bd
       0.006577826 -0.034477673 -0.05127596 -0.09335147
000010 1e 0f 81 3c 10 08 06 3d 21 5a 27 bd 94 e3 a0 bd
       0.015754279 0.032722533 -0.040857438 -0.07855907
000020 01 c3 6b bd 25 d7 fe 3c d6 c5 25 bd a6 42 04 3c
       -0.057559017 0.031108448 -0.040471874 0.008072531
000030 f5 4b ae bd 23 e4 60 3d 22 69 88 bd dd 25 32 3d
       -0.085105814 0.054905068 -0.066606775 0.04349314
000040 cc 8d de 3c 98 b1 5d 3d 38 21 11 bd a7 10 df bd
       0.027167223 0.054124445 -0.03543207 -0.10891848
000050 a9 cd 45 3d 02 3e 49 3b b7 85 29 bd 5c 3b d3 3b
       0.048291836 0.0030707126 -0.041387286 0.006446285
000060 b1 9b 48 3d a7 f5 ab bd 32 37 26 bd 3a 70 c4 bd
       0.048976604 -0.08396464 -0.040579982 -0.09591718
000070 dc 5d 9d 3c 25 6e f8 bc 47 f5 a4 bd af 72 e9 bc
       0.019209795 -0.030325959 -0.080545954 -0.028497068
000080 fc 46 f4 3c ce 03 9c bd 93 a1 a5 bd 6a 73 da bd
       0.029819004 -0.07617913 -0.080874585 -0.10666545
000090 c3 ea 5d bc 87 0f d6 bd 02 22 9a bd 7b e7 1e bd
       -0.013544741 -0.1045218 -0.07526018 -0.038794976
0000a0 7f b0 b9 bd 1f 44 c4 bc 93 d1 0f 3d ca 81 1c bd
       -0.09066867 -0.023958264 0.035111975 -0.038209714
0000b0 d0 03 af 3b 0f c0 1c bc 4e 2f 4c 3d 9d 87 2f bd
       0.0053410307 -0.009567275 0.0498498 -0.04285394
0000c0 b1 7a 07 bc 43 90 5e bd 11 4c 68 bd c2 a2 a1 bd
       -0.008268998 -0.054336797 -0.056713168 -0.07892372
0000d0 08 dc 2b 3d b5 a1 af 3c 16 f8 1f 3d 20 ef bf bc
       0.041957885 0.021439413 0.039054953 -0.023429453
0000e0 8b 34 b2 bd 69 45 22 3d bf 17 33 3d 2e 10 e2 b9
       -0.08701428 0.039616976 0.043723818 -0.00043118134
0000f0 50 b6 d2 bd 7b 5c 58 3c b7 b0 b1 bd fa a2 48 3d
       -0.102886796 0.013205643 -0.08676284 0.04898355
000100 78 bf 8f bd f4 d8 72 bd bf da 21 3c 40 d4 3f 3d
       -0.07018942 -0.059288934 0.009878813 0.046833277
000110 39 88 3c 3c 4e 02 8b bd 54 d5 18 bd 74 0b 86 3c
       0.011507087 -0.06787549 -0.03731282 0.016362883
000120 41 e6 69 bc e1 67 00 bd 2b 5f b0 bd 7e 2b 18 bc
       -0.014276088 -0.031349067 -0.08611902 -0.009287713
000130 cc f4 24 bd e6 89 d5 bc 9f 2d a5 bd 80 e3 1f bd
       -0.04027252 -0.026066732 -0.08065342 -0.03903532
000140 3f d9 89 3c a4 a5 b8 bd 4b 8e 42 3d 8c a5 e6 3c
       0.016827224 -0.090159684 0.047498982 0.02815511
000150 8a 73 90 bd 0c 08 73 bd f9 3f 05 3a 67 cc e3 bd
       -0.07053287 -0.059333846 0.000508308 -0.11122971
000160 24 f4 e2 bc 86 9c 87 bc 07 08 75 bd ef 56 03 3d
       -0.027704306 -0.016554128 -0.05982211 0.03206533
000170 71 08 eb 3c 3f 9f e6 3c f1 f1 b1 3a 81 92 d0 3c
       0.028690549 0.028152106 0.0013576132 0.025460484
000180 77 0d 52 bd 7b b3 d3 bc 52 47 71 bd bb ad 2c bd
       -0.051282372 -0.025842419 -0.058905907 -0.04215787
000190 96 c7 9a bd 7d 7f 80 3c e1 d6 bd bb d9 a0 85 bd
       -0.07557599 0.015685791 -0.005793438 -0.0652482
0001a0 a0 de 9f bd 7c 88 72 3c 4f ae aa 3c d0 da bb bd
       -0.07806134 0.014803048 0.02083507 -0.091725945
0001b0 59 8e 7a bd ae 05 10 bd 03 79 b2 bd b5 9d 85 bd
       -0.06117091 -0.035161667 -0.087144874 -0.06524221
0001c0 5a 06 79 bd ea 13 98 bc 14 bf fd bb f2 81 4a bd
       -0.060797073 -0.018564183 -0.0077437256 -0.04944033
0001d0 44 21 c8 bd 7e cc 99 3c c6 94 0d bc 60 98 de bc
       -0.0977197 0.018774267 -0.008641427 -0.027172267
0001e0 ee f0 6d bd 69 45 9d 3c 5b a3 0c 3d 01 c4 05 3d
       -0.058091097 0.019198136 0.034335475 0.032657627
0001f0 f4 f9 8c 3b 61 ac f2 bc db 4e 2b bd 0c 97 45 bd
       0.0043022577 -0.029623212 -0.04182325 -0.048239753
000200 55 45 9e bd a9 57 b4 3c 7e 2a 1d bc 30 50 b7 bd
       -0.07728068 0.022014456 -0.00959265 -0.089508414
000210 45 4d d2 bd 93 be b9 bd 89 ef 6d 3d 07 e6 06 3d
       -0.10268644 -0.09069552 0.058089767 0.032934215
000220 6a 50 ce bd 16 ff d3 bd f6 10 83 3d 5e f1 40 bd
       -0.100739315 -0.10351388 0.063997194 -0.047105186
000230 22 92 bd bd 5c 51 a3 3d 16 1b 8c bd 2f d2 bb bc
       -0.09256388 0.079745024 -0.06841104 -0.022927372
000240 1e 6e 89 bd 0b 08 9f bd a5 a2 93 bd e3 df 3c 3d
       -0.06710456 -0.07765206 -0.07208756 0.046111953
000250 b7 a1 69 3d 5c a4 6d bd 24 02 56 bd 64 49 d2 bd
       0.05703899 -0.058018073 -0.052248135 -0.102679044
000260 ef 8e bb bd 0d cd 8f bd 2c 01 be bd ac d3 40 3d
       -0.09158122 -0.07021532 -0.09277567 0.047076866
000270 48 d7 3f 3c 0f 75 36 bd 4c 1a ba bd 96 a5 42 bd
       0.011709042 -0.04454523 -0.09087047 -0.047521196
000280 33 ca 3c bd 97 51 ba bd 98 3e 32 bd 82 1c 7d 3c
       -0.04609127 -0.09097593 -0.043516725 0.015448691
000290 e5 18 c0 bd f4 6f 35 3c 9c 46 1d 3d 3f 25 79 bd
       -0.09379748 0.011074055 0.038397416 -0.060826536
0002a0 b0 69 b4 3d 44 27 8c 3d 4d ee ae bc 98 13 29 bd
       0.08809221 0.06843427 -0.021353865 -0.04127845
0002b0 88 25 51 3c 8f cc 0b bd ca d0 ec 3b 7b 3f 9a 3c
       0.012765296 -0.03413063 0.007227038 0.018829098
0002c0 a4 ae 95 bd 9e 41 da 3c 33 44 b2 bd aa 85 7c 3d
       -0.07308701 0.026642617 -0.08704414 0.06165091
0002d0 6f ed 5f 3c 6a bc be 3c cf 05 9e bd 1c c6 7b bc
       0.013667448 0.023283202 -0.07715952 -0.015367057
0002e0 04 b8 b9 bd 62 03 5e bd d1 f3 84 3d d7 be 50 bc
       -0.09068301 -0.054202445 0.06491817 -0.012740812
0002f0 55 02 81 3c 15 56 12 bc d1 81 16 bd d0 93 09 3d
       0.015748182 -0.008931656 -0.036744896 0.03358823
000300 9f 30 86 bb 32 4d ed 3c 7e 08 8d bd 01 8b ba bd
       -0.0040951516 0.028967474 -0.068863854 -0.09108544
000310 48 d7 d7 bd fd a8 75 3c ed 35 63 bd 17 32 95 bb
       -0.105391085 0.014993903 -0.05547135 -0.0045530903
000320 22 b0 0f bd 37 e1 fe 3b 91 4a b3 bd 78 4b 3b 3d
       -0.035080083 0.0077783125 -0.08754457 0.04572627
000330 db 15 0f 3d 4a 32 7b bd 2f cc 8f bd b4 03 36 bc
       0.034932952 -0.061327256 -0.07021367 -0.011109281
000340 a3 b5 5f 3c 7c b5 a2 3c 3b 47 a6 bd 85 d2 31 3d
       0.013654145 0.01986193 -0.08119055 0.043413658
000350 d4 1c 21 bd de 90 5f 3d 8a ed 26 3d 51 6f fb bc
       -0.039334133 0.054581515 0.04075388 -0.030692728
000360 2b 2f 0f bd 53 ed 4d bd f6 16 b9 bd d7 04 54 3c
       -0.034957092 -0.050275158 -0.090375826 0.012940607
000370 68 03 a3 3d 3d 7a 11 bd 2a 6d a7 bd 78 c0 30 bd
       0.07959634 -0.035516966 -0.08175118 -0.043152303
000380 cb ee 78 bc 2a 53 6d bd f2 fd cf 3c 7a 7e 02 bd
       -0.015193651 -0.05794064 0.025389645 -0.0318589
000390 a3 8a 59 3c a6 cb 3a 3d d5 0d 8c bb 43 a5 59 3c
       0.0132776825 0.04560437 -0.00427411 0.01328403
0003a0 ba 8e 9c bb 64 41 06 bc 61 d9 40 bd eb 05 d2 3c
       -0.0047777565 -0.008194301 -0.04708231 0.025637588
0003b0 13 8b 69 3d 31 36 1e 3d cd 6c b3 bc 03 9c 68 bd
       0.057017397 0.0386259 -0.021902466 -0.05678941
0003c0 78 ef 1b bc cf 88 41 3d c3 13 45 3d c9 6c 3b bd
       -0.009517543 0.04724961 0.04811455 -0.045758042
0003d0 0b ef 00 3d b5 7a 68 bd 7e 05 61 bd 43 61 c4 bd
       0.03147797 -0.056757648 -0.05493688 -0.09588864
0003e0 2d ff ad bd 53 79 c9 bc 49 42 50 3d 9d 26 a4 bd
       -0.084959365 -0.024593985 0.050844464 -0.080151774
0003f0 86 bb 2d 3d 3c c5 9c bc 5b 40 3b bd e3 2e d2 3c
       0.042415164 -0.019137017 -0.04571567 0.025657123

bias f4 [128]
000000 91 6c 82 bd a3 bf 1e 3d 3d 5c 42 3d 3d 0b a8 3d
       -0.06368364 0.038756978 0.047451247 0.082052685
000010 17 61 6c 3d ea 51 ba 3d 21 49 cb 3c 26 9d bb 3d
       0.05770978 0.09097655 0.024815144 0.09160833
000020 89 1c bb bd ca 59 e5 3d 0c fe e2 3c c1 30 32 3d
       -0.09136302 0.111987665 0.02770903 0.043503527
000030 e1 14 c9 3d ce 12 d7 bc ec ca ed 3c 92 1d 85 3c
       0.098184355 -0.026254084 0.029027425 0.016249452
000040 09 5b d0 3c 4a c9 ab bd 4c aa 3f 3d 0f 72 b7 3b
       0.025434034 -0.08388002 0.046793267 0.0055983136
000050 89 7b bf 3d b7 dc c5 bd b2 d2 d0 3d 77 25 fc bc
       0.09349734 -0.09661239 0.10196437 -0.030779583
000060 9b 2b aa bd 62 90 cd bc 05 16 48 3c b1 d5 98 3c
       -0.08309098 -0.025093261 0.012212281 0.018656584
000070 92 9a 9e 3c aa d8 11 bd 5a 92 6a 3d 77 84 2b 3e
       0.019360814 -0.035607018 0.057268478 0.1674975
000080 0d 4f 8a bd a6 6b e4 3d 0b d6 8c ba 96 21 30 3d
       -0.06753359 0.11153345 -0.0010744942 0.04300078
000090 b4 5a d5 3c 62 a6 dd 3b c0 4e 34 bd ac b0 8a 3d
       0.026044227 0.006764219 -0.044020414 0.06771979
0000a0 08 e6 cb bd e0 71 b4 3d 1f 6d 2e 3e af ec fa bc
       -0.09955984 0.088107824 0.17033814 -0.030630438
0000b0 70 87 0b 3e 19 e6 04 3e f7 f3 28 3e 31 63 21 3e
       0.13625884 0.129784 0.16499315 0.15760495
0000c0 f0 69 0a bd 86 ff c6 bd ab d2 bb 3d 75 47 bd 3d
       -0.033792436 -0.09716706 0.09171041 0.09242145
0000d0 c2 f3 c6 3d 89 66 ed 3d e4 52 39 bd 34 7d be 3d
       0.09714462 0.11591823 -0.045245066 0.09301224
0000e0 b8 ad 9b bd 94 f2 4c bd 42 82 c5 3d 66 d2 0e 3e
       -0.076014936 -0.050036028 0.09643985 0.13947448
0000f0 a4 30 fa 3d 21 6a 94 bd 76 25 19 3e 0c 7e 7b bd
       0.12216309 -0.07246805 0.14955696 -0.061399505
000100 de b4 2b 3c 55 8b a1 bd 24 02 0b 3e 5d c5 a7 3c
       0.010480134 -0.078879036 0.13575035 0.020479852
000110 d7 86 f6 3c c1 79 e2 3d 72 91 16 bd 62 81 89 bd
       0.030093594 0.11058379 -0.0367598 -0.06714131
000120 ff ef 0b 3e 01 4d 8e bd f0 ff 44 3d 25 3f 03 3e
       0.1366577 -0.06948281 0.048095644 0.12817056
000130 2e ae a6 3d 53 89 55 3d 28 15 68 3d f9 01 17 3c
       0.08138691 0.052132916 0.0566608 0.009216779
000140 34 5a e2 3d 84 26 af 3d a0 e9 8f 3d 68 fe 39 3d
       0.11052361 0.08552268 0.07026982 0.045408636
000150 28 81 9a 3d b9 c8 90 bd af 49 24 3d d4 e8 f0 3d
       0.07544166 -0.07069535 0.040109333 0.117631584
000160 a1 8b 1b bc f3 e6 fb 3b 47 f7 28 3d 83 4f b2 3d
       -0.009493739 0.0076874434 0.041251447 0.08706572
000170 0c ee d2 bd d6 95 59 3d 03 d1 eb 3d 01 16 22 3e
       -0.1029931 0.05312141 0.11514475 0.15828706
000180 7d 55 04 3d b2 db ee bc 87 16 fe 3d 24 bd 59 3d
       0.03230809 -0.029157493 0.124066405 0.053158894
000190 23 3e 54 bc ed c2 1d bd 4d fb 46 3d 62 39 a2 bd
       -0.012954268 -0.038515974 0.048579503 -0.07921101
0001a0 ac 73 27 3e f4 eb 0e 3e af 66 83 bd 99 d2 42 3d
       0.16352719 0.13957196 -0.0641607 0.047564123
0001b0 5e 25 0f 3e fe 45 26 3e db 3d 40 bd d6 68 70 3c
       0.13979098 0.16237637 -0.04693399 0.014673432
0001c0 7d bd c9 3d 6d 89 31 3d 5a a2 c6 bc ed 48 07 3d
       0.09850595 0.04334395 -0.024247337 0.03302853
0001d0 e0 91 1e 3e 59 6f 92 3c 17 b4 2b 3e c1 70 49 3d
       0.15485334 0.01787536 0.16767918 0.049179796
0001e0 f0 f9 a8 3c 76 28 c0 bc dc d8 31 3d 17 1a d7 3c
       0.020626992 -0.023456793 0.043419704 0.026257558
0001f0 66 ce 93 bd 08 28 63 3d 1f 31 bb bc 94 43 4a ba
       -0.07217102 0.0554581 -0.022850571 -0.00077157584

weight f4 [2, 128]
000000 7e e6 2d 3c 24 dc ab bc c7 a9 3d bc 42 28 01 3e
       0.010614036 -0.020978995 -0.011576123 0.12613013
000010 7a ef a7 bc 58 10 1f 3e b2 40 b8 3c 0f 56 1c 3e
       -0.020499934 0.15533578 0.022491787 0.15267204
000020 d4 68 02 3d aa fb 18 3e 1e a4 09 bd 8a 5a 4b bd
       0.031838253 0.14939752 -0.03360378 -0.04964689
000030 59 1e 3f 3d e2 ad 34 3c 69 c7 24 3e d0 3f 6e bd
       0.0466598 0.011027785 0.16091694 -0.058166325
000040 81 02 be b9 cf 57 4f bd 85 da 41 3e d3 67 42 3d
       -0.0003624149 -0.05062085 0.18931015 0.047462296
000050 2b 90 28 3e 15 45 1f bd d8 f0 0b 3d 83 ad d2 bc
       0.16461246 -0.03888424 0.034165233 -0.025717502
000060 bf c8 06 be 5e 75 8f 3d 16 73 8a 3c f9 61 07 bd
       -0.13162516 0.07004808 0.01690058 -0.03305242
000070 a8 bd 8d 3d 52 5b 61 3e 32 ee 07 bd bd 03 5d 3d
       0.0692094 0.22007492 -0.033186145 0.053958643
000080 12 26 01 bd a8 06 f0 3d 63 8a fe 3c 82 cd 82 bc
       -0.031530447 0.117200196 0.031071847 -0.015967134
000090 13 2b 17 3e c2 e1 c9 3d fa 73 75 3d e8 c7 d1 bc
       0.14762525 0.09857513 0.059925057 -0.025608018
0000a0 39 dc b7 3b b8 f7 fb 3d d6 be 39 3d 0f a8 59 bd
       0.0056109694 0.12303108 0.04534801 -0.05313879
0000b0 f4 17 00 3e 42 5b 40 3e 1c b7 f0 3d 92 53 d5 3d
       0.12509137 0.18784812 0.11753675 0.104163304
0000c0 6d 96 84 bd 6e 76 a9 bc 9a 5b 82 3d 38 3c a8 3d
       -0.06474004 -0.020686354 0.06365128 0.08214611
0000d0 7e e8 f0 3d 21 2e 1d 3e 8e 8b fd 3c 89 82 ce 3d
       0.11763094 0.15349628 0.030950334 0.10083491
0000e0 44 44 67 bd 83 ab a2 bb 7d 8b a7 be ac 7c ed 3d
       -0.056461588 -0.0049642934 -0.3272361 0.11596045
0000f0 f2 3d f7 3d 60 db 1f be 22 16 2b 3d 65 03 ed 3c
       0.12072362 -0.15611029 0.041769154 0.028932283
000100 8d 89 63 bd 9b f1 89 3b ab 67 1f 3e 57 5a ae bb
       -0.0555511 0.00420971 0.1556689 -0.005320828
000110 45 77 c5 3d 96 52 0e 3e 07 27 8f 3c b4 0f 81 bd
       0.096418895 0.13898692 0.017474664 -0.06301823
000120 5e 65 fe 3d 51 f9 61 3d 97 d9 b6 3d 59 31 3e 3e
       0.12421678 0.055169407 0.08928221 0.18573512
000130 b9 45 0d 3e 85 42 0c bd b0 e4 70 bc 18 84 9f bc
       0.13796128 -0.034243125 -0.014702961 -0.019472167
000140 79 1e 0f 3e 84 95 8a 3d 08 c4 d3 3d d1 c6 d0 bc
       0.13976468 0.06766799 0.10340124 -0.025485428
000150 3e 12 0b 3e c7 91 cc 3a d5 7f 18 3e bd f5 1b 3e
       0.13581178 0.001560741 0.14892514 0.1523046
000160 23 33 0c bd 68 6b 10 3e 6d 7b 08 3e c0 82 89 3d
       -0.034228455 0.14103472 0.13328333 0.06714392
000170 52 14 11 3d 17 29 09 bd 88 99 2e 3e d0 89 01 3e
       0.03541977 -0.033486452 0.17050755 0.12650228
000180 a7 7e 93 3d b9 8a ef bd 39 21 1f 3e 2f eb 8e 3d
       0.072018914 -0.11696381 0.15540017 0.069784515
000190 a6 01 86 3c b8 4a a0 3c d6 e2 19 3e 90 3d a9 3d
       0.016358208 0.019566879 0.15027937 0.08263695
0001a0 f3 36 2c 3e 73 dd 74 3d 41 f9 b0 bc 24 c9 00 3e
       0.16817836 0.059781503 -0.021603229 0.12576729
0001b0 66 e4 0b 3e 09 9f a6 3d 6c 23 e1 3c e6 d7 99 3d
       0.13661346 0.08135802 0.02748271 0.075118825
0001c0 ca 12 4c 3e f3 ea d7 3d 18 a6 f2 bc c0 bd 2b 3e
       0.19929042 0.1054286 -0.029620215 0.16771603
0001d0 30 60 d5 3d e2 02 48 bd a9 e4 b2 3d 4b 30 17 3e
       0.10418737 -0.048830874 0.0873502 0.14764516
0001e0 3b d3 26 bd fd 80 02 3c 4a 17 e4 3d e3 45 e5 bc
       -0.04072879 0.0079653235 0.111372545 -0.027987426
0001f0 b5 1c 0f be 78 0d 57 bd bf 76 04 bd 9e 07 4d bd
       -0.13975795 -0.05250308 -0.032339808 -0.050056092
000200 e0 bb 4a b9 6b 92 89 3d 7c 1f 60 bd cb ed df 3d
       -0.0001933421 0.0671738 -0.054717526 0.10934027
000210 2d f1 cb 3c 15 fb 99 3d 0b 0d 57 bc 8a 8e 0a 3e
       0.024895275 0.07518593 -0.013125668 0.13530937
000220 1f e7 44 bd aa 75 ad 3d 4e 51 30 3d d8 23 65 bd
       -0.048071977 0.08469708 0.04304629 -0.055942386
000230 4b 34 08 3e 24 54 01 be 87 ee 86 bd 51 fc 32 bd
       0.13301198 -0.12629753 -0.06588464 -0.04369766
000240 89 73 23 3e b9 35 36 be c2 a3 24 3d 38 29 03 3e
       0.15962042 -0.17793931 0.040195234 0.12808692
000250 0c f8 8a 3c f5 c0 c5 3c 09 68 0a 3e a4 23 ee 3c
       0.016963981 0.02413986 0.13516249 0.02906973
000260 6e 2f 07 be 9d 8d 76 bd 68 14 89 bb 50 2b 95 bd
       -0.13201687 -0.060193647 -0.004183341 -0.07283652
000270 82 17 06 3e 17 d2 41 3e 92 bd 27 3d cb f4 2e 3e
       0.13094905 0.18927799 0.040952273 0.17085569
000280 d8 9a 06 bd d2 a0 c5 3d 11 57 5d bd 70 0c 21 3d
       -0.032862514 0.09649815 -0.05403811 0.039318502
000290 fe bd cd 3d db c0 7c 3d a2 69 8d 3d 47 6f 1c 3d
       0.10046004 0.06170736 0.069049135 0.03819206
0002a0 18 8f a7 3c dd 52 14 3e ae 95 24 3e f8 6e a1 3b
       0.020453975 0.14484735 0.16072723 0.0049265586
0002b0 07 cf e8 3d 97 a5 c4 3d 01 e6 17 3e d5 8e 3e 3e
       0.11367612 0.09601896 0.14833833 0.18609174
0002c0 ec 03 a6 3d 7a a5 7f bc 9b 83 fe 3d 00 b8 28 3e
       0.08106217 -0.0156034175 0.124274455 0.1647644
0002d0 03 da 19 3e 24 1a 81 3d 2b c6 11 bd cb 9f cf 3d
       0.15024571 0.06303814 -0.03558938 0.101379
0002e0 c8 1a 96 3d 73 7f 27 bc 74 ee ad 3d 42 c4 88 3d
       0.07329327 -0.010223257 0.08492747 0.06678058
0002f0 77 b6 02 3e 3f d9 03 be 7a a9 fa 3d 07 77 94 3d
       0.12764917 -0.12875842 0.12239356 0.07249265
000300 9e 5f 44 bd 86 13 0a bd 39 ab fa 3d 99 39 23 bd
       -0.04794275 -0.033710025 0.122396894 -0.03984985
000310 79 7f fe 3d 55 c9 25 3e c1 90 3e bd 36 db 00 39
       0.12426657 0.16190083 -0.046524767 0.00012288694
000320 be 66 d1 3d 76 90 52 bb ef 48 1f 3e 7a fe b1 3d
       0.10224675 -0.0032129562 0.15555166 0.08691116
000330 be 13 8a 3d f9 4c 98 3d e9 8a 24 bd fb 7c 86 bc
       0.06742047 0.07436556 -0.040171538 -0.016417017
000340 7c 39 45 3d 51 5c 06 3e 0e c2 43 3e fb 9c a2 bd
       0.048150524 0.13121153 0.19116995 -0.07940098
000350 04 f3 e9 bd 54 2c 54 39 b4 87 9f 3d 82 83 02 3e
       -0.11423305 0.00020234409 0.07789555 0.12745479
000360 f2 5a 49 3d fc 8f 8b 3d 61 2f f6 3d 5b 04 22 3e
       0.049158998 0.06814572 0.120207556 0.15821974
000370 42 39 56 bd 44 f8 61 bd 0b 57 18 3e 23 2f fa 3d
       -0.0523007 -0.055168405 0.14876954 0.12216022
000380 3f ad 3f bc de 61 49 be 86 a5 c0 3d 52 08 10 3e
       -0.01169902 -0.1966624 0.09406571 0.14065674
000390 84 ab 54 bd fe 17 72 3c 7c 08 88 3d 6f c6 a9 bd
       -0.051921383 0.014776228 0.06642243 -0.08289801
0003a0 d4 ae f9 3d 1b f7 17 3e b8 38 96 3d d6 a5 1d 3e
       0.12191549 0.14840357 0.07335037 0.15395293
0003b0 38 27 0d 3e d2 1f ae 3d 09 00 3b bd 5d 6a 64 3d
       0.13784492 0.08502163 -0.04565433 0.0557655
0003c0 11 e1 3a 3e 37 00 d2 3d ab c5 8d 3d 48 d1 2f 3d
       0.18249919 0.10253947 0.06922468 0.042924196
0003d0 18 38 e5 3d 2c 5c 6d 3d 58 dd 06 3e 9a 42 04 3e
       0.1119234 0.05794923 0.13170373 0.12916031
0003e0 f8 71 b8 3d 10 16 c6 bc 85 13 c8 3d af 50 6c bd
       0.09006113 -0.024180442 0.09769348 -0.057694133
0003f0 9b 6c d5 3a d6 9d a4 bb 6f e7 ad 3b 0c 1e c0 3c
       0.0016282977 -0.0050236983 0.00530713 0.023451827

bias f4 [2]
000000 74 1d c0 3d 6d ca 11 3e
       0.09380618 0.14237376
