TP6/models/lab6/lab6_dqn1_q_network.pth (torch, 73472 bytes, 6 tensors)

weight f4 [128, 4]
00000000: 7387 2d3d e491 82be 50c6 f3bd 1880 e3be
00000010: ab9b aebe 20c0 923e 3ff7 063e f783 3dbe
00000020: 7a14 093e 0c04 a4be 78d3 9bbd 058c 713e
00000030: 45ca 93bd c92b 7dbe 6074 33bf 043f bdbe
00000040: a077 fb3c d9ea 2f3e ba65 3c3e 04fa 503e
00000050: ddbe 87bd ae3f 7f3e 90ff 41be 0c8e 0abf
00000060: 8996 233e 4e86 a73e 491e 71be 0f54 51bd
00000070: e6cf c0be 1e7e e7be f0d9 dcbe 36f9 943e
00000080: a691 b53e 0b1f e53e afa9 c33d 29ba e13d
00000090: 6fbf a0bd edce 673d df73 2dbf 44bb e1be
000000a0: 595b d8bd 1433 d73e f3c8 113e 617f 58be
000000b0: 5fc1 1d3e 5df4 643e c05b 473e 4b7c 293e
000000c0: 387c 78be 411e ac3e 6788 9e3d 535f 36be
000000d0: e572 a8be 6c80 05bf b808 94bd db30 e1be
000000e0: 8998 bbbe f117 dc3e f6f9 ed3e 41dd cc3e
000000f0: 6f38 dfbe 0d62 e63c 655c 913e 1527 76bd
00000100: 23fc 6dbe 6eeb b53e 4f7a 18bf 5cf2 cfbe
00000110: 4762 433d a62b 93be 39ef 39bd ac8e 54be
00000120: 797e 36be 221e fc3d cb08 d5bb 6723 98bd
00000130: dd4e bebe 56b7 aebd b964 e2be dcff c2be
00000140: 43ca 4ebe 7490 963d a6cb 723e 38a3 193e
00000150: 5fad 543e cda5 03bf 8135 1b3c ec4b 7b3e
00000160: 2433 c0be bf69 a33e 5910 033e 752c a0be
00000170: ae22 8fbe abcd 5dbe 9498 28be c3f7 8f3e
00000180: 06ee b63e 3a46 69be 4433 0b3d 6d03 7dbe
00000190: 2394 023e f36f 463e be69 273f eb8e 033f
000001a0: 2d2f 03bd 2346 b83e b861 acbe 7232 903e
000001b0: eec0 663e 7b25 67ba 3ea9 ab3e 3d79 dfbd
000001c0: 81f3 2abe ab7d 7abe 4862 86be f906 51be
000001d0: 63db ce3d 2d84 e3be d126 dd3e 4ce8 5ebe
000001e0: 75d8 673e 98af 8fbc 3e05 0fbf e96b 14bf
000001f0: e16e 00bf 0576 92be eac5 f1bb bcc5 c83e
00000200: a526 d03e fb44 d73e 55d4 ddbe 54ed dfbe
00000210: 9404 893e 1a14 64be 4a9b 8c3e 96c7 e93e
00000220: ad73 a9be 6f49 06bf 5158 2b3e 922e 4a3c
00000230: 361d b63e 5ef2 d9be 3c97 13be 9c34 f2bd
00000240: 33e5 983e 7de4 053e ca2f 823d 4d11 1e3e
00000250: 85c0 373e 1693 89be c8d6 65be c9f6 a8be
00000260: 3191 73bd 7c6e a8bd a718 bc3e 15e3 cbbe
00000270: 6550 58be 78d6 413e d7d2 dd3e bb2f 65be
00000280: d63e c43e d973 d03d 6469 f63e e83f a2be
00000290: 341c 813e 1f78 ba3e 5a11 9abe 9746 c23e
000002a0: 478c f9bd 565c 983e 1b07 bdbe 96ff 70bd
000002b0: 95de 3abe 4342 32be b110 d8be 559f a53e
000002c0: 7c31 d73e 5315 a1be a532 b8be 1c6e 8dbe
000002d0: f0af 0e3e a96a abbe 6e53 64be 45ec 6cbe
000002e0: f22f 803c 0d6a dabe 4776 b93e 22a6 be3e
000002f0: d676 14bf 0ef2 08bf 2d6b 973e b0f8 153e
00000300: fef7 f3bb ea26 d33e 05f2 363f ebea c23e
00000310: 4371 babd 9bed 463d 0a35 cf3d 164d d73e
00000320: f15a 1abe ef85 04be 12ed eb3e 578d 9bbe
00000330: e27f 143e d4a2 443e e035 48be 9bb7 c4bd
00000340: afe1 293e a3f1 773e 626a 00bf 1fb8 cebe
00000350: 2d66 2dbd 2b03 5fbe fca4 96be ae88 15bf
00000360: 067b cd3e 7397 07bd 817b 983d 4f0a 6fbe
00000370: a349 ca3e 7b7d da3e becf 64be 26c9 5b3e
00000380: ddc8 133e d32b a8be bd1e 98be 3414 83be
00000390: 68cc d9bc 7374 603e e979 7dbe 80fb 443e
000003a0: 15a6 cc3b 0006 97be 88f5 d43e e9fb bdbe
000003b0: af5f 4c3e 31ba 3abe ed31 763e c60c a5bd
000003c0: 13ee 66bd a0dc 073e 72ef 053f a1d6 84bd
000003d0: 069e d33e 17f1 96bd 75ca 9cbe e25c 843e
000003e0: 8fc3 dfbe 3751 2dbd 10b1 61be 9554 0abf
000003f0: cc81 e4be feae e93e 5fd0 8a3e c911 553e
0.042365503 -0.2550193 -0.119030595 -0.44433665 -0.3410314 0.28662205 0.13180254 -0.18507372
0.13386717 -0.32034338 -0.07608694 0.2358857 -0.07216314 -0.24723734 -0.7009945 -0.3696214
0.03069669 0.17179431 0.1839818 0.20407873 -0.06628201 0.24926636 -0.18945146 -0.54122996
0.15975393 0.32719654 -0.23546709 -0.051105555 -0.37658614 -0.45213407 -0.43135023 0.29096383
0.35462683 0.44750246 0.09553849 0.11021835 -0.07849013 0.056593824 -0.6775493 -0.44088185
-0.10564298 0.42031157 0.14236812 -0.21142341 0.15405796 0.22358842 0.19468594 0.1655132
-0.24266136 0.33616832 0.077408604 -0.17809801 -0.32900158 -0.5214908 -0.072282255 -0.43982586
-0.36639813 0.42987016 0.46479768 0.40012553 -0.43597743 0.028122926 0.28390804 -0.060095865
-0.23240714 0.3553118 -0.5956163 -0.40614593 0.047701146 -0.2874424 -0.045394156 -0.2075755
-0.17821683 0.12310435 -0.0065012923 -0.074286275 -0.37169543 -0.08531062 -0.4421747 -0.3808583
-0.20194344 0.07351771 0.23710498 0.1500367 0.20769261 -0.51424867 0.009473206 0.2454068
-0.37539017 0.31916615 0.12799205 -0.31283918 -0.27956146 -0.21660487 -0.16464454 0.28118715
0.35728472 -0.22780696 0.033984438 -0.24708338 0.12751822 0.19378643 0.65395725 0.5138995
-0.032027412 0.3599101 -0.33668303 0.28163487 0.22534534 -0.00088175357 0.3352756 -0.10911796
-0.16694452 -0.24462001 -0.26246858 -0.20412816 0.101004384 -0.4443678 0.43193677 -0.21768302
0.22641166 -0.017539784 -0.55867374 -0.5797716 -0.5016919 -0.28605667 -0.0073783295 0.3921336
0.40654483 0.42044815 -0.4332606 -0.43735754 0.26761305 -0.22273293 0.27462226 0.45660084
-0.33096066 -0.524558 0.16732909 0.012340205 0.3556916 -0.42567724 -0.1441316 -0.11826441
0.29862365 0.13075443 0.06356771 0.15436287 0.17944534 -0.2687003 -0.22445214 -0.33000782
-0.059464637 -0.08224198 0.36737558 -0.39821687 -0.21124418 0.1892947 0.4332492 -0.22381489
0.3832919 0.10178346 0.48127282 -0.31689382 0.2521683 0.3641977 -0.30091363 0.3794448
-0.12184959 0.29757947 -0.36919484 -0.058837496 -0.18248971 -0.1740809 -0.42200235 0.32348123
0.4202994 -0.31461582 -0.3597614 -0.2762307 0.13934302 -0.33479813 -0.22297451 -0.23137005
0.015647862 -0.42659035 0.3622305 0.37236124 -0.5799383 -0.53494346 0.29573956 0.14645648
-0.0074453345 0.41240627 0.7146304 0.38069853 -0.09103634 0.048566442 0.10117538 0.42051
-0.15073754 -0.12941717 0.46079308 -0.3038127 0.14501908 0.19202739 -0.19551802 -0.096053325
0.16589998 0.24213271 -0.5016233 -0.40374848 -0.04233377 -0.21778552 -0.29422748 -0.5841168
0.40132922 -0.033103418 0.074454315 -0.23343776 0.39509305 0.4267386 -0.22344872 0.21463451
0.14432092 -0.32845935 -0.2971095 -0.2560135 -0.026586726 0.21919422 -0.24753536 0.19236565
0.0062453845 -0.29496765 0.41593575 -0.37106255 0.19958375 -0.18235089 0.24042483 -0.08059077
-0.05637939 0.13267756 0.5231849 -0.0648625 0.413315 -0.07370203 -0.30623212 0.25852114
-0.43703887 -0.04231378 -0.220402 -0.5403531 -0.44630277 0.4564132 0.271121 0.20807566

bias f4 [128]
00000000: dcba 0abe edd9 62be d075 153e 0992 d6bd
00000010: 750f df3e 4179 62be bd9f 213f a91c cbbc
00000020: 3797 773d 8f45 58be 3d8d 1d3f 171e 013f
00000030: fcf5 573e 917e 8cbe 17c6 1a3f 6cd4 d1be
00000040: 0502 243d a17e b73e 794f ae3e 3ed6 84bd
00000050: b50e f13e b79e 323e 5f74 273f b204 f53e
00000060: fa45 efbe 884a 86be 1701 983e e73a 8e3e
00000070: d56a a93e 9dc3 e13e ffac babe 1f71 eebe
00000080: dd69 a7be a657 79be 0e7b c2be 718e b3be
00000090: 168f 5b3e 2cef 0b3f c8c5 b03e e9cf 9c3e
000000a0: 902a 513e f6c2 443e ff3e 223f 9658 72be
000000b0: 2a84 bf3e a5aa c53e 1520 c4be 67da c2be
000000c0: d1b1 633d 62b1 8b3e bc38 003f c173 1e3f
000000d0: 0e21 a1be 1e4b ec3c f8d0 183f 69eb 5c3e
000000e0: 5587 be3e afca 853e 7eaf e93e 645e 8a3e
000000f0: b86c 7d3e a118 9e3e 2560 47bc 2512 a73e
00000100: 59f2 ff3e 1f9e b3be 76be bcbe 6b15 1cbe
00000110: 9bf2 8d3e 4eea 103f 8e43 9b3c e65b 5cbe
00000120: 691a 84be f7e2 5dbc 9b7d 57be 01d7 08be
00000130: 32d5 c9bd b9e5 69bd 6644 033e 1fae d63e
00000140: 30b5 0e3f efa8 a63e 5bfa 32be 7ec8 ad3e
00000150: 3f23 963e 8195 b5be cd32 48be cc58 103e
00000160: 2c74 003f 30d0 1d3f cd4b 043f 3f2c 86be
00000170: 6359 8dbe 3b9a 253e 1c66 0f3f 19c0 e4be
00000180: 9850 723e bb8f d5be fdcb d43e 52e5 6f3e
00000190: 2c29 023f 6ea3 233e 0fb5 093f 7a49 c0be
000001a0: 072d 0c3f 2987 0bbe 627f 133f 7d2b d43e
000001b0: a455 93be f2e6 2abe a202 093f d812 ae3e
000001c0: c7ad 773e a265 d23a 961d 6fbe 9b2d 0dbe
000001d0: 9cda 823b c9a3 9a3e 89b0 c0be 67ff f4be
000001e0: 4306 9fbe 6693 cbbe 593c fb3e 83a6 9d3e
000001f0: 0957 013f e349 383e dd04 83be 1404 df3e
-0.13547844 -0.22153445 0.14595723 -0.10477073 0.4356648 -0.22116567 0.63134366 -0.02479394
0.060446944 -0.21120284 0.6154364 0.5043654 0.2108993 -0.27440313 0.6045851 -0.40982378
0.04004099 0.35838798 0.34045008 -0.06486176 0.47081533 0.17443357 0.65411943 0.47855145
-0.46733075 -0.26228738 0.2968833 0.27779314 0.3308932 0.44094554 -0.3646011 -0.4657068
-0.32697955 -0.24349841 -0.37984508 -0.35069612 0.21441302 0.5466182 0.34525895 0.30627373
0.20426393 0.19214997 0.63377374 -0.23666605 0.3740552 0.38606754 -0.38305727 -0.38057253
0.0555895 0.2728377 0.5008657 0.61895376 -0.3147053 0.028844412 0.5969386 0.21574177
0.37212625 0.26131198 0.45641702 0.2702514 0.24748504 0.30878165 -0.012168919 0.3263103
0.49989584 -0.35081574 -0.3686406 -0.15242545 0.27724156 0.5660752 0.018953111 -0.21519431
-0.258014 -0.013542882 -0.21044008 -0.13363267 -0.09855117 -0.057103846 0.1281906 0.4192972
0.5574522 0.3255076 -0.17478316 0.33942026 0.29323766 -0.35465625 -0.19550629 0.14096373
0.50177264 0.61645794 0.5167816 -0.26205632 -0.2760726 0.16172116 0.5601518 -0.4467781
0.23663557 -0.4171122 0.4156188 0.23427323 0.50844073 0.15980312 0.537919 -0.37556058
0.54756206 -0.13625778 0.57616246 0.4143943 -0.28776276 -0.16689661 0.5351964 0.33998752
0.24187385 0.0016052017 -0.2335113 -0.13786928 0.0039933454 0.30203083 -0.37634686 -0.47851107
-0.31059465 -0.39760894 0.4906948 0.307911 0.5052343 0.17996936 -0.25589648 0.435578

weight f4 [128, 128]
00000000: 0f90 ee3a 6119 6cbd 5e10 a4bb a223 e4bc
00000010: 6321 0abd e80f 3bbd 4996 89bc c1d6 63bd
00000020: a7ec 9abd 7795 9fbd 8e98 813a 519e 46bd
00000030: 1eee a4bd ef97 3f3d 7fc7 503d 875e 1a3d
00000040: 1432 3abd 4cb6 433d 6e51 233d 72c4 1a3d
00000050: 7d96 4d3d 3efa c0bd f992 00bd 50a0 50bd
00000060: af50 2a3c f097 c93b b40a d5bd cc4d 91bd
00000070: bc0e ccb9 87c1 90bd f6a4 a5bd 2b2a 0d3d
00000080: fbb6 953b 82ab 393c 43b0 2cbd 1e63 00bd
00000090: 7e60 233d 6efb 9ebd 5635 dc3c d686 96bd
000000a0: a07c 07bd 1c5d 733c 4b03 663d 61fb 8c3d
000000b0: f9c3 83bd 3dad 23bd 2878 caba b818 13bc
000000c0: 0ba9 a53d 880c 0dbd 212d 91bc f7ed 03bd
000000d0: 641e a0bc b2a7 a3bc fc0f 593c ae39 f2bc
000000e0: 4162 483d 8600 b0bc f976 e53c be05 97bd
000000f0: 148f 37bd 5deb 89bd c4e2 c7bd 3792 c3bd
00000100: d253 9bbd a125 a13d 2b44 aabc c699 b7bd
00000110: 689b 34bd ba66 ac3c 2195 9dbc eb28 a2bd
00000120: ae7b 963a ac29 073d 32f5 a43d de38 84bd
00000130: dd29 8abd 951d 49bd bfac 83bd 9a63 b6bd
00000140: 89f3 1fbd 323b 45bd 8870 77bd dca7 183d
00000150: 210a c2bd 169d 42bd 6458 a0bd 570d a1bd
00000160: 4432 8bbd 1667 93bd fce6 3a3d 6294 a43d
00000170: 94e3 9e3d 0a42 b3bd e86a 083d 6891 85bd
00000180: 5b57 4cbd a543 c1bc 661e c4bd 83c8 4bbc
00000190: 9cbe edbc a002 4b3d 2534 1bbd a7a3 a73d
000001a0: 6908 c3bc a1b6 0dbd a103 b03c 4c2e 12bd
000001b0: 4a13 1fbd fff7 2e3d 0f80 ad3c 2b57 2b3b
000001c0: fcfd 013d 9202 66bd 2363 d6bc 970d 603d
000001d0: 3e70 0c3d 72e8 8ebc e2a4 043d 52a5 153d
000001e0: f8fe 143c 64c7 9dbd a910 62bc d3a1 b8bd
000001f0: 81a4 7cbc d19c c6bd 2e90 7a3d 6e5a d5bd
00000200: 49f0 413d 73af 70bb 4be2 a5bd 3bd8 1c3d
00000210: 50e1 8f3c 6a9c 61bc d7f6 c4bd b737 863d
00000220: 370e 683d 7b2c 8ebd abba 81bd acc6 5cbd
00000230: d456 683d 9cb7 b03c 73fb 693d 6ee3 97bc
00000240: cd8e adbc 6df0 273d ac26 683d d02f aabb
00000250: efa2 21bd b264 843d 231f bebd 76f9 4c3d
00000260: 6280 cd3c 7460 9339 58c5 ae3c 59ca a1bd
00000270: 15f3 23bd 7432 56bd cbc5 6e3c 08cd 863d
00000280: da16 a5bb d3c1 75ba 64c5 64bc ff31 56bd
00000290: c11b b2bc de5c b4bd 49f3 183c 5315 38bb
000002a0: 357b 263d 5c8a 9cbc b516 453d a3d1 ef3c
000002b0: e6b9 a1bc aab4 203c ffcc 9cbc 4b9d 3dbd
000002c0: ea3c a7bd 8e3f 18bc 144e 35bd d489 65bd
000002d0: 5d5d 5ebd 7f4a 90bd 45b0 55bd 946d bfbd
000002e0: 4144 e23c 76ea b5bd cad5 79bd b8c5 25bd
000002f0: 834e d03c 5ccb 18bc 8880 623d 23cb 6b3d
00000300: e167 9abc 4662 82bd 6db4 79bd f846 1bbc
00000310: 59c8 f0ba aa8b b03c bc84 a13d 7698 89bd
00000320: 52cf 7fbc ac11 8f3d 2d19 a03d 8470 93bd
00000330: 1011 51bd ce7c a0bd dac9 fbbc 8cf5 763b
00000340: e273 0fbd b301 98bd 8bd0 763d 8102 91bd
00000350: b926 87bd 2576 193d 82d5 35bd 761c 74bc
00000360: 15ca e5bc 73c7 ef3c ad17 eabc 1922 f4bc
00000370: 595e 253c 3470 b93a fdea 5e3d da56 65bd
00000380: bf82 be3a 89d0 493d 7fef 99bc 256b 693c
00000390: 61ab 233b a84a 88bc 4b80 6cbc 69cd e2ba
000003a0: ab00 b8bd 9089 afbd 28c1 c3bc df9e 7d3d
000003b0: d6b8 753c 9230 1ebc da3a 1fbd 6fc7 1b3c
000003c0: 7045 adbd f4d7 68bd 0f32 603d ce3b 70bd
000003d0: ebc6 f83a fa33 8dbc 1f18 833d 3ff9 0fbb
000003e0: 7c78 ab3b ced4 fabc 6d1c a73b bbf0 a03c
000003f0: 08dd c2bd 3fc7 01bd 17fc 803d 22ac 6d3d
0.0018200892 -0.05764139 -0.005006834 -0.027849022 -0.033723246 -0.045669466 -0.016795294 -0.055624727
-0.07564669 -0.0779218 0.0009887384 -0.048490826 -0.0805323 0.046775755 0.050971504 0.037687805
-0.045457914 0.047781274 0.03987258 0.037785 0.050192345 -0.0942273 -0.031390164 -0.050934136
0.010395213 0.0061521456 -0.10402432 -0.07094917 -0.0003892089 -0.070681624 -0.080881044 0.034464043
0.004568932 0.011332395 -0.042160284 -0.031344526 0.039886944 -0.077628 0.026880901 -0.07349937
-0.033077836 0.014853742 0.056155484 0.06883884 -0.06433863 -0.039960135 -0.0015447186 -0.008978061
0.08088883 -0.03443578 -0.017721714 -0.032209363 -0.019545741 -0.019977424 0.01324844 -0.02956852
0.048921827 -0.021484625 0.028010832 -0.07374142 -0.044814184 -0.06734345 -0.09760049 -0.09549373
-0.07584347 0.07868505 -0.020784458 -0.08964877 -0.04409352 0.021045078 -0.01923615 -0.07917961
0.0011480951 0.032998726 0.0805458 -0.06456159 -0.06746266 -0.049100477 -0.06429433 -0.08905716
-0.039050613 -0.048152156 -0.060410053 0.03726946 -0.09474588 -0.04751309 -0.07829359 -0.078638725
-0.06796697 -0.071973965 0.04563044 0.08036114 0.07758251 -0.0875283 0.03330508 -0.06521875
-0.049887996 -0.023591826 -0.095761105 -0.012437942 -0.029021554 0.04956305 -0.037891526 0.08185511
-0.023807721 -0.034597997 0.021486105 -0.035688683 -0.038836755 0.042716976 0.021179227 0.0026144485
0.03173636 -0.056154795 -0.026170319 0.05470046 0.03428673 -0.017444823 0.032383807 0.036534615
0.009093992 -0.07704046 -0.013797917 -0.090152405 -0.01542008 -0.09697879 0.061172657 -0.10417639
0.047348294 -0.003672567 -0.080998026 0.03829215 0.017563492 -0.013770202 -0.096173935 0.065535955
0.05665418 -0.06942078 -0.06334432 -0.053900406 0.05672343 0.021571927 0.057124566 -0.018541064
-0.021186257 0.041000772 0.056677505 -0.005193688 -0.039462026 0.064645186 -0.092832826 0.050042592
0.025085632 0.00028109888 0.021334335 -0.07899923 -0.040026743 -0.05229421 0.014573525 0.06582075
-0.0050381245 -0.00093748904 -0.013963077 -0.052293774 -0.02174175 -0.088067755 0.009335347 -0.0028088882
0.040644843 -0.019108944 0.04811736 0.029274767 -0.019741964 0.009808699 -0.019140719 -0.046292584
-0.08165915 -0.009292496 -0.044263914 -0.056039646 -0.054288257 -0.07045459 -0.052170057 -0.09347072
0.027620437 -0.088826105 -0.0609949 -0.040471762 0.025428062 -0.009325828 0.05529836 0.057566773
-0.018848361 -0.063664004 -0.060963083 -0.0094773695 -0.0018370255 0.021550972 0.07886645 -0.06718533
-0.015613394 0.069857925 0.07817302 -0.07199195 -0.051041663 -0.078363046 -0.030735899 0.0037682978
-0.035022624 -0.07422199 0.060257476 -0.07080556 -0.06599183 0.037466187 -0.04439307 -0.014899364
-0.028050462 0.02926991 -0.028575743 -0.029801415 0.010093295 0.0014147819 0.05442332 -0.05599103
0.0014534815 0.04927114 -0.018790958 0.014246737 0.0024973976 -0.016637161 -0.014434884 -0.0017303649
-0.089845024 -0.0857116 -0.023895815 0.06191909 0.014997682 -0.009655135 -0.038874485 0.009507998
-0.0846051 -0.056846574 0.05473524 -0.058650784 0.0018980181 -0.017236698 0.06401085 -0.002196863
0.0052328687 -0.030619051 0.005099824 0.01964604 -0.095148146 -0.031684157 0.06298082 0.058025487

bias f4 [128]
00000000: e9aa ee3c 4652 e5bc af8f 4cbd 14b7 1a3c
00000010: 08ac 3c3d 1140 5fbd 91fc 613d 0eec 743d
00000020: 2353 3e3d 8a1e 7d3d 4691 493d b422 52bd
00000030: da54 c83d 98c6 85bd a63e 0f3d 40e9 413d
00000040: 8d85 6e3d 2983 0bbd 736d 6f3c 8ddb 383d
00000050: 2b49 22bd 5fce 68bd 25f7 d73d e2f4 87bd
00000060: 1894 743d e828 90bc 5842 223d 70f2 07bd
00000070: da43 ab3c 1cfd 8ebc 9e4b 9a3d befd f23d
00000080: d4b7 da3c 01dd 243e 0a53 58bd 92fd 8bbd
00000090: 5e1b 883d 8ae4 0e3e df74 983d 0813 f63d
000000a0: 018e 133d 3da6 f1bc a43e 23bc 3f31 ef3c
000000b0: 10da 1b3d 8d18 0b3e e84e 92bd 6dbc 2c3d
000000c0: edbc 113d b621 153e ea58 ae3d 5f70 2a3e
000000d0: 5241 333d 08a1 cbbd 06ef c03d 9906 a6bd
000000e0: ddb4 a13d 56b1 69bd d13a 41bc 776e c7bd
000000f0: 5595 23bd 37ae afbd 543e 0d3d ca6a 76bd
00000100: 30a4 c43c 4873 923d f3c6 dc3c d9dc 523c
00000110: 700f c63d c127 843d 6ac7 2c3d dfc6 033e
00000120: 5c5a fcbc 4c16 3d3e 9890 c03b 396f 4b3e
00000130: 3d9d 63bd a465 0e3d 9e48 e43c 6fb1 503e
00000140: 93dd 3b3d 3cc4 3e3e ab9d 8ebd 24cd 49bc
00000150: 6ce1 a4bd 09c9 c83d e537 293e f4eb 3cbd
00000160: 721b f03d 47d8 223e 263c c83d 0e9b 873d
00000170: 78d1 103d 45c3 6b3c 6660 293d 65b1 1cbc
00000180: db26 443d 8722 573a 6cc7 5b3d 3c62 db3c
00000190: 41aa 2dbd 97a4 e13d 5dd9 733d 5bce 03bd
000001a0: 9b9d e4bc 9ba3 c9bc 3ecd 3a3e eba2 3e3e
000001b0: e200 fabc 7c4a b8bd 06e3 99bc 3285 233d
000001c0: 8e10 253d ffa5 bbbc 3714 c9bc 7000 273e
000001d0: 4789 cd39 756f fcbd c27b 7d3d f129 9f3d
000001e0: eb9d 33bd 4406 163e 0d36 1c3c 5ac8 8fbd
000001f0: f29a 5cbd b563 47bd 5e67 643c 9aa8 b6bd
0.02913423 -0.027993333 -0.049941715 0.009443063 0.0460625 -0.054504458 0.055172507 0.05979543
0.046466004 0.061796702 0.04921081 -0.051302627 0.09781809 -0.065320194 0.034971856 0.047341585
0.058232833 -0.03406063 0.014613497 0.045131255 -0.03962056 -0.056837436 0.10545186 -0.066385046
0.059711546 -0.01759763 0.03961405 -0.03319019 0.020906378 -0.017454676 0.07533954 0.11864804
0.026698984 0.16099931 -0.052813567 -0.06835474 0.06645845 0.13954368 0.074441664 0.12015349
0.036024097 -0.029498214 -0.009963665 0.029198287 0.038049757 0.13583584 -0.071439564 0.042171884
0.035580564 0.14563641 0.08513053 0.16644429 0.043763466 -0.09942824 0.0942059 -0.08106727
0.07895825 -0.057053886 -0.011793808 -0.09737866 -0.039937336 -0.08578151 0.03448327 -0.060160436
0.024004072 0.071508944 0.026950335 0.012870037 0.09670913 0.06452895 0.042182364 0.12868832
-0.030804805 0.18465537 0.005876612 0.19866647 -0.055569876 0.0347649 0.027866658 0.20380186
0.045865607 0.18629545 -0.069636665 -0.012316976 -0.08050808 0.098039694 0.16525228 -0.04612346
0.11723985 0.15902816 0.097770974 0.06621371 0.035356015 0.014389818 0.0413517 -0.0095637785
0.047888618 0.0008206744 0.05365698 0.02678024 -0.042398695 0.11017721 0.059533466 -0.032179218
-0.027907183 -0.024614146 0.18242356 0.18616836 -0.030518 -0.08998582 -0.018785011 0.039921947
0.04029899 -0.022906302 -0.024545772 0.1630876 0.00039202927 -0.12325946 0.061885603 0.077716716
-0.043851774 0.14650828 0.009534371 -0.07020636 -0.053858705 -0.048679072 0.01394066 -0.08918877

weight f4 [2, 128]
00000000: 1871 0e3d 1111 d3bc 65eb 4ebe 523b 6dbd
00000010: b043 9d3c f60f 3cbd ea78 aa3d 2a98 6ebd
00000020: 0c38 973d f95d 4d3d 2b3f 753d 4ff5 34bb
00000030: 91d8 263e c0c3 a8bd 4902 0e3c 36ea 06bc
00000040: 678b 8b3d b075 3dbd fb9a 213d 8ede 013e
00000050: e522 9f3c 330a c83c 3099 283e db14 2abe
00000060: 5b6f 053e 9ca2 4abd 6e3a 093d 8c63 963c
00000070: 4331 063e 6ae9 50bd 1268 e33d 4b19 95be
00000080: 71da eb3b 5248 053e a546 50bd e25d 33bd
00000090: 6db1 123e 930f 383e a991 f1bc 859b d53d
000000a0: 4283 4a3d d6d6 673d 7a5c 193d 292d 2bbe
000000b0: 5f30 4d3d 70e8 8ebe 082a 9a3d e02b 4cbc
000000c0: dda3 1f3d 8f5e 0f3e 1e89 d3bc db0a ad3d
000000d0: 0960 72bd 2db5 823d 4ef0 a33d 5578 fcbc
000000e0: 2cf2 043e e35d d6bb e6db d53d 3cb4 b43c
000000f0: 2f04 af3c 53e9 73bd ba15 923d a67d ecbc
00000100: 272f f73d 0b1a 23bd b2e2 cd3d 2f8a 063d
00000110: b214 e13d 81c8 38bc d4fa 143e 3ba6 eb3d
00000120: 9cce 8d3d 967c a43d 416c 0bbe 1ea1 9b3d
00000130: 695d 3abd edc2 fe3d a820 883c 1d23 c63d
00000140: 6d54 6ebd 1d8e f43d 846d ac3d 8aa6 b63c
00000150: 2426 69be 2a60 373e 695c 853d 6964 153d
00000160: bdaf 203e bc9f ea3d a8ec 943d bb4d 363d
00000170: 99ea 5b3e 4626 3e3d 02f3 b03d 48e4 48bd
00000180: 0db0 553d cf7c 423d 9cb9 c43d d4c9 003d
00000190: a694 953d b4c8 363e d9f2 fb3d 2c46 73bc
000001a0: 4134 9f3c e186 e93c 2502 273d c80f 163e
000001b0: eac9 c6ba 45be 31bd 9192 33be 6941 133e
000001c0: 287f 333d 52fc d6ba a4f0 a63d b4e8 cc3d
000001d0: 069d fe3c 9577 62be 66c2 913e 9a65 62be
000001e0: 79c7 d23d a4e9 c93d f924 f9bb 1b65 9b3d
000001f0: dcf5 1cbd fd86 1fbd aa69 d83c 3d67 abbc
00000200: 3673 ebba 9d4c 7ab9 c7b1 49be 2798 f73d
00000210: 7eb6 b8bb 516f ab3d cd1b ffbc 5cdd 03bc
00000220: dbd0 73bd cb99 20bd 5f8f 2f3e 4e00 763d
00000230: b45b b53d a793 9e3c 036a adbc 309a d23c
00000240: 3271 193e a657 6bbc 3349 18bd 27b3 293e
00000250: 7601 8fbd 4267 77bd ab31 bc3d 5f27 87be
00000260: f567 fd3d ded5 983c 02e8 98bd 0a22 18bd
00000270: 1980 563d 2039 323c 6c35 c23d 5ef4 9abe
00000280: cd5e 943c ea51 0e3e a1d5 7039 1bbf 943d
00000290: 364c dd3d f7f7 2a3e 0668 23bd 9c72 9b3d
000002a0: b666 4bbd 624a bc3b 1be0 5cbd e2bd 6ebe
000002b0: 9117 e6bc 4124 a9bd 3419 1cbd 8f9c 5b3d
000002c0: 740d 773c 21af a83d d1e4 9e3d bd74 e63d
000002d0: 033a f8bc 7af5 34bd 8909 f63d b61b 083d
000002e0: 6964 d03d 8b1c 7a3c 7a5c 45bd e2f4 a5ba
000002f0: 74ff 8cbd da87 8dbd 4458 47bd c0a7 c8bc
00000300: c394 053e 7640 3b3d d4e2 dc3d f6c3 82bd
00000310: 841e f63d f3b7 a4bd 1434 9c3d 1658 083e
00000320: 400e d3bb 012b ba3d 994f a0be 28b5 203e
00000330: 1e42 34bb 82fb 37bd 3242 45bd e8d7 2d3e
00000340: 2235 a8bc c6b3 fc3d 851b 8abd 1ebd 6dbc
00000350: 7114 c6bd 19d4 203e 28ef 203e f1b8 20bd
00000360: 2ce8 b63d e090 c43d 713b bc3d cb99 373e
00000370: a809 393e c9fa 7dbc d6b0 193e 4d6b 6e3b
00000380: 7bd9 2cbd 7835 a0bb f5be cd3d 85f3 54bd
00000390: f0e2 d0bb c6e0 543c 57fe c53d d0db 93bd
000003a0: ac6b 19bd 4752 f8bc 1731 3f3e 5ea1 a93d
000003b0: 6813 27bd a4ec 013d 11b2 9dbd b96d 653d
000003c0: 100c 9abc 27d0 343c c6ea edbb 9fbb 103e
000003d0: c4da 8cbc bc0f 5fbe 3c6f a33d f0bd 93bd
000003e0: 8f2b eebc 0d49 d73d 73fe 9abd df23 79bd
000003f0: db43 ecbb 7ff6 e7bc be9a 063c 32de 37bd
0.034775823 -0.025764974 -0.20206983 -0.0579179 0.019197315 -0.04591366 0.08323844 -0.058250584
0.07383737 0.050138447 0.059874695 -0.0027612036 0.16293551 -0.08240461 0.008667537 -0.008234551
0.06813698 -0.046254814 0.03945444 0.12682554 0.019425819 0.024418926 0.16464686 -0.16609518
0.1303076 -0.049471483 0.03350299 0.018358015 0.1310473 -0.05100385 0.11103834 -0.2912086
0.007197671 0.1301587 -0.050848622 -0.043790706 0.14325495 0.17974691 -0.029488401 0.104300536
0.049441583 0.056601368 0.03744171 -0.16716446 0.05009496 -0.2791171 0.07527548 -0.0124616325
0.03897463 0.14000915 -0.025822219 0.08449336 -0.059173618 0.06382213 0.08004819 -0.030819098
0.12983006 -0.006541954 0.10442333 0.022058599 0.0213643 -0.059548687 0.0713305 -0.028868508
0.120695405 -0.03981976 0.10053004 0.032846626 0.109902754 -0.011278273 0.14548808 0.11506315
0.06924173 0.080315754 -0.13615514 0.0759909 -0.04549924 0.12439523 0.016617134 0.09674666
-0.058185983 0.119411685 0.08419326 0.022296209 -0.22768456 0.17907777 0.065117665 0.03647271
0.15692039 0.11456248 0.07271701 0.044507723 0.2147621 0.04642322 0.086401 -0.04904583
0.05216985 0.047482308 0.09605715 0.03144248 0.07303743 0.1785 0.12302179 -0.014848273
0.019434096 0.028506698 0.04077353 0.14654458 -0.0015166376 -0.043394346 -0.1753638 0.1438042
0.043822438 -0.0016402102 0.08151367 0.10005322 0.031080734 -0.2211593 0.28468627 -0.2210907
0.10291953 0.098590165 -0.0076032844 0.07587644 -0.038320407 -0.038947094 0.026417572 -0.020923251
-0.0017963413 -0.00023870399 -0.19696723 0.12089568 -0.005636989 0.08370841 -0.031141186 -0.008048382
-0.059525352 -0.03920917 0.17144535 0.060058884 0.088553816 0.019357515 -0.021168714 0.025708288
0.14984587 -0.014364159 -0.037179183 0.16572247 -0.069827005 -0.06040121 0.09189161 -0.26397225
0.12373344 0.018656667 -0.07466127 -0.037141837 0.052368257 0.0108778775 0.09482846 -0.30264562
0.01811161 0.13898435 0.00022967767 0.07263013 0.10805552 0.16696154 -0.039894126 0.075902194
-0.0496585 0.005746172 -0.05392466 -0.23314622 -0.02808741 -0.08258868 -0.038109973 0.053616103
0.015078891 0.08236528 0.07758487 0.11252735 -0.0303011 -0.044179417 0.120135374 0.033229552
0.10175402 0.015265594 -0.048183896 -0.0012661482 -0.06884661 -0.06910677 -0.04866816 -0.024494052
0.1304503 0.04571577 0.107854515 -0.06385033 0.12017539 -0.08042898 0.076271206 0.13314852
-0.0064409077 0.090902336 -0.31310728 0.15694106 -0.002750523 -0.04491759 -0.048158832 0.16976893
-0.020533148 0.123389766 -0.0674353 -0.014510421 -0.09671868 0.15705909 0.15716231 -0.039238874
0.08931002 0.09597945 0.09191025 0.17929761 0.1807009 -0.015501686 0.15008864 0.0036379874
-0.042199593 -0.0048891865 0.10046188 -0.05199005 -0.0063747093 0.012993043 0.09667652 -0.0721966
-0.0374562 -0.03031267 0.1867107 0.082827315 -0.04078999 0.03171982 -0.07699979 0.056012843
-0.01880458 0.0110359555 -0.007260653 0.14134072 -0.01719416 -0.21783346 0.07980201 -0.07213962
-0.029073505 0.1051198 -0.075680636 -0.060825225 -0.0072102374 -0.02831578 0.008215604 -0.044889636

bias f4 [2]
00000000: 395f 013e f891 123e
0.12633981 0.14313495
