TP6/models/lab6/lab6_naive_q_network.pth (torch, 73482 bytes, 6 tensors)

weight f4 [128, 4]
00000000: a055 b9be 695e 34be e551 d0bd 9436 4bbe
00000010: 9639 a8be fc7a c93e 37c6 0f3e 9dec de3e
00000020: c402 f6be 99d1 b4bc d58c ba3c df49 0abe
00000030: 804b 61be b21b 3dbe 31a5 5ebe 8a72 fcbc
00000040: 6115 983e 56ec 023f 526c 543d 052f d83e
00000050: 1e75 cd3d 448a ba3c f654 113e 207e 20bd
00000060: 1b67 04bf 6417 323e d841 ab3e c431 c33e
00000070: 789e 983e 3e35 d2be f747 8d3e 16aa 163e
00000080: 312d 873e dc9e d9be cf80 92be 4fc2 d33e
00000090: a6df b7bd b526 8f3e ef27 8abe aeac 17be
000000a0: 41e7 a5be eb28 36be e758 f5bc ef4b e2be
000000b0: 7126 39bd c609 06bf ab44 e2be 0ec0 bebe
000000c0: a5c7 d0be 7d1f 59be 1cfa f73d 3e56 d9be
000000d0: f9e0 efbc 17d5 023f e786 edbd 09ba fb3c
000000e0: 0c8e d83d a3e7 8a3e 57e0 94bd bb64 c6be
000000f0: f68d cd3e 8383 f2be cd39 233e 8364 3bbd
00000100: 4a5b 083e df65 c8be 7f71 b83e 7567 85be
00000110: 2eb0 b6be e17d cabc 16cb b13e e550 e6bd
00000120: 59f3 12be 313e d83e 6cff bcbe 21c5 c4be
00000130: 93ed 143e bf86 6b3e 79ab 0e3d 3597 393e
00000140: 3996 8ebe ca4d 0f3e 49c6 db3e 3329 003f
00000150: df79 da3e ae71 0fbd 9e55 dfbe 933c bebd
00000160: 1591 a73e 9aa9 60be 0489 2bbe 4575 4fbe
00000170: 68c1 f3be 18d5 813e c16b cfbe 0a26 b13e
00000180: e70e aabd d966 bc3e 6375 1a3d a45e 843e
00000190: 19b3 76be 7eb4 d73e 7ec8 a53e d711 93be
000001a0: 98e1 2ebe 6043 debe eb3a 913e 20dd 86be
000001b0: e792 e53e 2244 ac3d f6a4 893e 9bbd 0bbd
000001c0: 2374 823e 2103 02bd 3413 5bbe fad5 5cbd
000001d0: 0089 453e cff8 17be b30a b23e 4fbc 953c
000001e0: 6cdf efbe 88b8 bf3e 4dc4 4a3e c71b bb3d
000001f0: c897 903e 3352 e53e 04a8 8cbe c58a d43e
00000200: f165 a43d a7a2 15be 24de c2be 1a89 55bb
00000210: e426 b1be 1fb4 88bd b5a3 083f 6778 e53e
00000220: 2f92 ed3c 6960 fe3d 8a8c d9be b6d0 cbbe
00000230: 70b9 71be e767 1ebe ff7e b3bd bfe4 a3be
00000240: 1d19 07bf 0871 393e 6b61 f8bb 7847 bebe
00000250: f693 aebe 2bd0 fa3d 97b5 bdbe b345 cd3d
00000260: b09c 853e 190b 9a3e 714b debe 53d2 4d3e
00000270: 0d92 cfbd 9dd4 cfbe a6fb 77be fdc3 cfbe
00000280: c560 04bd 991f debe b093 c3be 7bee 1abe
00000290: c74a 8fbc 7649 8b3c 6361 9f3e d93b bdbe
000002a0: 5a19 a13d 7523 f7be 0ed3 a03e 6407 1b3d
000002b0: b052 713d 8bfd e33e 4534 393d cda9 e13d
000002c0: fdd3 a13e 117b c93e 41b7 a9be f793 fbbe
000002d0: 58c4 30be c985 943d 36ae 5abd d63d 073e
000002e0: 96e8 b0be e2bf 973d 8297 033f 6cd5 663e
000002f0: 1ca3 0e3c 057e d0be be64 bfbe d3cc fd3e
00000300: 36e9 c83e 5e4b 0a3d 8abf 193d 23b4 d6be
00000310: 1878 3e3c 7514 0e3e 9398 83be b386 93be
00000320: 7a93 0fbe 3e8d a5be c091 00bf 4a34 f33e
00000330: 5f37 d6bd 3df5 843e 01c7 57be c9d9 5fbd
00000340: 9b86 a23e 03ed babe fddd b13d 1e8b 99bd
00000350: 1538 dd3e 546b 8a3d 74e1 c73c 2fa1 fe3e
00000360: 3a58 70bd 02da 83be f163 bebe ec55 9abe
00000370: 7de3 cb3e c1aa 893e ab88 f93e 764e 903e
00000380: 30d6 0abe 61cf cc3d 26a7 5bbe 7e96 fcbd
00000390: ac25 f3be bd16 03bf 4094 263e e5c3 713d
000003a0: 5022 d0be 18c3 febe 3ce1 843e 6ed1 f73c
000003b0: 2634 32be d274 f4be ff94 cc3c bf6b d23e
000003c0: 84ad e43e bd99 3fbe acde 86be ae78 ecbb
000003d0: 6391 723e f20b e13e 27f8 7c3e ff80 1cbd
000003e0: e1c8 413e ff42 4d3c 1a6b ccbd ae17 5cbe
000003f0: 20b7 d03e e4a6 d9be 512a d9be f2ea e93e
-0.3619814 -0.1761414 -0.1017187 -0.19845039 -0.32856435 0.39351642 0.14040457 0.43539897
-0.48048985 -0.0220726 0.022772232 -0.13504742 -0.22001457 -0.18467596 -0.21742703 -0.030816335
0.2970381 0.5114187 0.051861115 0.42223373 0.10032104 0.022771008 0.14192566 -0.039182782
-0.51719826 0.17391735 0.33448672 0.38123906 0.29808402 -0.41056246 0.27593967 0.1471332
0.26401666 -0.42504013 -0.28613898 0.41359183 -0.089782044 0.2795922 -0.26983592 -0.14811966
-0.32402995 -0.17789046 -0.029949619 -0.44198558 -0.045202676 -0.52358663 -0.44193015 -0.372559
-0.40777317 -0.21203418 0.121082515 -0.4244861 -0.02928208 0.511064 -0.11597996 0.030728357
0.10573968 0.2712985 -0.07269352 -0.38748726 0.4014737 -0.4736596 0.15940018 -0.045750152
0.13316074 -0.3914022 0.3602409 -0.26055494 -0.3568129 -0.024718227 0.34725255 -0.11245898
-0.14350642 0.42234948 -0.3691362 -0.38431647 0.14543752 0.2300062 0.034831498 0.18124087
-0.27848986 0.13994518 0.42924717 0.50062865 0.42671105 -0.035020523 -0.43620008 -0.09288897
0.32727876 -0.21939698 -0.16751486 -0.20259579 -0.47608495 0.2535789 -0.40511897 0.34599334
-0.08303624 0.36797217 0.037709605 0.25853455 -0.24091758 0.42129892 0.32379526 -0.28724548
-0.17078245 -0.43410778 0.28365263 -0.2634058 0.4483864 0.08411433 0.26883668 -0.03411637
0.2547923 -0.031741265 -0.21394044 -0.053915 0.19290543 -0.14841007 0.34773788 0.01827827
-0.46850145 0.37445474 0.19801445 0.091361575 0.282408 0.44789276 -0.27471936 0.41512123
0.08027256 -0.14612828 -0.38060105 -0.003258294 -0.34599984 -0.0667498 0.533748 0.44818422
0.02900037 0.124207325 -0.42490035 -0.3980767 -0.23605895 -0.15469323 -0.08764457 -0.32010457
-0.52772695 0.18109524 -0.0075799725 -0.371639 -0.3409726 0.12246736 -0.37052605 0.1002306
0.26096106 0.30086592 -0.43416932 0.20099764 -0.10135279 -0.405919 -0.2421709 -0.40579215
-0.03231885 -0.43383482 -0.38198614 -0.15130036 -0.017491711 0.017002802 0.31128988 -0.36959723
0.078661636 -0.4826924 0.31411022 0.037848845 0.058916748 0.44529375 0.045215864 0.11018715
0.31607047 0.39351705 -0.33147624 -0.49136326 -0.17262399 0.0725208 -0.053388797 0.13207182
-0.3455245 0.074096456 0.5140306 0.22542351 0.0087058805 -0.40721145 -0.37381548 0.4957033
0.39240426 0.033763282 0.03753618 -0.41934308 0.011625312 0.13874991 -0.25702342 -0.28813705
-0.14021102 -0.32334322 -0.50222397 0.4750083 -0.1045978 0.25968352 -0.21072008 -0.054651055
0.3174332 -0.3650895 0.08684919 -0.074972376 0.4320685 0.067587525 0.024399497 0.49732348
-0.05867789 -0.25752264 -0.37185624 -0.30143678 0.39821997 0.26888087 0.48737082 0.2818486
-0.13558269 0.10000492 -0.21450481 -0.123333916 -0.4748968 -0.5120657 0.1626749 0.05902471
-0.40651178 -0.4975822 0.2595309 0.030251231 -0.17402706 -0.47745377 0.02497339 0.4109783
0.44663632 -0.1871099 -0.2634176 -0.0072165346 0.23688273 0.43954426 0.24704038 -0.038208958
0.18924285 0.01252818 -0.099813655 -0.21493408 0.40764713 -0.4251014 -0.42415097 0.45687062

bias f4 [128]
00000000: 26c3 b3be 8b4d e93e e949 b43e b5df debe
00000010: 6ec7 0a3e 9750 fd3d 5025 eabe 2dae 8f3e
00000020: 9306 c9be c042 b5be cb31 d1be 8739 363e
00000030: 8fc0 96be d4b3 a03d 3470 bc3d 7aaa 0e3b
00000040: a002 4abe 6614 d5bd 09c7 c1bd 2a6f d0be
00000050: 8296 bcbe 3764 49be f3e9 d9be b56d d03e
00000060: 8670 2c3e 2257 e0be e91a 76be 69de e73e
00000070: 0248 8fbe 5a6d cb3e c0cb 80be 6a71 433d
00000080: ac21 833e 1885 9dbe 6458 a2be 8144 073f
00000090: 7076 653d 25e7 983e 3c47 7cbe 8784 cf3e
000000a0: 2740 c13e cce7 1a3f 7272 c3be c83f 083f
000000b0: 8176 d7bd 6de9 973e d3ad 80be c779 cabe
000000c0: 3f32 08be b71e 913e f9a6 2cbe f38a ecbe
000000d0: 4cc2 903e 4038 3fbe 2013 8cbe 817c cf3e
000000e0: 9e70 093f db2b bfbe 3dee a63d 5607 4a3e
000000f0: 0088 ff3e 7910 5c3e ed1d 163f 6b7b a13e
00000100: e65e bebe 303a 1abe 3e6d 3fbe e628 083f
00000110: b33f 0ebe c0f8 f33e 5717 643e e644 e83e
00000120: d6d6 ed3e 8379 1dbe b001 4bbd 568a 76be
00000130: c96e e53e 5c38 8b3e fc4f 0bbe 4fd3 f1bd
00000140: f5b2 493e 8740 93be 33aa ca3e 8509 09be
00000150: e59a af3e bf90 0c3f a280 ebbd fd1b e3be
00000160: 8ca1 25bd 4bb3 fd3e 129c 27be f933 bbbe
00000170: 71db 283e fbaa af3e 0c23 ffbc 2a90 063f
00000180: eccb 943e 90a0 ae3e 8648 82be 9230 903c
00000190: 58b1 8cbe 52cc 24be 93cd e7be a198 35be
000001a0: 966f d83e a01f 143e 6064 183e bbac ec3e
000001b0: 5537 e53e 8274 7abe e762 063e f2a6 c73d
000001c0: b6c6 603e 74f6 0f3f bb15 d63d dc37 ecbe
000001d0: 2588 9f3e 6a38 abbe 2ed1 71be adde d2be
000001e0: f245 ae3d 2938 ee3e f054 6dbe 51ee c63e
000001f0: de77 d43d 40c3 943e 9d71 b83e bd43 77be
-0.35109824 0.45566973 0.3521264 -0.4353005 0.13552639 0.12368887 -0.45731592 0.28062573
-0.39262828 -0.3540249 -0.40858302 0.17795382 -0.29443786 0.078467995 0.092010885 0.0021769092
-0.19727564 -0.10404281 -0.09461791 -0.4070981 -0.36833578 -0.19667135 -0.42561302 0.407087
0.168398 -0.43816477 -0.24033703 0.45286873 -0.27984625 0.39731866 -0.2515545 0.047715582
0.25611627 -0.30765605 -0.31708062 0.52838904 0.056021154 0.2986385 -0.24636549 0.40530798
0.37744257 0.60509944 -0.38173252 0.5322232 -0.1052065 0.29670277 -0.25132617 -0.39546034
-0.13300417 0.28343746 -0.1686057 -0.4619976 0.28273237 -0.18673801 -0.2735834 0.40524676
0.53687465 -0.37338147 0.08150909 0.19729361 0.49908447 0.21490659 0.58639413 0.31539473
-0.37181777 -0.1506126 -0.18694016 0.53187406 -0.13891487 0.4765072 0.22274528 0.45365065
0.4645297 -0.15378384 -0.049562156 -0.24076208 0.44811085 0.27191436 -0.1360473 -0.11807882
0.19697173 -0.28760168 0.39582977 -0.13382538 0.34297863 0.54908365 -0.11499144 -0.4435729
-0.040437266 0.49550852 -0.1636813 -0.3656309 0.1648996 0.34310135 -0.031144641 0.52563727
0.2906183 0.34106874 -0.25445956 0.017601285 -0.27479053 -0.16093567 -0.45274028 -0.17734005
0.42272633 0.14465189 0.1488204 0.46225533 0.44768777 -0.24458507 0.13123666 0.09748639
0.21950802 0.5623543 0.104533635 -0.46136367 0.31158558 -0.33441478 -0.23614952 -0.41185513
0.08509435 0.46527222 -0.23176932 0.38853696 0.10374425 0.29055214 0.3602418 -0.24146934

weight f4 [128, 128]
00000000: c75d dcbc 194c b33d a3a6 9bbd f03c 793d
00000010: 1d40 1ebd f5ea 603c 5be0 943d 51b3 71bd
00000020: e8a1 80bd 2fc4 703d 8d9b 8b3d 1fa9 f03c
00000030: a2cd e43c 43e4 45bd b95b 63bd cdbb 2ebd
00000040: 5b3b 82bd a2d4 873d 6bca 743c a895 163d
00000050: 4a28 ab3d 4329 7cbd 6e0e a2bd 78e5 2cbd
00000060: 586e 4c3d 932c a7bd 1836 0fbd 89b1 ed3c
00000070: f947 b33d bf67 87bd c083 8abc 472d 843b
00000080: 314c 843d 5aa2 5e3d c2e5 74bd 722a 98bd
00000090: 2d1c 883d 1ed6 f1bc f544 1dbd b639 653d
000000a0: bb8c 903d 2ce0 4bbd 0885 5f3d c87e cd3c
000000b0: 0ba6 4f3d 3fed 3f3c 5b27 b03d f4ee a43d
000000c0: bbad 4abc 3d17 10bc b00e 8d3d 003b c3bb
000000d0: b8e9 1a3d a806 20bc 2773 93bd c751 6cbb
000000e0: 61fe 3abd d287 3a3a f56e 4f3a 3a8b bebc
000000f0: 69d6 8e3c 06d9 a93d 39b4 a83c 51ad 513c
00000100: 9a87 8bbc 3e3f d7bc a65d 26bc f8b1 47bc
00000110: e11f 64bd 282b 94bd 54e3 86bd 781b 7e3d
00000120: a7f8 743d 4453 feb9 5fb2 27bd 1706 d0bc
00000130: fb61 57bc c712 a73d 09d1 adbd b988 ae3d
00000140: 11aa 3abd 9e8a a7bd ee00 6a3d 3a40 5a3d
00000150: 91fd 1fbd e55f ac3d 3678 efbc 61fc c1bc
00000160: b100 64bd 2422 893d 4169 89bd aacb 2abd
00000170: 303a 07bd 1b11 ccbc 7fd5 0f3d d696 a6bd
00000180: d93e df3c 88b7 3a3d 66f3 143d 4564 9d3d
00000190: 9eff 95bc 75cb d2bb 2bbc 22bb d9b4 8d3d
000001a0: b349 363c 4a18 ac3d 4bf4 833d 3863 9ebd
000001b0: 1e7c 5b3d acdb 4d3d bf95 6cbd 3084 dbbc
000001c0: 6bc8 afbc 6928 3ebb d922 a53d 6d68 243d
000001d0: 242e 8cbd b3d2 8abd 47d5 2cbb 59aa 283d
000001e0: 782f 403d ecdc 0e3d 7902 bebc 4a24 bc3b
000001f0: 641e 3cbd 690f 80bd 2825 57bd 23fe 81bd
00000200: 79e7 50bd e03a e8bc bc8e 44bd 4d78 f4bc
00000210: 6e88 1cbd 5a14 813d 929f ad3d eb8c 503d
00000220: 5b0d 8b3d e7c9 adbd f3cd 00bc bf18 b239
00000230: 52cd 59bd 2073 803d 7ba4 66bd af83 89bd
00000240: 7d07 e43c f3b2 ebbb b191 9c3c 0560 41bd
00000250: cc32 b43d 7c3a 00bd 8673 17bd efd2 05bd
00000260: fe8e 40bd 63ff 91bd 5b64 9c3d 9f5c 8bbd
00000270: 137d 72bc 8985 c63c 6a95 e83c 69a3 41bd
00000280: 75ba 863d b213 7cbc 41fd 9dbd 65b1 863d
00000290: b3e2 0e3d ec07 0d3c 83d2 a7bb 0d65 c93c
000002a0: f105 fc3c 3566 78bd 93cc aebd cc3e 33bd
000002b0: bb3d bbbd 4f80 bebc 6168 9b3c 7b91 66bd
000002c0: b065 a33d 34b1 94bd 2b4b 40bd 9e61 65bd
000002d0: db09 63bd bf35 82bd e7be b13d 53b2 19bd
000002e0: e08f 0b3d 70cc b0bd 81b9 c13d bde1 b93c
000002f0: ae7d 44bd 2202 413c 2cad 5d3c 4ffa 9f3c
00000300: b31f aebd 35b9 46bd 962e 3e3b 8a92 12bd
00000310: 6b99 883d b31c 493c c2d4 24bd 2533 b1bd
00000320: f4f4 26bc 0951 05bc 7690 a3bc 8e2d bd3c
00000330: 1b8c 10bd 9d36 99bb 9a0a 963d d415 fd3a
00000340: 8def 98bd b983 61bd b8fd 18bd 6891 45bd
00000350: aea5 bcbd d68e 8abc 1a60 8c3d eb12 97bd
00000360: 53d2 783d 2caa b8bc 62a6 a5bc 2efc 47bd
00000370: 7220 2cbd 7a74 fcbb 5eeb 2ebd e173 bebc
00000380: 12f1 c03c f9f4 213d 95c3 36bd d931 7c3c
00000390: 8570 73bd b14b f23c b31d d0bc 43ad 56bd
000003a0: 518f c43c b29e da3b 88d9 ecbc df79 453d
000003b0: 7b66 edbb 1fda 753d fc8c 9a3b 4017 a03c
000003c0: 561f 943b 938a dbbc d159 bcbd f964 903d
000003d0: 2e25 56bb ac49 a73d bb5f 8e3c 3f86 0dbd
000003e0: df58 813a 3ec1 8dbd bd22 da3b 8213 c8bd
000003f0: eaa5 8f3d 5e5d 7b3d c80f 2e3d 5c61 5ebd
-0.026900185 0.08754749 -0.07600143 0.06084913 -0.038635362 0.013727893 0.07269355 -0.0590089
-0.06280881 0.058780845 0.06816778 0.029377518 0.027930085 -0.04831339 -0.055507395 -0.04265957
-0.063589774 0.06632353 0.014940838 0.036763817 0.08357294 -0.061562788 -0.079129085 -0.042211026
0.04990992 -0.08162799 -0.034963697 0.02901532 0.08753962 -0.06611585 -0.016908526 0.004033718
0.06459845 0.05435405 -0.059789427 -0.07429971 0.06645999 -0.029521044 -0.03839584 0.05596324
0.07058092 -0.049774334 0.054570228 0.025084868 0.05069546 0.011714279 0.086012565 0.08053389
-0.012370522 -0.008794603 0.06887567 -0.005957961 0.037820548 -0.009767212 -0.07199698 -0.0036059485
-0.04565275 0.0007115576 0.0007912957 -0.023259748 0.017436223 0.08293347 0.02059375 0.0127976695
-0.017032433 -0.026275273 -0.010154163 -0.012188427 -0.055694465 -0.07234794 -0.06586328 0.062037915
0.059807446 -0.00048508693 -0.040941592 -0.025393529 -0.013145919 0.08157878 -0.08487136 0.085221715
-0.045572344 -0.08180736 0.057129793 0.053283907 -0.03906018 0.08416728 -0.029232126 -0.023679914
-0.055664722 0.06695965 -0.06709529 -0.041698135 -0.033014476 -0.0249105 0.035115715 -0.081342384
0.027251648 0.045585185 0.036364935 0.076851405 -0.018310364 -0.0064329454 -0.0024831395 0.069192596
0.01112597 0.0840307 0.064430796 -0.07733768 0.053585164 0.050258324 -0.057759997 -0.02679643
-0.021457871 -0.0029015786 0.08063287 0.04013865 -0.06844738 -0.06778469 -0.002637224 0.04117808
0.04692027 0.034878656 -0.023194538 0.0057416307 -0.04592742 -0.06252939 -0.05252567 -0.06347301
-0.051002 -0.028348386 -0.047987685 -0.02984252 -0.038216047 0.0630271 0.08477701 0.05091564
0.06789657 -0.084857754 -0.007861602 0.00033969243 -0.053174324 0.06271958 -0.056309205 -0.0671457
0.027835602 -0.0071929633 0.01911244 -0.047210712 0.08798751 -0.031305775 -0.036975406 -0.032671865
-0.047011368 -0.07128789 0.07636329 -0.068047754 -0.014800328 0.024233596 0.028391559 -0.04727498
0.065785326 -0.015385555 -0.0771432 0.06576804 0.034884166 0.008607846 -0.0051215305 0.024584318
0.030764552 -0.060644347 -0.08535113 -0.04376106 -0.091426335 -0.023254542 0.01897067 -0.056291085
0.0797838 -0.07260361 -0.046946686 -0.056001298 -0.05542932 -0.063579075 0.0867899 -0.03752358
0.034072757 -0.08632743 0.0945921 0.022690648 -0.04797142 0.011780294 0.013530057 0.019528536
-0.0850214 -0.04851647 0.0029019467 -0.03578428 0.06669887 0.012274909 -0.040241964 -0.08652333
-0.010190237 -0.008136996 -0.019966345 0.023093011 -0.035289865 -0.0046757 0.07326241 0.0019308873
-0.07467566 -0.05505726 -0.03735134 -0.048234373 -0.092112884 -0.016913813 0.068542674 -0.07376655
0.060747456 -0.022542082 -0.02022094 -0.04882448 -0.04202313 -0.007704315 -0.042704932 -0.023248615
0.023552451 0.039540265 -0.044620115 0.015392744 -0.05943348 0.029577108 -0.025404787 -0.05241133
0.02399412 0.00667175 -0.02891232 0.04821193 -0.0072448826 0.06002247 0.0047165137 0.019542336
0.004520337 -0.026799476 -0.091968186 0.07050509 -0.003267597 0.08168349 0.017379632 -0.034551855
0.0009868405 -0.06921624 0.006656973 -0.09769346 0.070140675 0.06136834 0.04249552 -0.054292068

bias f4 [128]
00000000: a3e7 86bd 02ee f73c 6286 e8bd 9c0b 313d
00000010: 3597 88bc a8bb d63c b9ca 2d3b 4b8d 19bd
00000020: 9b9b 8c3d 3e37 f73d 6cb7 b5bd 3bef f23d
00000030: c20a a33d 60b5 173e ddc5 c8bd 7ec5 14bd
00000040: 40fb 233d 76df 76bd 6a40 bb3c ee3b d1bc
00000050: bbb4 a2bd 466a 633d 0676 13bd 09b7 c6bd
00000060: e2c1 a8bd 46b9 6e3c 8c44 923d 03c9 61bd
00000070: 03fd 2abc 3c12 3fbd fc54 9abd 067b 18bd
00000080: 6ba8 8a3b de38 0e3b dfb6 a3bd 0ff4 003e
00000090: 99f2 863d 3594 f0bc 3e19 c63c a08e bf3d
000000a0: a887 273d caf6 25bd 5c7b a2bd d124 6abd
000000b0: 5d79 02bd 1d17 a93d 68cf 8cbd ff55 cabc
000000c0: 8021 073d e8df 783d 8842 b53c 39ed 1c3d
000000d0: 84c3 0a3c 9d02 0b3e f723 403d 6098 c1bd
000000e0: 6a1d c03d a521 1f3d 1ddc 8bbd 9ae1 87bc
000000f0: 6eb5 f9bc 9c6d ce3d b1dc 583d 9fb4 debc
00000100: 4a42 06bc 65e1 cabd fd23 5fbd 9b14 d33c
00000110: b4af 373d 1c37 64bd e091 083e 4958 973c
00000120: 77f0 77bb a7d8 3abd 95e8 223e bcf8 5a3c
00000130: 5dc1 a0bd 483c a9bd 99cb 8abd 944d 7a3d
00000140: 869e e13d 2a92 c0bd 9628 04bd 2e9a 033e
00000150: 457d 86bc bde0 27bd 7c58 463d 7040 acbd
00000160: ea81 d8bc a62f 1ebd b4f4 50bd a7bf 7ebd
00000170: 3252 9bbd d1ae 0b3e 59c0 703b c3ad 653c
00000180: 5eca 423d a678 89bd 029a 1a3e c3a9 e33b
00000190: 5f32 ff3c 3488 793d 33f0 18bd 4490 b03b
000001a0: 515a ffbc 0816 833d 4703 643d 1e0b 913d
000001b0: 395c 68bc a593 143e 72b6 2fbc 186a 883d
000001c0: dc75 a5bd 428d 09bd 287d bdbc e8e6 343c
000001d0: 60a9 32bd 4f16 66bd c528 583c bd07 bf3d
000001e0: 97f4 c83b 3898 84bd 7a4c 63bd 0b9c 65bd
000001f0: d499 5ebd ea6c 67bd 05d4 e33c c793 c23d
-0.0658715 0.030264858 -0.113537565 0.043223962 -0.016673664 0.026212528 0.0026518537 -0.037488263
0.06865617 0.120710835 -0.088728756 0.11862036 0.07961036 0.14815283 -0.098033644 -0.036321156
0.040034533 -0.060271703 0.022857863 -0.025541272 -0.07944628 0.055521272 -0.036001228 -0.0970288
-0.08240105 0.01457054 0.071419805 -0.05512334 -0.010436299 -0.04664825 -0.07535741 -0.0372267
0.004231503 0.0021701376 -0.07993864 0.12593101 0.065892406 -0.029367546 0.024181958 0.093533754
0.040900856 -0.04051856 -0.07933685 -0.057164017 -0.031854022 0.08256362 -0.06875497 -0.02469921
0.032990932 0.06076041 0.022126451 0.03831217 0.008469466 0.13575216 0.0469093 -0.09452891
0.0938061 0.038850445 -0.06829093 -0.016587067 -0.03048202 0.100795 0.052944843 -0.027185736
-0.0081945155 -0.09906272 -0.05447768 0.025766661 0.044845298 -0.05571662 0.13336897 0.018474715
-0.0037832537 -0.045616772 0.15909036 0.013364967 -0.07849381 -0.08263451 -0.067771144 0.06110914
0.11016564 -0.094028786 -0.03226527 0.12851784 -0.016417155 -0.04098581 0.04842423 -0.08410728
-0.026429135 -0.03861966 -0.051014617 -0.062194493 -0.07584037 0.13640906 0.0036735742 0.014018479
0.047556274 -0.06712465 0.15097812 0.0069477274 0.031151948 0.06092091 -0.037338447 0.0053882916
-0.031170996 0.064006865 0.055667188 0.070821986 -0.014182144 0.14509447 -0.010724651 0.06660861
-0.080791205 -0.03358198 -0.023130968 0.01104138 -0.04361856 -0.05617362 0.013193314 0.09327648
0.006132673 -0.06474346 -0.055492856 -0.056057017 -0.05434592 -0.056500353 0.02781106 0.095008425

weight f4 [2, 128]
00000000: 492f 3d3d c9d4 95bc 28e5 0cbc 9fa4 8d3d
00000010: c240 debc 3176 07bd 790f 00bd b6f9 173c
00000020: b273 aabd 7a65 253d f9bd 253d bbae 103d
00000030: 4ff5 c73d 53f1 d83d a5de 00bd a5cc ac3c
00000040: 849c c2bc dcd4 773d 4df9 9abc 0540 9dbc
00000050: 1c81 46bc 7b41 863d f0f0 15bd 4c70 7c3d
00000060: 363b d93c 0823 b73c a4a0 ef3d e5ef 66bd
00000070: 5263 8cbc a9e0 64bd 5ec2 823c 73ea 41bd
00000080: d296 f63c dbee 5ebd 49d5 ddbb 8df4 d33d
00000090: 56c0 083e 2bc7 e03d c912 813d 7e39 de3d
000000a0: f897 d83d 53b6 c43c 7248 94bd 00cb 843b
000000b0: 9218 893d c857 8d3d 5344 95bc 05e0 18bd
000000c0: 9bae 1bbc 6028 a7bc 95ab 94bc 4ead 113d
000000d0: 7cc6 1fbd 0333 ea3d 874a 353d 802a c1bb
000000e0: 7a07 193d 163f 2dbd b817 09bb 8ca8 59ba
000000f0: b4bd 1f3d f37e a33d 4fbf e73d cbe0 25bd
00000100: 2eff 623d c192 21bc 60bf 713d 8809 013e
00000110: 69eb 733d 763a 41bc e11c 033d 654e eebc
00000120: e5ea f33d fbda 113c a857 aa3d 9ae2 19bd
00000130: 5eaf 82bd 24c0 36bd ba3d 53bd 85f7 ca3d
00000140: 3f39 f33d edca 4eb9 d55e a1bd a7d3 993d
00000150: d87b 353d e795 2d3d 21f2 9e3b c516 273c
00000160: c241 01bc bc1e 5dbd 0e88 ba3d ee6b 44bd
00000170: 3c51 803d b20e f73d 4447 1b3d ec92 aabc
00000180: 3bd7 f93d 55f2 07bd bb59 7f3d 6779 7b3c
00000190: a126 63bd 6e72 f13d df97 dd3b 0c71 a13d
000001a0: d56c 3a3c 6888 0c3d 01c9 80bb 4f74 b93d
000001b0: 23e2 52bd 39b8 e73d 2911 e93d cee0 50bc
000001c0: e100 6e3b a478 d83d 9cfb 89bd 9a01 e5bc
000001d0: b097 9fbd c02d b03d 6c11 2f3d 49bd bd3d
000001e0: 3921 71bd 8dc0 15bc eefe 2d3d f9f2 71bc
000001f0: bd2e 54bd 13a9 02be 3e21 b63c 6497 d93d
00000200: d5f5 b53d dda1 003d 048e 86bd 821b 9bbc
00000210: bfea b5bc 24be 393d 8d9e bd3d 57bd 233c
00000220: 942b da3c 6ce8 0d3e 898e 2abd 5f6e d83d
00000230: 1e51 a63d 4305 e43d 2610 76bd 7787 b5bc
00000240: 8a0b a83b 1ace d1bc bd65 703c 7463 b5bc
00000250: c84e 313d 6c1f bc3d 1c6e 7abb b0f1 65bd
00000260: 50d3 8bbd 1f64 873d 7095 af3d 6633 553d
00000270: 7b55 83bd ec4f 84bd c03a 823a 58b9 1bbd
00000280: 5486 b53d 6396 e4bc 15d9 eabc 09ee e53d
00000290: f2b2 973d 0e03 da3a f46d d83d f421 833d
000002a0: 28b0 233d 1ce5 2cbd 6f81 a53d 64b0 53bd
000002b0: 4d80 03bd 0503 8c3d 72b3 fabc b3b1 e0bc
000002c0: 02a8 14bd 1bcf 10bc 836e cd3d 0fcc a1bc
000002d0: 519e 59bc a201 273d 0f3f 84bd c35a 2cbd
000002e0: 4a61 683d 4e7d 5fbd 27fb b13c 944e 1ebd
000002f0: 42af ea3c 1eef ef3d 7aed a83c ac0e 9d3d
00000300: 4f81 b73c e80f eebb 3577 313c 6f40 da3d
00000310: b68e 3e3c ebc8 8fbd ec0e b63d fd9a 88bc
00000320: 8aee 813c 50e9 48bc 3dc2 613d 8e8a 653d
00000330: bf24 ad3b 17b3 9d3c 809f 88bc a095 ce3d
00000340: 8f03 e43d 0b60 a23c d6a8 ac3b 704e dd3d
00000350: 518c eb3b 9b77 b03b d33e 77bc a62b a83d
00000360: c48f 11bd 83a0 a1bd 8420 443d 3d4e 99bc
00000370: 3ec2 953d eb3b d13d efe9 0dbc b69d 49bd
00000380: 1b8e 983d 3977 6a3d 65fd ea3d b9cd 20bc
00000390: e0a1 d6bc c75d 983d 339e 79bd 54f8 913d
000003a0: 061d 5dbc 9646 803b 7fb5 513c 3185 4e3d
000003b0: 2795 adbd 57e0 ac3d eb7a 723d 99e2 883d
000003c0: bd73 26bc e9c1 e03d 74db ab3d 46b7 fbba
000003d0: edb0 60bc 81c0 283d d12f a93d d347 943d
000003e0: da3d 6c3d f08e 6b3b 8540 81bd c541 c03d
000003f0: 0b63 4d3b 5ce5 8e3c 9000 92bd 36f0 df3d
0.046187673 -0.01828994 -0.008599557 0.069161646 -0.027130488 -0.0330717 -0.031264756 0.009275844
-0.083228484 0.04037998 0.040464375 0.035322886 0.09763586 0.10592904 -0.03146233 0.021093676
-0.023756273 0.060505733 -0.018917704 -0.019195566 -0.012115743 0.06555458 -0.03660673 0.061630532
0.026517492 0.022355571 0.11700562 -0.056381125 -0.017137203 -0.055878315 0.015961822 -0.04734273
0.030101214 -0.05442701 -0.0067698103 0.10349379 0.1335462 0.10975488 0.06302411 0.108508095
0.10575861 0.02401272 -0.0724038 0.00405252 0.066941395 0.069015086 -0.018221056 -0.037323017
-0.009502078 -0.020404994 -0.018148223 0.035565667 -0.03900765 0.11435511 0.044260528 -0.005894959
0.037360646 -0.04229649 -0.0020918678 -0.00083030085 0.038999274 0.07983198 0.11315786 -0.040497582
0.05541914 -0.009861649 0.0590204 0.12601292 0.059550676 -0.011793723 0.032009963 -0.029090116
0.11910037 0.008902307 0.083175 -0.03756962 -0.06381105 -0.044616833 -0.05157254 0.09910492
0.11876153 -0.00019721287 -0.07879416 0.075110726 0.04430756 0.042379286 0.0048506414 0.0101983
-0.007889213 -0.05398439 0.091079816 -0.047954492 0.06265494 0.1206335 0.03790976 -0.020822011
0.12199255 -0.03319009 0.062341433 0.015348769 -0.05545676 0.11789404 0.006762489 0.0788289
0.011378487 0.034309775 -0.0039302115 0.09055387 -0.051485192 0.113144346 0.11380226 -0.01274891
0.0036316442 0.105698854 -0.06737444 -0.027954865 -0.07792604 0.08602476 0.042741224 0.09264619
-0.058869574 -0.009140146 0.042479448 -0.014767402 -0.051802386 -0.12759809 0.022232648 0.106245786
0.08884779 0.031404365 -0.06570056 -0.018934015 -0.022206662 0.045347348 0.09258757 0.009993873
0.026632108 0.13858193 -0.04163984 0.105679266 0.081209406 0.11133816 -0.060073994 -0.022159321
0.0051283287 -0.025610972 0.014672694 -0.02214215 0.043288022 0.09185681 -0.0038212603 -0.056138694
-0.06827414 0.066108935 0.08573425 0.05205097 -0.064127885 -0.064605564 0.0009935722 -0.038018554
0.08863512 -0.027903741 -0.028667966 0.11227042 0.07407178 0.001663299 0.10567847 0.064029604
0.039962918 -0.042210683 0.08081328 -0.05168189 -0.03210478 0.068365134 -0.030603144 -0.027428484
-0.036293037 -0.00883844 0.10030844 -0.019750623 -0.0132823745 0.04077304 -0.0645734 -0.042078745
0.056733407 -0.05456286 0.021726204 -0.038649157 0.028648023 0.1171553 0.02062105 0.07668814
0.022400526 -0.0072650798 0.010831644 0.10656821 0.011630705 -0.07020744 0.08889565 -0.016675467
0.015860815 -0.012262657 0.05511688 0.05604034 0.0052839215 0.019250436 -0.016677618 0.100871325
0.11133491 0.019821187 0.0052691502 0.108059764 0.007188358 0.005385352 -0.015090662 0.0821145
-0.035537496 -0.07891943 0.04788257 -0.018714065 0.073124394 0.102165066 -0.008661731 -0.04922267
0.074489795 0.057242606 0.114741124 -0.009814673 -0.026200235 0.074397616 -0.060941886 0.07127443
-0.013495689 0.0039146645 0.01279962 0.05041999 -0.08475714 0.08441227 0.059199255 0.06683845
-0.01015943 0.109744854 0.08391467 -0.00192044 -0.013714057 0.04119921 0.082610734 0.07240262
0.057676174 0.0035943352 -0.06311134 0.093875445 0.0031339552 0.017443351 -0.071290135 0.109344885

bias f4 [2]
00000000: 9665 943d fb9b 5a3c
0.072459385 0.013342853
