TP6/models/lab6/lab6_dqn2_q_network.pth (torch, 73472 bytes, 6 tensors)

weight f4 [128, 4]
0	0xbea5b93e	-0.3236789
1	0xbef4e9a0	-0.47834492
2	0x3ed2f65e	0.41203588
3	0xbe6c0fae	-0.23052856
4	0x3d31686a	0.043312468
5	0xbde720bb	-0.1128554
6	0xbec5c5ef	-0.38627574
7	0xbf12d294	-0.57352567
8	0xbd8cd9f9	-0.068775125
9	0x3d986e65	0.07442931
10	0x3e3d59dd	0.18491311
11	0xbeb31304	-0.34975445
12	0xbda3ce72	-0.07998361
13	0xbe095839	-0.1341256
14	0xbc337c27	-0.010954893
15	0x3e9e1201	0.3087311
16	0xbceedb65	-0.02915735
17	0x3e5cd365	0.21565016
18	0xbe1d5436	-0.15364155
19	0xbd597f2b	-0.053099792
20	0x3dc2332b	0.09482416
21	0x3c52a1a4	0.012855921
22	0xbea56c10	-0.32309008
23	0x3ec1c5b3	0.37846145
24	0xbe96c5f0	-0.2944789
25	0x3ed9c00d	0.42529336
26	0xbda0c782	-0.07850553
27	0x3ea2e5b6	0.3181588
28	0x3e8ea507	0.2786028
29	0x3ec11dff	0.37718198
30	0x3e9722aa	0.29518634
31	0x3ead90cc	0.33899534
32	0xbe62f0c7	-0.22162162
33	0xbcf1d8ce	-0.029522326
34	0xbea1375e	-0.31487554
35	0xbd05213b	-0.032502394
36	0x3e917eea	0.2841714
37	0x3e332df6	0.17498001
38	0x3e83465c	0.25639617
39	0xbdb44f9c	-0.08804247
40	0x3eeb8f6b	0.46007857
41	0x3de57e6a	0.11205752
42	0xbe90b820	-0.28265476
43	0x3e8d5a5d	0.27608004
44	0x3b71d6ea	0.003690178
45	0x3e660c9e	0.2246575
46	0x3f237f3f	0.6386604
47	0x3e5a8d87	0.21343051
48	0x3eed39cf	0.46333167
49	0xbc34f305	-0.0110442685
50	0x3e36722b	0.17816989
51	0x3e2ae6e8	0.16689646
52	0x3e890583	0.26762018
53	0xbdf8817a	-0.12134071
54	0x3ea3848b	0.3193706
55	0x3edc761c	0.4305886
56	0xbe2548df	-0.1614108
57	0x3e97a3cc	0.29617155
58	0x3e2b4ef0	0.16729331
59	0xbf00840a	-0.50201476
60	0x3ef22e41	0.47300914
61	0x3ed73caf	0.42038485
62	0xbd942f89	-0.07235629
63	0xbe9e9239	-0.30970934
64	0xbed5001c	-0.41601646
65	0x3ea59fe3	0.32348546
66	0x3f0dd4f4	0.55403066
67	0x3eb52460	0.35379314
68	0x3cd7a5c3	0.026324159
69	0xbeab7abb	-0.33492073
70	0xbeb59e91	-0.3547254
71	0x3ec74441	0.3891926
72	0xbe99d92b	-0.300485
73	0xbe7d1a67	-0.24717103
74	0xbecfb4e0	-0.40567684
75	0xbe8ed5c0	-0.27897453
76	0x3f100252	0.5625354
77	0xbe9fa9ec	-0.31184328
78	0xbeb3c84c	-0.35113752
79	0x3ea61d1b	0.3244408
80	0xbe8b825d	-0.27247897
81	0xbee84beb	-0.4537042
82	0xbeca9d51	-0.39573148
83	0xbc9e6115	-0.019333402
84	0x3eecc37a	0.46242887
85	0xbed5fd4d	-0.41794816
86	0x3e41e12d	0.18933554
87	0x3e86742e	0.26260513
88	0xbdb72d88	-0.08944231
89	0x3eaeb208	0.34120202
90	0x3e6b5297	0.22980724
91	0x3e829df2	0.25511128
92	0xbe22668a	-0.15859428
93	0x3e01b949	0.12668337
94	0xbe50a0f4	-0.20373899
95	0x3e44bede	0.19213435
96	0xbe18eb05	-0.14933403
97	0x3e8c03f2	0.2734676
98	0xbe1493dc	-0.14509529
99	0x3e3b0ba2	0.18266156
100	0xbe8fbaf1	-0.28072312
101	0xbca2d28f	-0.019875793
102	0x3e5c50d2	0.21515206
103	0xbed366a7	-0.41289255
104	0x3e10e9cd	0.14151688
105	0x3e48e712	0.19619396
106	0x3ed1407c	0.4086951
107	0x3f0e4b22	0.55583394
108	0x3e5d14d8	0.21589983
109	0xbccf9ec6	-0.025344264
110	0x3ec5b77f	0.3861656
111	0x3cc7b52a	0.024378378
112	0xbde51b83	-0.11186888
113	0xbece882e	-0.40338272
114	0xbeac5eaf	-0.33665988
115	0xbccff3e2	-0.025384847
116	0x3c8df355	0.017327944
117	0xbebc375a	-0.3676098
118	0xbe827f7d	-0.2548789
119	0x3d804d7c	0.06264779
120	0x3d8f0130	0.069826484
121	0x3ec0bb85	0.37643066
122	0x3a915929	0.0011089194
123	0xbe67ba01	-0.22629549
124	0x3ee1a39d	0.4407014
125	0x3e06dd1f	0.13170289
126	0x3da06cd9	0.07833261
127	0x3e60b68d	0.21944638
128	0xbe6553bb	-0.22395222
129	0x3e8c8671	0.2744632
130	0x3c075ef5	0.008262386
131	0xbd248c59	-0.04017291
132	0x3cff0d18	0.031134173
133	0x3ef8900a	0.48547393
134	0x3e3d0de3	0.18462329
135	0x3ea5c6f4	0.32378352
136	0xbc0b64fc	-0.008507963
137	0xbc6d6efc	-0.014491793
138	0x3e546e2e	0.20745155
139	0x3d25e448	0.04050091
140	0xbdbd8f06	-0.09255795
141	0xbdad473d	-0.08460853
142	0xbf00e3f8	-0.5034785
143	0xbea71b67	-0.32638094
144	0x3f058b89	0.5216604
145	0x3ea7ee48	0.32798982
146	0x3ed049d9	0.4068134
147	0x3e125ce4	0.14293247
148	0x3e499f8b	0.19689767
149	0xbd9edac3	-0.07756569
150	0xbe1efe8e	-0.15526792
151	0xbe688c73	-0.22709827
152	0x3efaf82f	0.49017474
153	0xbd926750	-0.071486115
154	0xbe7c202c	-0.24621648
155	0x3e5a0366	0.21290359
156	0x3b94b72e	0.0045384383
157	0x3d754e0f	0.059888896
158	0x3e3bba49	0.18332781
159	0x3e9f4c91	0.31113103
160	0x3e89e9f9	0.2693632
161	0xbe87519b	-0.26429448
162	0x3d86faf4	0.06590834
163	0xbe0eb8ac	-0.13937634
164	0x3e3d27b7	0.18472181
165	0x3d663219	0.05620012
166	0x3ee073a7	0.43838236
167	0x3ea354c7	0.31900617
168	0xbe0810b8	-0.13287628
169	0xbe668f52	-0.2251561
170	0xbc084e66	-0.008319473
171	0xbe111b33	-0.14170532
172	0xbf07224c	-0.5278671
173	0x3e60ce39	0.21953668
174	0xbdf098a6	-0.117478654
175	0xbea655db	-0.32487378
176	0x3ea30962	0.31843096
177	0x3e89ea9b	0.26936802
178	0xbed0382c	-0.40667856
179	0x3dd54914	0.10414329
180	0x3eaedab6	0.34151238
181	0x3f07f647	0.53110164
182	0xbe9dc0b5	-0.30811086
183	0x3d998448	0.07495934
184	0x3f1b9829	0.6077905
185	0xbea9f965	-0.33198085
186	0xbeaf36ba	-0.3422144
187	0x3e0799a7	0.13242207
188	0xbd586ed1	-0.052840058
189	0x3edccb19	0.431237
190	0xbecd131c	-0.40053642
191	0x3e18d4d7	0.14924942
192	0x3e931a29	0.28730896
193	0x3e0928ef	0.13394521
194	0x3eeeb652	0.46623474
195	0x3ef98c8e	0.48740047
196	0xbedfa416	-0.43679875
197	0xbe92b9ab	-0.28657278
198	0xbeb9d826	-0.3629772
199	0x3e458f16	0.19292864
200	0xbe62ce87	-0.22149096
201	0xbef5aecf	-0.4798493
202	0xbe54f663	-0.20797114
203	0xbeb151ac	-0.34632623
204	0x3eb4e300	0.35329437
205	0x3e477968	0.19479907
206	0xbdf97995	-0.12181393
207	0xbef75be7	-0.48312303
208	0x3eb04a2b	0.34431586
209	0xbe3e3ae0	-0.18577147
210	0x3f3b328f	0.7312402
211	0x3e228d96	0.15874323
212	0x3e3d90e1	0.18512298
213	0x3e178c80	0.1479969
214	0xbe89f258	-0.26942706
215	0x3e1e12f7	0.15436922
216	0x3ea585f8	0.32328773
217	0x3e8275aa	0.25480396
218	0xbd4f5ed4	-0.050627545
219	0x3e99ef60	0.3006544
220	0x3cfafdfa	0.030638684
221	0x3e4c0f12	0.19927624
222	0x3dd04638	0.10169643
223	0x3eea5c30	0.45773458
224	0xbddb3297	-0.107030086
225	0x3ed7028a	0.41994125
226	0x3ed9a980	0.4251213
227	0xbd3d9b3b	-0.046290617
228	0xbe808162	-0.2509871
229	0xbdbd9e61	-0.09258724
230	0xbd80508f	-0.06265365
231	0x3e843ed9	0.258292
232	0x3d9a5cfd	0.07537267
233	0x3ea0bbd4	0.313933
234	0xbe12b5fe	-0.14327237
235	0x3ef73bbe	0.48287767
236	0xbe9a027e	-0.30080026
237	0x3ef79563	0.4835616
238	0xbeb668cc	-0.3562683
239	0xbef8408e	-0.4848675
240	0x3e990dcd	0.29893342
241	0xbe3b8070	-0.18310714
242	0xbeec5fd1	-0.46166852
243	0xbd39770c	-0.045279548
244	0xbe1b6c63	-0.15178065
245	0x3e88ed00	0.26743317
246	0xbe02e866	-0.12783965
247	0x3da2d426	0.0795062
248	0xbdf3b85d	-0.11900399
249	0xbebab4d3	-0.36466083
250	0xbd2b7f0f	-0.04186922
251	0xbed2fdea	-0.41209346
252	0x3f0b4c53	0.54413337
253	0x3dc93a7c	0.09825608
254	0xbf28e0b2	-0.6596786
255	0xbe815b4c	-0.25264966

bias f4 [128]
0	0xbe0daf2e	-0.13836357
1	0xbd425e1e	-0.04745304
2	0xbe4ec20c	-0.2019121
3	0xbe897c3c	-0.26852596
4	0x3f01688b	0.50550145
5	0xbed6424f	-0.41847464
6	0x3ec703a8	0.38869977
7	0x3ed3ee35	0.41392675
8	0x3e0f5fbb	0.14001362
9	0xbddfd450	-0.10929167
10	0x3e8a552d	0.2701811
11	0xbe55c282	-0.2087498
12	0x3ed2bb8b	0.4115871
13	0x3ca252ba	0.019814838
14	0xbedb341b	-0.4281319
15	0xbf15a09c	-0.58448195
16	0xbe09419d	-0.13403936
17	0xbe91b3bc	-0.2845744
18	0x3f0f434c	0.5596206
19	0x3eb6217d	0.35572425
20	0xbee0a7ac	-0.43877923
21	0xbe6b9119	-0.23004569
22	0x3ea76c37	0.3269975
23	0x3ea26aa9	0.31722
24	0x3e5c1f20	0.21496248
25	0xbe923ca5	-0.28561893
26	0xbdaaf508	-0.08347517
27	0xbea8f94d	-0.330027
28	0xbdd5c6ab	-0.104382835
29	0xbe4e0af7	-0.2012137
30	0xbe69aa53	-0.2281888
31	0x3ed5f8d0	0.4179139
32	0x3ea32b75	0.31869093
33	0xbed66663	-0.4187499
34	0x3ead3083	0.33826074
35	0xbe2ce114	-0.16882735
36	0x3d6c8d43	0.057751905
37	0x3f035593	0.5130245
38	0x3f0e00bc	0.5546987
39	0xbe0ba0c8	-0.13635552
40	0x3f0c3547	0.54768795
41	0xbce2d967	-0.027691556
42	0x3e44e3d1	0.1922753
43	0x3ee205ef	0.44145152
44	0x3e8cd301	0.27504733
45	0xbe7e3b15	-0.24827226
46	0x3df819b0	0.121142745
47	0x3eca3b6e	0.39498466
48	0x3da60dee	0.081081256
49	0xbe90ea74	-0.28303874
50	0x3eba3fe2	0.36376864
51	0xbea73967	-0.32660982
52	0xbe0bc456	-0.13649115
53	0x3eb8a4d6	0.3606326
54	0xbde90ac5	-0.11379007
55	0xbe1b789e	-0.1518273
56	0x3ec94980	0.3931389
57	0x3f0fb8f0	0.5614157
58	0xbd2d2285	-0.04226925
59	0xbeb1ee6e	-0.3475222
60	0xbeb508cd	-0.35358277
61	0x3e53c639	0.20681085
62	0xbda4e9dc	-0.08052418
63	0xbe671813	-0.22567777
64	0xbd15c92c	-0.036568806
65	0x3e495157	0.19659935
66	0x3e7c58ed	0.24643297
67	0xbd8a74ff	-0.067605965
68	0x3ef68c59	0.48153952
69	0x3f06e095	0.52686435
70	0x3e376f4d	0.17913552
71	0xbeca0b2e	-0.39461654
72	0xbe4d0162	-0.20020059
73	0x3f13b4f6	0.57698
74	0xbecacf6b	-0.39611372
75	0x3e3a8a9f	0.18216942
76	0xbe1eb44b	-0.15498464
77	0xbe452ad5	-0.1925462
78	0xbea29b73	-0.31759223
79	0x3eebdd51	0.4606729
80	0xbf0318f2	-0.5120994
81	0x3e64ad5c	0.22331756
82	0x3ed83a76	0.42232102
83	0x3eb24dd5	0.34825006
84	0xbdb6fc33	-0.08934822
85	0xbda40e66	-0.08010559
86	0x3e3f69a4	0.18692642
87	0x3e2edc65	0.17076261
88	0x3f06820a	0.52542174
89	0xbe67d6c7	-0.22640525
90	0xbe5796c8	-0.21053612
91	0x3e6731a6	0.22577533
92	0x3e9e736b	0.30947432
93	0x3f05a34d	0.522023
94	0xbe8ef5d4	-0.27921927
95	0xbec02839	-0.37530687
96	0x3e24aa7b	0.16080658
97	0x3e231ba1	0.15928508
98	0x3e497eba	0.19677249
99	0x3eca4de1	0.39512542
100	0xbe047d23	-0.12938361
101	0xbf073952	-0.5282184
102	0x3e801252	0.25013977
103	0x3f16e630	0.5894499
104	0x3e22c7aa	0.15896478
105	0x3eb06c06	0.34457415
106	0x3e53a312	0.20667675
107	0x3b40dc36	0.002942813
108	0x3ed7d05d	0.42151156
109	0xbdc67a04	-0.096912414
110	0x3e4034b8	0.1877011
111	0xbedda95c	-0.43293273
112	0xbeaa71bd	-0.332899
113	0xbea74f71	-0.32677796
114	0xbe6c6d90	-0.2308867
115	0xbea39adb	-0.31954083
116	0xbeeb8a8d	-0.46004143
117	0xbebba390	-0.36648226
118	0x3f020160	0.5078335
119	0xbe6a173e	-0.22860429
120	0xbe5dab0e	-0.21647283
121	0x3ec31cc9	0.381079
122	0x3ee86a17	0.4539344
123	0xbed422b1	-0.41432717
124	0xbd922dd7	-0.071376495
125	0x3e90abb9	0.28256014
126	0xbba84a72	-0.0051358277
127	0xbd825036	-0.06362955

weight f4 [128, 128]
0	0x3b927c15	0.004470358
1	0x3cce1bdc	0.025159769
2	0xbd0aa99f	-0.03385317
3	0x3cd6657c	0.026171438
4	0xbc847c71	-0.01617262
5	0x3ca08fae	0.019599762
6	0xbdb6af3e	-0.089201435
7	0xbd3b7e49	-0.04577473
8	0x3cab595a	0.02091663
9	0x3da98a5f	0.08278345
10	0x3c9fabd4	0.019491114
11	0xbd1fc900	-0.039010048
12	0xbc0dfc0b	-0.008666049
13	0xbd11ff44	-0.03564383
14	0xbad66ef2	-0.0016359969
15	0x3d1424de	0.03616797
16	0xbd00d9ca	-0.0314577
17	0x3d01ec76	0.031719647
18	0xbd46c9f6	-0.04853245
19	0xbd31e303	-0.043429386
20	0xbd0e93d1	-0.034808937
21	0x3cd310bc	0.025764816
22	0xbc1a0d02	-0.009402515
23	0x3be8c236	0.00710323
24	0xbc9281c4	-0.017884143
25	0x3c199df6	0.00937604
26	0x3c3ef8ef	0.01165603
27	0x3cab09cc	0.020878695
28	0xbd8be033	-0.06829872
29	0xbdcaad72	-0.09896363
30	0x3ca95f11	0.020675214
31	0xbd7e0107	-0.0620127
32	0xbc1e0e7e	-0.00964701
33	0x3c4a3c94	0.0123435445
34	0xbc0f46fe	-0.008744953
35	0x3b9f2767	0.004856992
36	0x3bd7859d	0.0065772072
37	0xbd51fc72	-0.05126614
38	0xbd7679bb	-0.060174685
39	0x3d428ad7	0.04749569
40	0xbd16b0ca	-0.036789693
41	0x3d538c94	0.051647738
42	0x3d0ea833	0.034828376
43	0xbc6f5672	-0.0146080125
44	0x3d1f502a	0.03889481
45	0x3b89b6d6	0.004202704
46	0xbc373e06	-0.011184221
47	0xbc240339	-0.010010534
48	0xbd7815cf	-0.060567673
49	0xbdd5b0b4	-0.10434094
50	0x3d86424c	0.06555614
51	0xbca67c13	-0.020322835
52	0x3d1b26c0	0.03787875
53	0xbdd7b6cb	-0.10532912
54	0xbd1ff176	-0.039048634
55	0x3d69fd49	0.057126317
56	0xbd9bc48e	-0.07605849
57	0xbc6ed329	-0.014576712
58	0x3d94d415	0.07267014
59	0x3da50c12	0.08058943
60	0x3ce3859c	0.02777367
61	0xbd868762	-0.06568791
62	0x39b1e29c	0.00033928908
63	0x3ccc8281	0.024964573
64	0xbd59df16	-0.053191267
65	0x3a9bf039	0.0011897153
66	0x3d2f96e3	0.042868506
67	0x3d2bbefb	0.04193018
68	0x3bbdbfb5	0.0057906755
69	0xbd23135f	-0.039813396
70	0x3c1adfe4	0.009452794
71	0x3b1bec98	0.0023792144
72	0xbd526ded	-0.051374365
73	0x3cff6e4d	0.031180525
74	0xbda1309d	-0.078706004
75	0x3c250080	0.01007092
76	0xbd965d50	-0.07342017
77	0xbc25dc75	-0.010123362
78	0x3a3a4c08	0.00071066665
79	0xbdc08403	-0.09400179
80	0x3d0afd10	0.033932745
81	0xbd51fe59	-0.051267955
82	0xbdb0906a	-0.08621295
83	0xbcc6cfa9	-0.024268942
84	0x3c841114	0.016121425
85	0xbc8f8234	-0.01751814
86	0x3d6e0bc9	0.058116708
87	0x3cf238f1	0.029568167
88	0x3cfded45	0.030996928
89	0x3d43b5d2	0.04778082
90	0xbdaac4eb	-0.0833834
91	0x3d1c85b8	0.03821346
92	0x3d4eef61	0.05052126
93	0xbccb63d1	-0.02482787
94	0xbd860530	-0.06543958
95	0x3bdc6d5a	0.006726903
96	0xbd7ba5fa	-0.061437584
97	0xbb8537da	-0.004065496
98	0xbd2c7df8	-0.04211232
99	0x3d200dba	0.03907559
100	0xbd150b6b	-0.036387842
101	0xbc558ab9	-0.013033562
102	0x3d202f61	0.039107684
103	0x3d25ea9a	0.040506937
104	0xbdac762c	-0.08420977
105	0xbd9cf2cc	-0.07663497
106	0x3b68da94	0.0035530673
107	0x3d5c2fd7	0.05375656
108	0x3cc46d66	0.023977946
109	0x3d82917f	0.063754074
110	0x3cfd5f8b	0.030929348
111	0xbc953010	-0.018211395
112	0xbd8f5b86	-0.069998786
113	0xbda85c83	-0.0822077
114	0xbd84ba7a	-0.0648088
115	0xbd8ed2f1	-0.06973828
116	0xbd8d8e85	-0.06911949
117	0xba325275	-0.0006802448
118	0xbdabc016	-0.08386247
119	0x3d13f32c	0.03612058
120	0xbcaaf471	-0.020868512
121	0xbd923fc4	-0.071410686
122	0xbc8c49c5	-0.01712502
123	0xbc656b92	-0.014002698
124	0xbd057cac	-0.0325896
125	0xbd0d2ae2	-0.034464724
126	0xbc473ae8	-0.01216004
127	0x3dadbead	0.08483634
128	0xbc41eb15	-0.011835833
129	0xbd079b9b	-0.03310738
130	0x3cbfdbc3	0.02342022
131	0xbcf1370d	-0.029445196
132	0x3dee3a6d	0.116322376
133	0xbdad1fba	-0.08453317
134	0x3d33eb37	0.04392549
135	0x3d1262a2	0.035738595
136	0x3e02b04a	0.12762561
137	0x3cd0b4e8	0.025476888
138	0x3db0aa70	0.086262584
139	0xbddb97df	-0.107223265
140	0x3da50eed	0.080594875
141	0xbc2aca10	-0.010424152
142	0x3b7bf041	0.0038442763
143	0xbe268a47	-0.16263686
144	0xbc9f6ea1	-0.019461932
145	0xbdc37552	-0.095438614
146	0x3d31cbc1	0.043407205
147	0x3d776d51	0.060406987
148	0xbe41978b	-0.18905465
149	0x3d650452	0.055912323
150	0x3e11ba3f	0.14231203
151	0x3cd72398	0.02626209
152	0x3e1aafd7	0.1510614
153	0xbd9bdda9	-0.07610638
154	0xbd4e4ca1	-0.050366048
155	0xbe1a46db	-0.15066092
156	0x3ce4163e	0.027842637
157	0xbd839981	-0.06425763
158	0xbdb6010b	-0.08886918
159	0x3dcc5177	0.09976476
160	0x3d3a356b	0.0454611
161	0xbdc18bf7	-0.09450524
162	0x3d5efe1c	0.054441556
163	0xbe64eef2	-0.22356775
164	0x3cc5f49b	0.024164489
165	0x3d2b25ff	0.041784283
166	0x3e407464	0.187944
167	0xbc36b608	-0.011151798
168	0x3ce91199	0.028450774
169	0xbd50d474	-0.05098386
170	0x3e1ca4a1	0.15297176
171	0x3df6ad5d	0.12044785
172	0x3d13f118	0.036118597
173	0xbc11efd0	-0.008907273
174	0x3d02b40d	0.03190999
175	0x3e32b35f	0.17451237
176	0x3b008417	0.0019609982
177	0xbd242119	-0.040070627
178	0x3d29d755	0.041465122
179	0xbe03ed4d	-0.12883492
180	0xbda635d4	-0.08115736
181	0x3e1d5efc	0.15368265
182	0xbd671bdf	-0.056423064
183	0xbd4f5001	-0.050613407
184	0x3cbb4311	0.022859128
185	0x3d584d29	0.05280796
186	0xbe4b3168	-0.19843066
187	0xbd24a316	-0.040194593
188	0xbe2817a8	-0.16415274
189	0x3e0143a0	0.12623453
190	0xbe3b2c1c	-0.18278545
191	0xbdcf9eb9	-0.10137696
192	0x3ddb06d1	0.106946595
193	0x3dc37437	0.095436506
194	0x3dcc27ef	0.09968554
195	0xbc29149f	-0.010319858
196	0x3dc374b1	0.095437415
197	0x3d9475c5	0.07249025
198	0x3bcc19c3	0.006228657
199	0xbdc079d1	-0.09398235
200	0x3a234e01	0.000622958
201	0x3e141e30	0.1446464
202	0xbce9ff3a	-0.028564084
203	0x3e128eae	0.1431224
204	0xbe58d398	-0.21174467
205	0xbd8c507b	-0.06851288
206	0xbd146fe2	-0.036239512
207	0x3e1ffae6	0.15623054
208	0xbdb14a60	-0.08656764
209	0x3d91fd17	0.07128351
210	0x3e173ea2	0.14769986
211	0x3da7418c	0.08166799
212	0x3bdd5d1f	0.0067554857
213	0xbe00a6ac	-0.1256358
214	0x3e15c7ca	0.14626995
215	0x3e36cb87	0.17851077
216	0x3e338f31	0.17535092
217	0xbe1e2e4b	-0.15447347
218	0x3cc9d0db	0.024635723
219	0x3b0c3a01	0.0021396878
220	0x3e2e551c	0.17024654
221	0x3d91c610	0.071178555
222	0xbddf333e	-0.108984455
223	0xbd1581d9	-0.036500785
224	0x3e194890	0.14969087
225	0x3d52ffa2	0.05151332
226	0x3d748243	0.05969454
227	0x3dd907d8	0.10597199
228	0xbdc20dea	-0.0947531
229	0xbdc2222e	-0.094791755
230	0x3dba1da9	0.090876885
231	0x3e0aa416	0.13539156
232	0x3e157296	0.14594492
233	0x3dfcbbb9	0.12340493
234	0x3cc73045	0.024315009
235	0x3cf8c2a5	0.030366251
236	0x3e05eecb	0.13079374
237	0xbd371294	-0.04469545
238	0xbcc2c4db	-0.023775509
239	0x3c25173f	0.010076343
240	0xbe426c87	-0.18986712
241	0xbd60fcf0	-0.05492872
242	0x3b90aa09	0.004414801
243	0x3d022e54	0.031782463
244	0xbe7eb617	-0.2487415
245	0xbe2e9be5	-0.17051657
246	0x3df60e9f	0.120145075
247	0xbdd71548	-0.10502106
248	0xbdfcedf0	-0.123500705
249	0x3d743ee4	0.05963029
250	0x3d6dc249	0.058046613
251	0xbcbac69c	-0.022799782
252	0x3d87497c	0.06605813
253	0x3d2e84cb	0.04260711
254	0xbd504edd	-0.05085646
255	0xbe5a3622	-0.21309713

bias f4 [128]
0	0xbd74bd76	-0.059750997
1	0x3e2ed2ff	0.17072676
2	0xbd473233	-0.048631858
3	0xbded6317	-0.115911655
4	0xbdc81db4	-0.097712904
5	0x3c90fc55	0.017698446
6	0x3bc384a9	0.005966742
7	0xbd1ccfd2	-0.03828413
8	0x3deb7571	0.114970095
9	0xbd52699d	-0.051370252
10	0xbae79601	-0.0017668606
11	0xbd890c08	-0.06691748
12	0x3e2f0124	0.17090279
13	0x3e36489a	0.17801133
14	0x3d5bd611	0.053670947
15	0x3cded9b6	0.027203422
16	0xbd57e82c	-0.05271165
17	0xbd0f5bd3	-0.03499968
18	0x3dbf2bd9	0.09334535
19	0x3d3d3f83	0.046203148
20	0x3b894f8f	0.0041903923
21	0x3de48df3	0.11159887
22	0xbd19d939	-0.037560675
23	0x3e3909e9	0.18070187
24	0xbd81fbdd	-0.06346867
25	0x3cc13838	0.023586378
26	0x3d8604bf	0.06543874
27	0x3e137858	0.14401376
28	0xbdca5ad3	-0.098806046
29	0xbd8ff9dd	-0.070300795
30	0x3d4ec4cc	0.05048065
31	0x3e05afc6	0.13055333
32	0xbd8dff73	-0.06933489
33	0xbd68095a	-0.056649543
34	0x3db85859	0.09001226
35	0xbdb2cd3f	-0.08730554
36	0x3c7e0505	0.015504126
37	0x3d90f597	0.070780925
38	0x3b8e9ac0	0.0043519437
39	0x3e12195a	0.14267483
40	0x3deb0fab	0.11477598
41	0xbd7902b6	-0.0607936
42	0xbaeadf70	-0.0017919373
43	0xbca34c7e	-0.019933935
44	0xbc1a60df	-0.00942251
45	0xbd0334fc	-0.03203295
46	0xbbe182a3	-0.006882028
47	0x3de68d4c	0.11257419
48	0xbd0fca8c	-0.035105273
49	0x3e04bcc3	0.12962632
50	0xbd21208f	-0.03933769
51	0x3b20878d	0.0024494857
52	0x3c3ba58e	0.0114530455
53	0xbd35620d	-0.04428296
54	0x3dd6e7c0	0.104934216
55	0x3d55977f	0.05214643
56	0xbd842146	-0.06451659
57	0x3e1da3da	0.15394536
58	0x3e22b180	0.15888023
59	0xbd51be61	-0.05120695
60	0x3c9649b3	0.01834569
61	0x3d422763	0.047400843
62	0x3d104bf3	0.03522868
63	0x3db088d9	0.086198516
64	0x3e3075a0	0.1723237
65	0x3d9697a7	0.07353144
66	0x3d421d52	0.047391243
67	0xbd51b6d4	-0.05119975
68	0x3cbbbf7e	0.022918459
69	0xbd5c410b	-0.053772967
70	0xbcfa5c2b	-0.030561527
71	0xbd3581a9	-0.044313107
72	0xbd5085b3	-0.050908756
73	0x3d6102be	0.054934256
74	0x3d1b6565	0.037938494
75	0xbc66e2dc	-0.014092173
76	0xbdf58b16	-0.11989419
77	0x3d225dc6	0.03964021
78	0xbd80d47b	-0.062905274
79	0xbdb8e16c	-0.09027371
80	0xbd2c828e	-0.042116694
81	0xbd610a95	-0.054941732
82	0x3e0b3aee	0.13596699
83	0xbda52d34	-0.080652624
84	0x3d6baeb2	0.05753965
85	0xbcdab0bd	-0.026695604
86	0x3997084f	0.00028807155
87	0x3e3031e6	0.17206535
88	0xbd90467d	-0.070446946
89	0x3e18e789	0.14932074
90	0x3cec7b7e	0.02886748
91	0x3d15e17f	0.036592003
92	0xb9908e13	-0.00027571674
93	0xbd2e31d1	-0.042527977
94	0x3d5eaf55	0.05436643
95	0xbdd140ec	-0.10217461
96	0x3ccdaf81	0.0251081
97	0x3ca655f5	0.02030466
98	0xbd500f27	-0.0507957
99	0x3d8cbaca	0.06871565
100	0x3d8d66b0	0.06904352
101	0xbca64ea3	-0.020301169
102	0x3cc00786	0.023441087
103	0xbb7063f6	-0.0036680675
104	0xbdaddd8b	-0.084895216
105	0x3e161d64	0.14659649
106	0x3d9356a7	0.07194262
107	0xbd8003b7	-0.062507086
108	0xbd700cb6	-0.058605872
109	0xbd32a876	-0.043617688
110	0xbdeaf843	-0.114731334
111	0xbd440d76	-0.0478644
112	0xbd2bd071	-0.041946832
113	0x3e2cceb5	0.16875727
114	0xbd4fa0ec	-0.050690576
115	0xbc9cdf70	-0.019149512
116	0xbd673478	-0.056446522
117	0xbd4a9fa0	-0.049468637
118	0x3e123aeb	0.14280288
119	0xbda0cac6	-0.07851176
120	0xbca5c339	-0.020234691
121	0xbd796a10	-0.060892165
122	0x3c59cadf	0.013292997
123	0x3d482dbb	0.048871737
124	0xbd9da413	-0.0769731
125	0xbd8276a4	-0.06370285
126	0x3ce7d4ce	0.028299715
127	0xbda99b2c	-0.0828155

weight f4 [2, 128]
0	0xbd6b4af7	-0.05744454
1	0x3e24dc0d	0.16099568
2	0x3e1ed869	0.15512241
3	0x3c4650ab	0.012104194
4	0x3c27b47c	0.010235902
5	0xbe131625	-0.14363916
6	0xbd54ac81	-0.051922325
7	0xba92e50e	-0.001120718
8	0x3dd337d9	0.103133865
9	0xbc3f9437	-0.011693052
10	0x3c4007f5	0.011720647
11	0xbd2459ef	-0.04012483
12	0x3d62f710	0.0554114
13	0x3e37f6ba	0.17965212
14	0xbd0cba87	-0.034357574
15	0x3c311297	0.010807655
16	0xbd4b0dc6	-0.049573682
17	0xbd39a977	-0.04532763
18	0x3e41443c	0.18873686
19	0x3e01ce83	0.12676434
20	0xbe1647be	-0.14675805
21	0x3e3ac11b	0.18237726
22	0x3d0c6411	0.03427512
23	0x3de84131	0.11340559
24	0xbcf404db	-0.029787472
25	0x3d7d7249	0.06187657
26	0x3e001411	0.12507655
27	0x3e0ee364	0.1395393
28	0xbd65bd05	-0.056088466
29	0xbe061252	-0.13092926
30	0x3d5e4ddf	0.054273482
31	0x3e2bbc3e	0.16771027
32	0xbc90c7dc	-0.017673425
33	0x3d07b670	0.03313297
34	0x3e05efd2	0.13079765
35	0xbcc2c7b2	-0.023776863
36	0x3d688fd0	0.056777775
37	0x3c276a82	0.010218265
38	0xbd9b0137	-0.07568591
39	0x3d8eef65	0.06979255
40	0x3e3f5b8b	0.18687265
41	0xbd80f437	-0.0629658
42	0xbd27fad4	-0.041010693
43	0x3c8838b3	0.016628599
44	0xbe26480b	-0.1623842
45	0x3cc0ccf6	0.023535233
46	0xbc738234	-0.014862586
47	0x3e0eef09	0.13958372
48	0xbd043e35	-0.032285888
49	0x3d9db4ff	0.07700538
50	0x3d766143	0.06015135
51	0x3d03f821	0.032219056
52	0xbb53cf88	-0.0032319743
53	0xbcfbc1f7	-0.030732138
54	0x3e243ca8	0.16038764
55	0x3ce310c2	0.027717952
56	0xbd2ddefa	-0.042448975
57	0x3e28df27	0.16491376
58	0x3e2da68e	0.16958067
59	0xbca8eb6c	-0.02062007
60	0x3e018a72	0.12650469
61	0x3d0ddfd5	0.03463729
62	0x3e305994	0.17221671
63	0x3d398632	0.045293994
64	0x3e004dc0	0.1252966
65	0x3e275729	0.16341843
66	0x3e71c5ea	0.23610654
67	0xbce6a6c1	-0.028155686
68	0xbcc507fa	-0.024051655
69	0xbc327bd3	-0.01089378
70	0x3cd750e3	0.026283687
71	0xbcdd3dbd	-0.027006978
72	0x3c8abd33	0.01693592
73	0x3bcca82f	0.006245635
74	0xbd5c9ba0	-0.053859353
75	0xbd6c0eb9	-0.057631228
76	0xbe298594	-0.16554862
77	0x3d9d8bb0	0.07692659
78	0xbda60e69	-0.08108217
79	0x3cc67633	0.024226284
80	0xbdb72721	-0.0894301
81	0xbd02b629	-0.031912003
82	0x3e351797	0.1768478
83	0xbe44882f	-0.19192575
84	0x3e37ba0f	0.1794207
85	0xbd7950b7	-0.06086799
86	0xbd2fcb45	-0.042918462
87	0x3e20f95c	0.15720123
88	0x3d61d341	0.055133108
89	0xbe285c63	-0.16441493
90	0x3da5abec	0.08089432
91	0x3bbd7d6b	0.0057827733
92	0xbcb5271c	-0.022113375
93	0xbd37607b	-0.044769745
94	0xbcd8d4e8	-0.02646871
95	0x3dd742e7	0.105108075
96	0x3e02cbcc	0.12773055
97	0x3cdf9388	0.027292028
98	0x3db09ce5	0.08623675
99	0x3e73cf1f	0.23809479
100	0xbd2afc87	-0.041744735
101	0xbd6dc4b8	-0.058048934
102	0x3de19c8e	0.110161886
103	0xbd09e883	-0.033669006
104	0xbc5e3020	-0.013561279
105	0x3e5e1a4a	0.21689716
106	0x3e1402d2	0.14454201
107	0xbcadf0ce	-0.021232989
108	0xbd33cf77	-0.043899026
109	0xbca1c961	-0.019749345
110	0xbe26cb0d	-0.16288395
111	0xbd8805e7	-0.06641751
112	0xbd265d32	-0.04061622
113	0x3e127a58	0.14304483
114	0x3d845ec0	0.06463385
115	0x3d715802	0.05892182
116	0xbd47740d	-0.04869466
117	0x3adde715	0.001692983
118	0x3e4a5a6b	0.19761054
119	0xbd182a75	-0.037149865
120	0x3cc5d693	0.024150169
121	0x3d059bcf	0.032619294
122	0xbcac88bc	-0.021061294
123	0xbd307c19	-0.0430871
124	0x3cd6de41	0.026229026
125	0xbd34706b	-0.044052523
126	0xbcd47b18	-0.025937602
127	0xbd0e4574	-0.034734204
128	0xbd74908e	-0.05970817
129	0x3d44380b	0.04790501
130	0xbdb13b07	-0.08653837
131	0xbd6a2e36	-0.057172976
132	0xbce38176	-0.027771693
133	0xbd43f268	-0.0478386
134	0x3c3445f9	0.011003011
135	0xbd7a3f0e	-0.06109529
136	0x3e369a1e	0.17832229
137	0x3e535806	0.20639047
138	0xbd23ba38	-0.039972514
139	0xbd036dcc	-0.032087132
140	0x3e4cfd45	0.2001849
141	0x3e349919	0.17636527
142	0xbd601817	-0.054710474
143	0x3c8a51db	0.016884735
144	0x3d2546bc	0.04035066
145	0xbd585bed	-0.052822042
146	0x3e35f940	0.17770863
147	0x3df6e82a	0.120560005
148	0xbdc52d09	-0.096277304
149	0x3dd779ea	0.105213
150	0x3d11b578	0.035573453
151	0x3e3c648d	0.18397732
152	0xbc2e3492	-0.010632651
153	0x3d8fb272	0.070164576
154	0x3e4bf481	0.1991749
155	0x3e2923c3	0.16517548
156	0xbe4c7e4f	-0.19970058
157	0x3d31029c	0.04321538
158	0xbd13a5b3	-0.036046695
159	0x3e39ff1e	0.18163726
160	0xbd4be49b	-0.049778562
161	0x3d048cdb	0.032360893
162	0x3e4df315	0.2011226
163	0xbc9565fb	-0.018237105
164	0xbd6f93c0	-0.058490515
165	0xbd712cbb	-0.05888055
166	0xbceb0fcb	-0.028694054
167	0x3e45fac3	0.19333939
168	0x3e35ff1a	0.17773095
169	0x3bf7d560	0.007563278
170	0xbb0ce49e	-0.002149857
171	0xbbf016fe	-0.0073269596
172	0xbd83b199	-0.064303584
173	0xbbef2011	-0.007297524
174	0xbc9ed1ad	-0.01938709
175	0x3e254ef0	0.16143394
176	0xbd84433d	-0.06458137
177	0x3e446cc5	0.19182117
178	0xbcb6891d	-0.022282178
179	0xbd5eccbe	-0.054394476
180	0x3b2361c6	0.0024930104
181	0x3d85ee7d	0.06539629
182	0x3e01a43c	0.12660307
183	0x3a430dc1	0.0007440709
184	0x3e2ac574	0.16676885
185	0x3e21c1b9	0.15796556
186	0x3e273300	0.16328049
187	0xbd06c176	-0.032899342
188	0x3e33761d	0.17525525
189	0xbe3e4d95	-0.18584283
190	0x3da895fb	0.082317315
191	0x3e4d031b	0.20020716
192	0x3e1f326c	0.15546578
193	0x3e4b4f3d	0.19854446
194	0xbe5ef0db	-0.21771567
195	0xbd872dce	-0.066005334
196	0x3d29b37b	0.04143093
197	0xbc89e0e4	-0.016830869
198	0xbd1a2ba1	-0.037639264
199	0x3db72919	0.08943386
200	0xbda2ae4e	-0.07943402
201	0xbd535421	-0.051593903
202	0x3da4d32e	0.08048092
203	0xbd37ce8a	-0.044874705
204	0xbe45c389	-0.19312872
205	0x3d483978	0.04888293
206	0xbd8c7b10	-0.0685941
207	0xbe322ca5	-0.17399843
208	0x3d0c282e	0.034218006
209	0x3a5212f2	0.00080136873
210	0x3dad3fae	0.084594116
211	0xbdc94ff7	-0.09829705
212	0x3e2c85ff	0.1684799
213	0xbc3da6c5	-0.0115754055
214	0x3c77dfa7	0.0151290065
215	0x3e0dcd65	0.13847883
216	0xbd9d0c7e	-0.07668398
217	0x3dab2654	0.0835692
218	0xbd464736	-0.048407756
219	0x3d40c73f	0.047065016
220	0x3c3f8eff	0.011691808
221	0x3c7c8463	0.015412423
222	0x3d9481fa	0.072513536
223	0xbd46eb5a	-0.048564292
224	0x3e1fea5b	0.15616743
225	0xbd7d1e55	-0.061796505
226	0xbd5f1818	-0.054466337
227	0xbd03abd3	-0.032146286
228	0xbc69470d	-0.014238131
229	0xbbbf7ab2	-0.005843484
230	0xbb73679c	-0.0037140613
231	0x3d59d488	0.0531812
232	0xbc0f81a3	-0.008758935
233	0x3e4c0821	0.19924976
234	0x3df01948	0.11723572
235	0xbd827861	-0.06370617
236	0x3d09b1fb	0.033617
237	0xbcbf4e8b	-0.023352882
238	0x3d18fad5	0.037348587
239	0xbe8df4ba	-0.27725774
240	0xbe09b395	-0.13447411
241	0x3de1f353	0.110327385
242	0x3bde1b2c	0.0067781415
243	0xbda92252	-0.08258499
244	0xbd712022	-0.058868535
245	0xb8594ac3	-5.180646e-05
246	0x3e17c229	0.1482016
247	0xbc5141ca	-0.012772033
248	0xbae1348b	-0.0017181797
249	0xbd10524b	-0.03523473
250	0x3cb50f35	0.022101978
251	0x3bcaf53e	0.006193786
252	0x3d8e1473	0.06937494
253	0x3b8da845	0.004323038
254	0xbd855ed8	-0.06512231
255	0xbc64cf16	-0.013965389

bias f4 [2]
0	0x3dfc2bed	0.12313066
1	0x3e093ae3	0.1340137
