TP6/models/lab6/lab6_dqn2_q_network.pth (torch, 73472 bytes, 6 tensors)

weight f4 [128, 4]
0.31812662 -0.22613151 -0.55581784 -0.19783437 -0.46361372 0.33703017 -0.55974 -0.26636678
-0.1372756 0.013109151 -0.1359468 -0.033460077 -0.1261533 -0.12154156 -0.1962439 0.22232859
-0.40328035 0.07960639 0.19194867 0.088490106 -0.0004365134 -0.22162147 -0.40158638 -0.41429502
0.064492986 -0.20620237 0.18402846 0.0869146 -0.20492084 -0.22466047 -0.03312661 0.33507395
-0.054308847 -0.1642845 0.2501317 -0.20994802 0.36047432 0.16370843 -0.45253137 0.32552624
-0.43427506 -0.28098896 -0.25735688 -0.23879935 0.34012628 0.20472744 0.4724797 -0.39364037
-0.19881101 0.23284939 -0.2081653 0.5669681 -0.3491284 0.2817868 0.1340088 0.4390877
0.37573105 0.12743926 0.5873624 0.5537114 -0.4358395 0.0371454 0.013955893 -0.10020467
-0.061002277 -0.2571609 0.15853582 -0.46317968 0.10732911 0.58890194 0.26635772 0.27476683
-0.15160492 0.045542102 -0.062503986 0.07190428 0.09216843 -0.23473528 0.2949018 0.34108192
-0.17273672 0.2907649 0.44839117 0.09319582 0.18110722 0.31586647 0.06814026 -0.05484643
-0.4618629 0.48105204 0.15487966 0.265071 -0.0147790965 -0.02380737 -0.21186027 0.38737532
-0.42832136 0.44689322 0.45093173 -0.1919565 0.16147624 0.24932598 0.45767018 -0.04879403
0.23120289 -0.24197811 -0.20566186 -0.05371054 -0.11922178 0.40249646 -0.26602975 0.1404945
-0.23807687 0.18172161 0.28844586 0.3013014 0.14973359 0.0580742 0.6894154 0.4295228
-0.2735551 -0.1372348 0.4949952 -0.19915228 -0.1819796 0.292632 0.06769858 -0.33365613
-0.088952936 -0.26726317 0.058911573 -0.11037673 0.040686663 -0.025741525 -0.12503737 -0.08687307
-0.078414395 -0.016943758 0.047125626 0.1927165 -0.24225913 -0.02811404 -0.61436635 -0.43009627
-0.30030572 -0.189345 -0.42780587 0.011578449 -0.03959372 0.30738828 -0.038377967 0.15350284
-0.0035317522 0.14220658 -0.21469024 -0.0057071936 -0.04172669 0.4435871 0.4781879 0.46895128
-0.39017254 0.42316815 -0.01780149 -0.26700255 0.03762593 0.47188118 0.4281287 0.39649656
-0.13253702 0.0809274 0.039860263 -0.40238908 0.015671182 -0.32167336 -0.15954469 -0.48495018
-0.23506078 0.22029392 0.074814 0.22615859 0.13708815 -0.007321396 0.30621856 -0.20070842
-0.19889276 0.27152085 0.25979084 0.0816342 -0.019456014 0.16465655 -0.41057673 0.26301908
-0.2469444 0.0034172558 -0.4925267 -0.26062986 0.033421475 -0.2886265 -0.36328718 0.33912364
0.091385044 -0.048908673 -0.12895782 0.38113153 -0.3326579 -0.41826075 0.4636572 0.16001299
-0.0402798 -0.3300806 0.4081183 0.17099863 0.041568644 -0.20138279 0.24675034 -0.09541392
-0.24710034 0.2700496 0.26316723 0.024308313 0.43135774 0.35564697 -0.024249312 -0.15333107
0.45837522 -0.011297126 0.047782563 -0.34647447 -0.38719085 0.3583031 -0.11297905 -0.035203367
0.28248572 0.17587216 0.16917743 -0.3781757 -0.4166953 0.2747694 -0.18464683 0.5385802
0.03947499 -0.34379813 -0.3558473 -0.44605148 0.06868922 -0.040440924 0.27955124 -0.030256696
0.017185476 0.5273473 0.01788652 0.039505802 -0.10673683 -0.23794827 0.051491078 0.18735749
00000000: 7ee1 a23e 058f 67be 144a 0ebf 1895 4abe
00000010: c75e edbe 388f ac3e 1f4b 0fbf 3a61 88be
00000020: fa91 0cbe c4c7 563c a335 0bbe 6f0d 09bd
00000030: 552e 01be c8ea f8bd 29f4 48be 1baa 633e
00000040: c37a cebe ad08 a33d 318e 443e 4d3a b53d
00000050: d6db e4b9 bdf0 62be bb9c cdbe 7a1e d4be
00000060: e614 843d b726 53be f571 3c3e 4800 b23d
00000070: c5d6 51be 650d 66be c5af 07bd d08e ab3e
00000080: f472 5ebd 323a 28be 4311 803e 9dfc 56be
00000090: 1790 b83e 2fa3 273e 31b2 e7be 60ab a63e
000000a0: 4d59 debe c9dd 8fbe 48c4 83be d187 74be
000000b0: 0825 ae3e 12a4 513e dce8 f13e 3b8b c9be
000000c0: 1d95 4bbe 1270 6e3e 4929 55be d224 113f
000000d0: f5c0 b2be 5c46 903e 9a39 093e 1ad0 e03e
000000e0: d25f c03e 707f 023e 625d 163f 08c0 0d3f
000000f0: 5b26 dfbe c625 183d 42a7 643c 1b38 cdbd
00000100: 86dd 79bd 98aa 83be 3757 223e e325 edbe
00000110: 5dcf db3d 47c2 163f 0a60 883e 3dae 8c3e
00000120: 523e 1bbe 5b8a 3a3d 1702 80bd 8d42 933d
00000130: cdc2 bc3d 725e 70be 5efd 963e 4aa2 ae3e
00000140: e5e1 30be 23df 943e 8793 e53e 73dd be3d
00000150: 2c74 393e 40b9 a13e 1f8d 8b3d a6a6 60bd
00000160: 4b79 ecbe 744c f63e c698 1e3e 63b7 873e
00000170: 0624 72bc ac07 c3bc e6f1 58be 0f56 c63e
00000180: f04c dbbe 30cf e43e 86e0 e63e 3f90 44be
00000190: 075a 253e 4f4f 7f3e bf53 ea3e 40dc 47bd
000001a0: 73c0 6c3e 1cc9 77be 0699 52be 95ff 5bbd
000001b0: 8c2a f4bd 0414 ce3e 0d35 88be cadd 0f3e
000001c0: 6cca 73be 3b15 3a3e 2daf 933e 2d44 9a3e
000001d0: c353 193e 36df 6d3d 877d 303f 6aea db3e
000001e0: 6a0f 8cbe 4887 0cbe 0370 fd3e 93ee 4bbe
000001f0: dc58 3abe ddd3 953e 8ea5 8a3d fad4 aabe
00000200: f52c b6bd b8d6 88be 434d 713d 320d e2bd
00000210: 0fa7 263d e4df d2bc cc09 00be 82ea b1bd
00000220: ba97 a0bd a3cd 8abc cd06 413d 7957 453e
00000230: c712 78be 6a4f e6bc 1d47 1dbf 9435 dcbe
00000240: acc1 99be a8e3 41be 5f09 dbbe 89b3 3d3c
00000250: 062d 22bd ff61 9d3e 3732 1dbd d92f 1d3e
00000260: f874 67bb 9a9e 113e c2d7 5bbe 6903 bbbb
00000270: 9be9 2abd d91d e33e 0bd5 f43e 621a f03e
00000280: b2c4 c7be 7fa9 d83e 6ed4 91bc 8fb4 88be
00000290: a61d 1a3d 699a f13e af33 db3e 9901 cb3e
000002a0: c9b7 07be 44bd a53d 8444 233d f105 cebe
000002b0: da60 803c 5fb2 a4be af5f 23be 644b f8be
000002c0: c6b3 70be bb94 613e 1538 993d 1e96 673e
000002d0: d660 0c3e 52e8 efbb aec8 9c3e 8286 4dbe
000002e0: 8baa 4bbe c804 8b3e 4e03 853e d52f a73d
000002f0: 3862 9fbc ba9b 283e 1d37 d2be 70aa 863e
00000300: fede 7cbe 0af4 5f3b 762c fcbe 4771 85be
00000310: f5e4 083d dac6 93be c700 babe 9da1 ad3e
00000320: 1528 bb3d 7654 48bd 850d 04be ac23 c33e
00000330: 2352 aabe 4626 d6be 7a64 ed3e 72da 233e
00000340: 6efc 24bd 5300 a9be e2f4 d03e 441a 2f3e
00000350: e243 2a3d 4a37 4ebe 1fac 7c3e 6068 c3bd
00000360: df07 7dbe f143 8a3e dbbd 863e 3a22 c73c
00000370: ecda dc3e 5c17 b63e 7ea6 c6bc d202 1dbe
00000380: 28b0 ea3e 9517 39bc a6b7 433d 1a65 b1be
00000390: e13d c6be 8173 b73e 8f61 e7bd 6831 10bd
000003a0: f8a1 903e d517 343e d93c 2d3e 3fa0 c1be
000003b0: 1659 d5be 93ae 8c3e 0f14 3dbe 64e0 093f
000003c0: 87b0 213d 4f06 b0be 9e31 b6be dc60 e4be
000003d0: efac 8c3d 62a5 25bd 5721 8f3e e4dc f7bc
000003e0: 8ec8 8c3c 3c00 073f c086 923c d6d0 213d
000003f0: d798 dabd b6a8 73be 4fe8 523d a4da 3f3e

bias f4 [128]
-0.23914996 -0.31661886 0.29900488 -0.3297375 0.54250026 -0.30969137 0.553034 -0.1459533
0.3867682 0.45356372 0.23688401 0.17108445 -0.010604265 -0.28156713 -0.36653775 -0.5034157
-0.25965488 -0.09895408 0.518215 -0.4999338 0.44665998 0.19635293 -0.029220553 -0.38523757
0.20989789 -0.26911092 0.2110836 0.5244891 0.3104295 -0.25507355 0.050324477 -0.44840416
0.21154295 0.46623176 0.53878504 -0.22201511 0.28011265 0.2156106 0.3019617 -0.2511772
0.3868286 -0.26206517 0.2609853 -0.33912942 0.33756158 0.4510339 0.25845465 0.31558582
-0.48786128 0.12009153 0.44354665 -0.24704303 -0.3209344 -0.4098893 0.36125365 -0.541885
-0.48543993 -0.4317617 -0.22403888 -0.1085943 -0.23879267 0.1802771 -0.33452886 -0.36638737
-0.57333165 0.19303289 0.32765567 0.44052893 0.23935203 0.17371486 0.5261223 0.46888238
0.33552256 -0.2902264 0.3961005 0.13137037 0.37752256 0.07954555 -0.45877585 0.1724657
0.122783214 -0.26045468 0.46869168 -0.08182613 -0.04443686 0.12761861 -0.12999868 -0.5977579
-0.51420516 -0.10275771 -0.24268869 -0.39295644 -0.14357544 -0.3414464 -0.541875 -0.5347416
0.14837933 0.40403813 0.28037098 0.0763719 0.2719647 0.5147409 -0.019796759 0.3387002
0.13772261 0.01332925 0.18233769 0.21450429 0.3731372 0.45529944 0.4298999 0.56335855
0.4577218 -0.13830617 0.100842245 0.3745074 0.18215199 0.3738868 0.2283843 -0.3450122
-0.44988874 0.41165194 0.62498623 -0.21456899 -0.5633957 0.19070469 -0.3669487 0.11492544
00000000: bae3 74be de1b a2be 2b17 993e 5bd3 a8be
00000010: 4ce1 0a3f de8f 9ebe a393 0d3f c874 15be
00000020: 7b06 c63e 8139 e83e b991 723e c330 2f3e
00000030: 83bd 2dbc 9129 90be d6aa bbbe dadf 00bf
00000040: 7cf1 84be 70a8 cabd bda9 043f 53f7 ffbe
00000050: 9eb0 e43e be10 493e f15f efbc dc3d c5be
00000060: 79ef 563e e8c8 89be 4d26 583e eb44 063f
00000070: 9ef0 9e3e 0099 82be 0a21 4e3d 3b95 e5be
00000080: b79e 583e eeb5 ee3e d1ed 093f ee57 63be
00000090: ed6a 8f3e 06c9 5c3e b99a 9a3e 4c9a 80be
000000a0: 660e c63e 682d 86be de9f 853e 5fa2 adbe
000000b0: dfd4 ac3e eaed e63e 2b54 843e 7794 a13e
000000c0: f4c8 f9be 8cf2 f53d 8c18 e33e d9f8 7cbe
000000d0: 8451 a4be 03dd d1be 3df6 b83e fab8 0abf
000000e0: 958b f8be df0f ddbe 736a 65be b066 debd
000000f0: 1186 74be 8f9a 383e 5e47 abbe 2097 bbbe
00000100: ddc5 12bf 6aaa 453e 7cc2 a73e 028d e13e
00000110: b318 753e 4fe2 313e f3af 063f 5a11 f03e
00000120: 9dc9 ab3e 8e98 94be afcd ca3e f485 063e
00000130: a34a c13e c7e8 a23d abe4 eabe d99a 303e
00000140: c475 fb3d 515a 85be 5bf8 ef3e 7594 a7bd
00000150: 6d03 36bd 74ae 023e 601e 05be a906 19bf
00000160: f3a2 03bf a272 d2bd 6283 78be 9631 c9be
00000170: 7105 13be 10d2 aebe 52b8 0abf d3e4 08bf
00000180: c0f0 173e 16de ce3e c98c 8f3e df68 9c3d
00000190: f53e 8b3e 0fc6 033f d02c a2bc 1d6a ad3e
000001a0: 2807 0d3e ed62 5a3c bbb6 3a3e 03a7 5b3e
000001b0: d70b bf3e 021d e93e d71b dc3e 4438 103f
000001c0: 835a ea3e 22a0 0dbe 6186 ce3d 6fbf bf3e
000001d0: 0d86 3a3e 176e bf3e 93dd 693e 70a5 b0be
000001e0: d157 e6be 0bc4 d23e 19ff 1f3f f9b7 5bbe
000001f0: b33a 10bf 1748 433e b3e0 bbbe 075e eb3d

weight f4 [128, 128]
-0.05654608 0.0110984435 -0.05678358 0.06457834 0.042141676 -0.062885694 -0.06947259 -0.10331991
-0.074784555 -0.037830222 -0.10249639 -0.10771326 -0.09893197 0.025676781 -0.09767435 0.011294153
0.029260168 0.0028483723 -0.04096225 -0.07883558 -0.03043778 0.025852885 0.027706755 0.049678825
0.029731926 -0.026390374 -0.079186514 -0.0792267 0.020805806 -0.04923467 -0.014247935 -0.033075865
0.051583085 -0.041000262 -0.023731282 -0.062827654 0.02692342 -0.026451949 0.026372124 0.0475987
0.0015897973 0.06635387 -0.06579743 0.01117901 0.014649509 -0.080101356 0.012010302 -0.10811471
-0.1044929 -0.042927183 -0.03538095 -0.05519564 -0.07491608 -0.05277262 0.054024123 -0.08085969
-0.058321506 0.058744993 0.007920635 -0.044756245 -0.048534296 0.038947474 0.050523564 -0.016804127
0.014481672 0.049766358 0.0116438 -0.08170082 -0.1082388 -0.06757209 0.053796515 0.026917404
-0.039529033 -0.016256709 -0.046431214 0.04712935 -0.023594167 -0.04047598 -0.072509564 0.037557505
0.0111064855 0.025640992 0.0069740205 -0.07210679 -0.04873864 0.022933647 -0.009625734 -0.062164817
-0.05758731 0.013738048 -0.029039273 -0.05643556 -0.065481916 0.06268385 -0.06434154 0.004802175
-0.033462513 0.046712484 -0.07178243 -0.012807037 0.03079456 -0.026462788 -0.00020129386 -0.09189977
0.0037605797 -0.08833591 -0.030256707 -0.07699063 -0.08824494 -0.036163807 -0.021420568 0.04615621
0.004653663 0.044554308 -0.11131551 -0.019847235 -0.02926855 -0.0120890355 -0.06000845 0.04796848
-0.040290803 -0.006743234 -0.090868086 -0.007355051 -0.086039945 0.046069995 0.048834663 0.047252607
0.054141976 0.04200645 0.05694722 -0.04322553 -0.027312644 0.016154882 -0.024649283 -0.039852723
0.07999683 -0.016145594 0.052039348 -0.019474402 -0.056882534 0.054894548 -0.027449004 -0.06423019
0.031231353 -0.03264053 -0.04113214 -0.060755115 0.07368645 0.011243022 -0.065313 0.078996874
0.06043947 -0.013567682 -0.03562891 -0.05499156 -0.020406181 0.056471713 0.027852258 -0.0541016
-0.036404565 0.07115225 -0.013204706 -0.007163208 -0.056441884 -0.060611565 -0.059435956 -0.050288543
-0.01338498 0.023628373 0.0704721 -0.035985123 0.02368843 -0.053260937 0.07293444 -0.05701832
-0.038867902 0.045550253 0.05251144 0.0036979306 -0.033016413 0.07765419 -0.037226006 -0.027314708
0.056382146 0.083201915 -0.047681812 -0.07323924 -0.050994508 0.051730327 0.0052976673 -0.030646963
0.046029344 -0.032924417 -0.025929095 0.040122595 0.019353025 0.067723475 0.04737614 -0.07565154
-0.02930531 -0.033254594 -0.031531442 -0.013507708 0.033628754 -0.011732996 0.016100075 -0.078953855
0.007422625 -0.059985947 -0.0067234705 0.015642606 0.06769194 0.05920369 -0.07470325 -0.08355805
-0.08123767 0.018864853 0.055783644 0.009481408 0.032250468 -0.057638157 0.05168711 0.037222598
0.035676558 -0.075258635 -0.032382276 -0.025151143 0.033923842 -0.013393758 0.0007368415 -0.036395032
-0.059743494 0.009386033 -0.07831352 -0.071137756 -0.0383933 -0.07244302 -0.052421693 -0.08100156
0.042009026 0.01806127 -0.025221705 -0.05021882 -0.03511509 0.025550049 0.003473497 -0.058323655
-0.060321078 0.039706316 -0.02287506 -0.06619432 0.0783818 -0.025467878 -0.0010352093 -0.053580757
00000000: dd9c 67bd 3fd6 353c e695 68bd a641 843d
00000010: c09c 2c3d 37ca 80bd a547 8ebd 6499 d3bd
00000020: a528 99bd ddf3 1abd a1e9 d1bd c598 dcbd
00000030: d89c cabd 1d58 d23c 7d09 c8bd 1c0b 393c
00000040: 05b3 ef3c c2ab 3a3b 08c8 27bd 8c74 a1bd
00000050: a758 f9bc 6ec9 d33c 47f9 e23c 067c 4b3d
00000060: 5e90 f33c a030 d8bc 8a2c a2bd 9c41 a2bd
00000070: f070 aa3c 4baa 49bd 2c70 69bc 8f7a 07bd
00000080: c948 533d e4ef 27bd 1b68 c2bc c9ab 80bd
00000090: 818e dc3c c2b1 d8bc 5a0a d83c dbf6 423d
000000a0: bf60 d03a 8ae4 873d cec0 86bd 2b28 373c
000000b0: 7f04 703c 2e0c a4bd dcc6 443c 3f6b ddbd
000000c0: 6000 d6bd 6ad4 2fbd 9deb 10bd d314 62bd
000000d0: 9a6d 99bd 1a28 58bd 6648 5d3d c499 a5bd
000000e0: 88e2 6ebd 979e 703d 8dc5 013c 5352 37bd
000000f0: e6cb 46bd 6387 1f3d ccf1 4e3d cfa8 89bc
00000100: 8944 6d3c cfd7 4b3d a3c5 3e3c c252 a7bd
00000110: 4eac ddbd 3c63 8abd bc59 5c3d e381 dc3c
00000120: 32e9 21bd ca2c 85bc a82e 3ebd b50a 413d
00000130: 8e48 c1bc 24ca 25bd e57f 94bd e6d5 193d
00000140: faf7 353c 0f0d d23c 5386 e43b baac 93bd
00000150: 2ba2 47bd 58df bb3c 41b5 1dbc 89a0 7ebd
00000160: ace0 6bbd 8d15 613c c5e3 edbc f928 67bd
00000170: 621b 86bd 6460 803d 7fc5 83bd 905b 9d3b
00000180: fd0f 09bd 9755 3f3d ab02 93bd 9bd4 51bc
00000190: e044 fc3c 7dc8 d8bc 6912 53b9 f235 bcbd
000001a0: 0f74 763b 75e9 b4bd eadc f7bc 43ad 9dbd
000001b0: c3b9 b4bd 8020 14bd 307a afbc 4b0e 3d3d
000001c0: c17d 983b 947e 363d 63f9 e3bd ab96 a2bc
000001d0: 99c4 efbc 1711 46bc 6ccb 75bd 997a 443d
000001e0: f807 25bd 59f6 dcbb 0c19 babd a402 f1bb
000001f0: b635 b0bd e4b3 3c3d db06 483d f38b 413d
00000200: fac3 5d3d f50e 2c3d 7d41 693d 410d 31bd
00000210: c4be dfbc 3e57 843c 4bed c9bc 9c3c 23bd
00000220: 61d5 a33d c443 84bc 3627 553d c888 9fbc
00000230: a9fd 68bd 1bd9 603d bcdc e0bc 1e8b 83bd
00000240: e5d8 ff3c 14b2 05bd 2d7a 28bd 5bda 78bd
00000250: ece8 963d a734 383c d2c2 85bd 1dc9 a13d
00000260: 618f 773d fc4a 5ebc 9fef 11bd d43e 61bd
00000270: dd2a a7bc e24e 673d 6b2a e43c a499 5dbd
00000280: f41c 15bd 45b8 913d 8d58 58bc 58b9 eabb
00000290: 9b2f 67bd d543 78bd 1e73 73bd 5cfb 4dbd
000002a0: ad4c 5bbc 4a90 c13c ad53 903d 2365 13bd
000002b0: 3d0e c23c 2428 5abd a75e 953d 0b8c 69bd
000002c0: f333 1fbd e792 3a3d 3c16 573d fb58 723b
000002d0: 383c 07bd 2909 9f3d 4c7a 18bd 18c3 dfbc
000002e0: f7f0 663d c465 aa3d 014e 43bd 74fe 95bd
000002f0: 9edf 50bd 2ee3 533d 0e98 ad3b 570f fbbc
00000300: 4489 3c3d c1db 06bd 4169 d4bc 9757 243d
00000310: 3c8a 9e3c 9bb2 8a3d 7c0d 423d 32ef 9abd
00000320: b111 f0bc f835 08bd 1d27 01bd 6f4f 5dbc
00000330: 4ebe 093d c13b 40bc 4ee4 833c 8fb2 a1bd
00000340: 7e39 f33b d3b3 75bd 8f50 dcbb ec24 803c
00000350: 12a2 8a3d 927f 723d 04fe 98bd 7c20 abbd
00000360: ef5f a6bd 778a 9a3c 647d 643d e857 1b3c
00000370: 1119 043d fd15 6cbd ddb5 533d b976 183d
00000380: 9521 123d 3321 9abd 47a3 04bd c509 cebc
00000390: baf3 0a3d 7e71 5bbc 9928 413a f512 15bd
000003a0: 98b5 74bd e0c7 193c d762 a0bd acb0 91bd
000003b0: 4b42 1dbd 025d 94bd 21b8 56bd 25e4 a5bd
000003c0: a811 2c3d 3af5 933c c09d cebc 40b2 4dbd
000003d0: d7d4 0fbd 564e d13c 9ca3 633b c9e4 6ebd
000003e0: 3c13 77bd 17a3 223d 7a64 bbbc e390 87bd
000003f0: a386 a03d 03a2 d0bc dcaf 87ba 7f77 5bbd

bias f4 [128]
0.003954997 -0.022784488 -0.020897916 0.018963885 0.14581373 -0.043981772 0.15840511 -0.020219028
-0.023302848 0.15922318 0.15375772 -0.0092422925 0.113116965 -0.055740766 -0.05361148 0.110410295
0.13566941 -0.058323607 -0.06074078 0.059113167 -0.08527564 0.118360974 0.06724048 -0.05144889
0.059309915 0.15891165 -0.092245676 0.051293653 0.0044908803 0.13542704 -0.08349759 -0.08750352
-0.019776318 0.10599463 -0.087383054 0.052344725 0.057854883 0.05328934 0.07971575 0.09632266
0.120492615 -0.098422825 0.13010162 -0.02283225 0.043007057 -0.119714715 -0.016215542 -0.012649761
-0.00031582557 -0.0076691993 -0.06938131 0.14290851 -0.05679681 0.048918538 0.09082611 0.051533535
0.05734166 -0.037089884 0.030394426 -0.06441665 -0.069721185 0.0023830936 0.02995807 -0.004741213
-0.06821451 -0.025546134 0.007619112 0.046573937 -0.078580886 0.016100641 0.065547116 -0.0005305133
0.07273493 -0.083994724 0.022441808 0.15017453 -0.0703698 0.14589004 0.023865858 -0.031898953
0.06588418 -0.011948655 0.05241373 0.10679082 0.066808484 0.01348809 -0.045857295 0.017290287
0.092341915 -0.06413232 0.032056388 -0.08905999 0.12880495 0.048459195 -0.04601449 0.08172933
0.0014943468 0.028238868 -0.09965001 0.13734421 0.025349816 -0.0061400146 -0.07097195 -0.054692447
0.10905154 -0.115686685 0.037756804 -0.08151844 0.15894105 0.051283512 0.08401483 -0.026011866
0.026806233 -0.022674967 0.043470725 -0.059706073 0.11692805 -0.08685662 0.009447263 -0.0830877
0.13960817 0.13783507 0.020473506 0.11485069 0.12337443 -0.084869236 0.04916114 0.028544055
00000000: eb98 813b 89a6 babc 1b32 abbc 265a 9b3c
00000010: 3250 153e 3b26 34bd f334 223e 60a2 a5bc
00000020: 9de5 bebc 670b 233e aa72 1d3e fc6c 17bc
00000030: dea9 e73d 6e50 64bd b697 5bbd cb1e e23d
00000040: ecec 0a3e bce4 6ebd 53cb 78bd a620 723d
00000050: ffa4 aebd 3d67 f23d 60b5 893d 12bc 52bd
00000060: f4ee 723d bcb9 223e 4deb bcbd 4b19 523d
00000070: 3c28 933b 63ad 0a3e c900 abbd 0c35 b3bd
00000080: f201 a2bc b613 d93d e3f5 b2bd 6c67 563d
00000090: 3ef9 6c3d ec45 5a3d 0342 a33d d144 c53d
000000a0: d5c4 f63d e891 c9bd 5c39 053e b30a bbbc
000000b0: 2b28 303d fd2c f5bd 75d6 84bc f140 4fbc
000000c0: 6495 a5b9 e84d fbbb ca17 8ebd 9c56 123e
000000d0: c6a3 68bd ce5e 483d 0a03 ba3d d414 533d
000000e0: 17df 6a3d 90eb 17bd bbfd f83c e0ec 83bd
000000f0: fbc9 8ebd ad2d 1c3b a06a f53c 2d5c 9bbb
00000100: 0db4 8bbd 2046 d1bc bea9 f93b 50c4 3e3d
00000110: 04ef a0bd 7ee5 833c 913d 863d 2512 0bba
00000120: 0df6 943d 6d05 acbd e2d7 b73c 5ac7 193e
00000130: 0b1e 90bd 3364 153e 5582 c33c 7aa8 02bd
00000140: 49ee 863d 4bc4 43bc c8af 563d 25b5 da3d
00000150: e3d2 883d 26fd 5c3c dcd4 3bbd 5ca4 8d3c
00000160: c21d bd3d ce57 83bd 8f4d 033d 1665 b6bd
00000170: 72e5 033e 267d 463d b179 3cbd b561 a73d
00000180: f5dd c33a 3355 e73c 4e15 ccbd f6a3 0c3e
00000190: 6baa cf3c 2d32 c9bb be59 91bd 3005 60bd
000001a0: 6a56 df3d 24ed ecbd e1a6 1a3d 24f3 a6bd
000001b0: 71c1 223e a90e 523d f80f ac3d d616 d5bc
000001c0: bf98 db3c dac0 b9bc 5c0e 323d 5b8e 74bd
000001d0: f977 ef3d e2e1 b1bd b1c8 1a3c e229 aabd
000001e0: 72f5 0e3e a324 0d3e 0eb8 a73c d736 eb3d
000001f0: bcab fc3d eccf adbd 315d 493d 39d5 e93c

weight f4 [2, 128]
-0.026805144 -0.010761066 0.037635233 0.18597516 0.19800563 0.0043009454 0.184537 0.02740419
-0.040942233 0.06819222 0.15275376 -0.013066349 0.13592698 0.054185454 0.10373316 0.15318626
0.18477564 -0.0515809 0.09514543 -0.25836012 -0.033942148 0.10842702 0.036453173 0.0015637376
0.1439183 0.18685761 -0.066185124 0.17904048 -0.049190205 0.14735335 -0.05522631 -0.049376145
-0.027872413 0.11555283 0.061857175 0.024146993 0.1858777 0.10601149 0.1538266 0.10587941
0.11301168 -0.06593897 0.200754 0.066448525 0.16675155 -0.03597641 0.00028266088 -0.035260912
-0.042927723 0.16234332 0.015319953 0.12720469 0.04293052 -0.090545036 0.21019205 0.033226904
0.072854035 0.022783006 0.20303747 0.0012935855 -0.03201307 0.0217451 -0.05515756 -0.014298945
-0.01400814 0.046535317 -0.022203399 0.0019487733 -0.05156094 -0.14147392 0.15100136 0.039045025
0.09841491 -0.0433004 0.1339978 0.08089042 0.026250383 0.10076626 -0.018914903 -0.059753407
0.06161945 0.019977473 0.029495815 0.1435724 0.077518374 0.11451111 -0.04789534 -0.045110986
0.15002684 0.08449088 -0.07519007 0.034391057 0.17161003 0.016384725 -0.044242147 0.16519512
0.16406865 0.11198998 -0.026731826 0.19140153 -0.081782565 0.012627224 -0.081923306 0.040593598
0.13068138 -0.32572728 -0.09966959 -0.013918766 0.1845098 0.054278146 0.11784998 -0.035142764
-0.055599876 -0.058582667 0.029976517 0.065059885 0.16900682 -0.028310645 0.11400983 -0.04292862
0.19327076 0.13377629 -0.0068418276 0.13314165 0.052948754 0.03439422 0.08360538 0.17667195
-0.022503756 -0.07182768 -0.07080204 0.1352981 0.045371566 0.08295771 0.08588633 0.017119005
-0.020179974 0.16439441 0.108252734 -0.032039084 0.14440218 0.07514706 -0.034098264 0.16024297
0.02649179 0.029221034 -0.027492022 -0.031933624 -0.07372914 0.15785418 -0.018398896 0.0059915516
0.17441118 0.03646713 -0.0350267 -0.0530831 0.026736014 0.15696116 -0.011407675 0.025734568
-0.03427543 0.16544576 -0.054757774 0.19534244 0.15166031 0.13064533 0.09911049 0.1725644
0.16237135 -0.011930636 0.12285253 -0.08425007 0.18256314 0.061808944 -0.00078345416 -0.03200821
0.016575286 0.09296613 -0.015551668 0.12620367 -0.04836933 -0.08010183 0.15326248 0.22330987
0.1914638 -0.04084203 0.15888362 0.0047822637 -0.08408409 -0.026301937 0.037174482 0.018720876
0.09323471 -0.006883726 -0.0309312 -0.010807827 0.026934296 0.004021923 0.1293598 -0.016953789
0.16273825 0.024708519 0.13877752 0.20600435 -0.05273498 0.153998 0.04962268 -0.056396842
-0.059659217 -0.010953117 0.07379706 0.12246319 0.18957049 0.20462875 -0.009283908 0.036799785
0.15142062 -0.08492542 0.0025706224 -0.06655811 0.118012175 0.007028202 0.00990236 0.08147572
0.15366718 0.15246826 0.028737094 0.17492819 -0.03186416 -0.051076498 -0.026366955 -0.02090175
0.1440169 -0.25621164 0.048073146 0.027233858 0.07501068 -0.05829384 0.17238492 -0.04390735
-0.014051639 -0.061641496 0.048859943 -0.0106299445 0.074955 -0.04602076 -0.3235409 -0.006397282
0.061424207 0.10240596 0.031565666 0.07417779 0.20178324 -0.043750226 0.15017635 0.19039407
00000000: 7696 dbbc 2f4f 30bc 6727 1a3d 4670 3e3e
00000010: fdc1 4a3e f2ee 8c3b 44f7 3c3e c07e e03c
00000020: 0bb3 27bd 5da8 8b3d 7b6b 1c3e 3d14 56bc
00000030: 7130 0b3e 91f1 5d3d 0d72 d43d dcdc 1c3e
00000040: d335 3d3e 7e46 53bd 9bdb c23d c747 84be
00000050: ec06 0bbd fc0e de3d ec4f 153d 54f6 cc3a
00000060: 525f 133e 9a57 3f3e 118c 87bd 6356 373e
00000070: ab7b 49bd cce3 163e fc34 62bd a43e 4abd
00000080: b054 e4bc f6a6 ec3d f35d 7d3d eacf c53c
00000090: b956 3e3e 8d1c d93d b884 1d3e 4ed7 d83d
000000a0: ab72 e73d 030b 87bd 7592 4d3e 2a16 883d
000000b0: ebc0 2a3e 005c 13bd 1a32 9439 bf6d 10bd
000000c0: fbd4 2fbd 543d 263e 8a00 7b3c f241 023e
000000d0: ead7 2f3d ad6f b9bd 963c 573e ef18 083d
000000e0: 7f34 953d 6da3 ba3c 0ee9 4f3e 878d a93a
000000f0: 2320 03bd c822 b23c e5ec 61bd 1f46 6abc
00000100: 6682 65bc d19b 3e3d e7e3 b5bc fb6d ff3a
00000110: 9031 53bd 8ade 10be 1aa0 1a3e aded 1f3d
00000120: c28d c93d c35b 31bd b836 093e e0a9 a53d
00000130: 0b0b d73c 8a5e ce3d 6df3 9abc fdbf 74bd
00000140: ad64 7c3d cca7 a33c 35a1 f13c a504 133e
00000150: f4c1 9e3d cd84 ea3d e72d 44bd 4cc6 38bd
00000160: a3a0 193e 8e09 ad3d 40fd 99bd a3dd 0c3d
00000170: 8aba 2f3e 4239 863c 4137 35bd e928 293e
00000180: 9d01 283e 015b e53d b4fc dabc c3fe 433e
00000190: 9e7d a7bd 6be2 4e3c 68c7 a7bd 7945 263d
000001a0: 57d1 053e bac5 a6be 921f ccbd 890b 64bc
000001b0: 23f0 3c3e c352 5e3d 555b f13d dcf1 0fbd
000001c0: b2bc 63bd 61f4 6fbd 5091 f53c 1e3e 853d
000001d0: 2010 2d3e baeb e7bc fc7d e93d ecd5 2fbd
000001e0: c5e8 453e a7fc 083e 6931 e0bb 4956 083e
000001f0: cbe0 583d f4e0 0c3d 4c39 ab3d 7ee9 343e
00000200: cc59 b8bc 641a 93bd a900 91bd 968b 0a3e
00000210: 89d7 393d bbe5 a93d 2ce5 af3d 283d 8c3c
00000220: 7950 a5bc 0257 283e 9cb3 dd3d 6a3b 03bd
00000230: 2ade 133e b4e6 993d 9faa 0bbd bc16 243e
00000240: 4f05 d93c f360 ef3c f336 e1bc d5cc 02bd
00000250: 4eff 96bd 87a4 213e 48b9 96bc c754 c43b
00000260: d898 323e 8f5e 153d 2878 0fbd aa6d 59bd
00000270: 7c05 db3c 6dba 203e 42e7 3abc 4dd1 d23c
00000280: 6564 0cbd 9d6a 293e b049 60bd d907 483e
00000290: d74c 1b3e e4c7 053e 71fa ca3d b9b4 303e
000002a0: ad44 263e b778 43bc 1b9a fb3d 4d8b acbd
000002b0: d5f1 3a3e 602b 7d3d b860 4dba 0a1b 03bd
000002c0: e5c8 873c 0765 be3d 6ccc 7ebc 893b 013e
000002d0: eb1e 46bd 6e0c a4bd d7f0 1c3e 58ab 643e
000002e0: 160f 443e f949 27bd 63b2 223e 89b4 9c3b
000002f0: 4834 acbd 2977 d7bc 4544 183d 865c 993c
00000300: d7f1 be3d e190 e1bb 6e63 fdbc 5013 31bc
00000310: 50a5 dc3c 56ca 833b e576 043e ace2 8abc
00000320: dba4 263e 8569 ca3c b21b 0e3e cef2 523e
00000330: a200 58bd a7b1 1d3e 2741 4b3d 6000 67bd
00000340: 395d 74bd b474 33bc ea22 973d fbcd fa3d
00000350: c41e 423e 338a 513e 881b 18bc 5fbb 163d
00000360: 020e 1b3e 61ed adbd e377 283b 9e4f 88bd
00000370: 5eb0 f13d d54c e63b 823d 223c bedc a63d
00000380: ee5a 1d3e a420 1c3e 0e6a eb3c 6020 333e
00000390: fe83 02bd 9735 51bd 83ff d7bc 263a abbc
000003a0: 2b79 133e 2c2e 83be 59e8 443d 8a19 df3c
000003b0: 339f 993d 86c5 6ebd ac85 303e 32d8 33bd
000003c0: d838 66bc cb7b 7cbd 5d21 483d 3829 2ebc
000003d0: 0282 993d 4480 3cbd 27a7 a5be 4aa0 d1bb
000003e0: f397 7b3d 37ba d13d 004b 013d 86ea 973d
000003f0: 44a0 4e3e 7033 33bd d4c7 193e aaf6 423e

bias f4 [2]
0.005240598 0.0537998
00000000: 53b9 ab3b 2e5d 5c3d
