TP6/models/lab6/lab6_naive_q_network.pth (torch, 73482 bytes, 6 tensors)

weight f4 [128, 4]
0.28707674 0.31524324 -0.44405985 -0.5179313 0.18036348 0.13569303 -0.35455546 -0.22655472
0.009102944 -0.0036417781 0.17457381 -0.26396927 0.38153934 0.30795944 -0.0997553 0.35360375
-0.33580467 -0.2380522 -0.34303355 0.11580809 -0.2821339 0.007887226 -0.17358398 -0.43076968
-0.07308328 0.27320212 0.006672791 -0.14176136 0.29457626 0.10001647 -0.29038253 0.24218042
0.39735505 -0.029497111 0.41550606 0.24036488 -0.52612936 -0.39014068 0.18123452 -0.0827146
-0.31551617 -0.2460479 0.19891113 0.39304394 0.25217348 -0.3284049 -0.26522627 -0.14887232
-0.06150749 -0.3943603 0.38914683 0.13764407 0.1500542 -0.23796232 0.27995563 -0.22799858
0.45511064 0.43186796 0.14559217 0.18438624 0.008430569 -0.27994853 0.51033235 -0.117419906
-0.260733 -0.015068489 -0.38605985 0.06525067 0.45056045 0.2083893 -0.22033593 -0.5062469
-0.43584853 0.17362182 0.22656609 -0.3253856 -0.31527176 0.37592408 0.44048622 0.3108086
0.3583946 0.045566857 -0.41339692 0.32510132 -0.3732673 -0.2682364 0.18442342 0.15468445
0.02804228 0.23262243 -0.48871663 0.36872762 0.15710826 -0.4617853 0.15758757 -0.082204565
0.04969513 0.30640426 -0.49500284 0.28091326 0.16559415 -0.28573167 0.25512502 0.25418118
-0.20773585 0.16901934 0.458678 -0.4840396 0.29889306 -0.08255767 -0.41447905 -0.05369142
-0.20244561 -0.19647436 0.17508689 0.30646843 0.35401446 0.13360755 0.100848325 0.107625596
-0.07503187 0.21294083 -0.48459792 0.3211503 0.07118367 -0.33950114 -0.1855519 0.12717739
0.37273523 0.165528 -0.28115782 0.0012942782 -0.1338138 -0.26242942 0.12450711 -0.031327628
0.24310933 0.14490558 -0.10208519 -0.20025383 0.39545295 -0.38853627 -0.24810341 0.42302844
-0.29004824 0.37926364 -0.068425916 0.23432375 0.11853973 -0.33468917 0.06609929 -0.44439277
0.23249014 0.0349287 0.40801236 -0.2168351 0.30070633 -0.31352597 0.39057687 -0.045753893
-0.4342435 -0.45347747 0.42010868 -0.30873257 0.41327882 0.1102795 -0.2508815 0.16223867
0.16706334 0.16967341 0.11397666 0.271149 0.04517741 -0.1870374 0.17579097 0.0010057457
-0.28057596 0.055812236 0.36776388 0.20366435 0.21267389 -0.017592778 0.41524747 0.09919426
0.45111027 0.031546287 -0.20876542 0.36131054 0.19416413 0.18358608 -0.123637415 -0.32696038
-0.14052944 0.1493598 0.20191307 -0.44559377 -0.016765013 0.23872378 0.31139416 -0.39743745
-0.21177766 -0.2909693 0.17239043 0.39123866 -0.23241824 -0.2765415 -0.029099762 -0.47393218
-0.06723959 -0.07163478 -0.35616374 -0.40743166 -0.32814175 -0.3664821 -0.12952523 -0.17675632
-0.5496429 0.20171767 -0.31579566 -0.22549354 0.18110211 0.120510645 -0.37154213 0.17432939
0.42272976 -0.13512105 0.44223636 -0.23156674 -0.26104355 0.06948326 -0.44289523 -0.046499297
0.024413949 0.5129243 0.026251527 -0.20540734 -0.30366644 0.47588634 0.011108717 -0.43070582
-0.31077594 -0.075347036 0.25680012 0.35033917 0.35212666 -0.36685526 0.10019793 -0.43467152
-0.032783937 -0.3449367 0.402721 -0.22554222 0.21074101 0.07185518 -0.33407235 -0.33096924
00000000: b9fb 923e 9067 a13e d05b e3be 2597 04bf
00000010: 34b1 383e 1df3 0a3e 4b88 b5be f6fd 67be
00000020: 8424 153c e6aa 6ebb 7ac3 323e fb26 87be
00000030: 2059 c33e dcac 9d3e 824c ccbd 8d0b b53e
00000040: 97ee abbe f5c3 73be 18a2 afbe cb2c ed3d
00000050: db73 90be 6c39 013c 00c0 31be d88d dcbe
00000060: b0ac 95bd 26e1 8b3e 6ea7 da3b e429 11be
00000070: b3d2 963e 6fd5 cc3d 05ad 94be 25fe 773e
00000080: 1f72 cb3e eda3 f1bc 36bd d43e 3622 763e
00000090: 6ab0 06bf 85c0 c7be 8b95 393e 4666 a9bd
000000a0: 568b a1be fbf3 7bbe 5caf 4b3e 0e3d c93e
000000b0: e21c 813e b024 a8be bdcb 87be fc71 18be
000000c0: 47ef 7bbd 98e9 c9be 413e c73e 91f2 0c3e
000000d0: cfa7 193e 65ac 73be 5856 8f3e 7678 69be
000000e0: 4304 e93e cc1d dd3e 1d16 153e bfcf 3c3e
000000f0: 5f20 0a3c 6a55 8fbe 24a5 023f d979 f0bd
00000100: cc7e 85be d3e1 76bc a3a9 c5be 25a2 853d
00000110: dcaf e63e 0164 553e be9f 61be 6699 01bf
00000120: 8a27 dfbe ebc9 313e f100 683e f198 a6be
00000130: 4d6b a1be 1f79 c03e 6987 e13e 4e22 9f3e
00000140: 7f7f b73e 50a4 3a3d c3a8 d3be ae73 a63e
00000150: e41c bfbe 4856 89be 7ed9 3c3e 9a65 1e3e
00000160: ecb8 e53c 9334 6e3e 1139 fabe dec9 bc3e
00000170: fde0 203e 1f6f ecbe a35e 213e de5a a8bd
00000180: 1f8d 4b3d 05e1 9c3e 0371 fdbe ddd3 8f3e
00000190: 8391 293e 6c4b 92be bf9f 823e 0924 823e
000001a0: b5b8 54be 6813 2d3e d8d7 ea3e 0ad4 f7be
000001b0: 8308 993e ff13 a9bd 9936 d4be 89eb 5bbd
000001c0: e74d 4fbe 9330 49be fa49 333e 6ee9 9c3e
000001d0: 6241 b53e 6bd0 083e 9189 ce3d cf6a dc3d
000001e0: 4faa 99bd 290d 5a3e 381d f8be d06d a43e
000001f0: bec8 913d 18d3 adbe 5101 3ebe ca3a 023e
00000200: 27d7 be3e 2c80 293e ebf3 8fbe c5a4 a93a
00000210: 7c06 09be 265d 86be 95fd fe3d 6651 00bd
00000220: a7f1 783e 2162 143e 0a12 d1bd 570f 4dbe
00000230: cf78 ca3e 3aee c6be d20e 7ebe 2f97 d83e
00000240: 3481 94be d82e c23e e322 8cbd 91f2 6f3e
00000250: f5c4 f23d 615c abbe 115f 873d 7387 e3be
00000260: e511 6e3e 6611 0f3d ffe6 d03e 050a 5ebe
00000270: 2ef6 993e 7a86 a0be b1f9 c73e 6f68 3bbd
00000280: 2a55 debe 332e e8be 7c18 d73e 3212 9ebe
00000290: 4899 d33e 38da e13d 8a73 80be e521 263e
000002a0: a712 2b3e debe 2d3e 986c e93d 0bd4 8a3e
000002b0: f30b 393d bb86 3fbe 8c02 343e 3ad3 833a
000002c0: a7a7 8fbe 5f9b 643d 8c4b bc3e 638d 503e
000002d0: 2fc7 593e bb1e 90bc 519b d43e 5c26 cb3d
000002e0: edf7 e63e ae36 013d 9ac6 55be b2fd b83e
000002f0: f6d2 463e fdfd 3b3e 9d35 fdbd 5a67 a7be
00000300: f3e6 0fbe c7f1 183e 4dc2 4e3e de24 e4be
00000310: c856 89bc 0274 743e 0e6f 9f3e ec7c cbbe
00000320: 3edc 58be eef9 94be 1e87 303e 6f50 c83e
00000330: 0cff 6dbe d996 8dbe a062 eebc 3da7 f2be
00000340: e9b4 89bd 41b5 92bd 185b b6be e29a d0be
00000350: 3202 a8be 8ba3 bbbe 43a2 04be 9cff 34be
00000360: 66b5 0cbf 148f 4e3e f8af a1be c7e7 66be
00000370: d572 393e 49ce f63d c53a bebe 6783 323e
00000380: 0970 d83e 2c5d 0abe ce6c e23e d51f 6dbe
00000390: 80a7 85be 3d4d 8e3d 2ac3 e2be 0c76 3ebd
000003a0: c3ff c73c 024f 033f 710d d73c 4d56 52be
000003b0: 2b7a 9bbe 60a7 f33e 5601 363c 7985 dcbe
000003c0: 061e 9fbe 8c4f 9abd 4e7b 833e a85f b33e
000003d0: f249 b43e 74d4 bbbe 9334 cd3d 448d debe
000003e0: 7348 06bd 8b9b b0be 7231 ce3e 8af4 66be
000003f0: 7ecc 573e cf28 933d 880b abbe cd74 a9be

bias f4 [128]
-0.0032022153 0.5332702 0.5316703 0.33471063 -0.4087693 0.09840785 -0.2694962 0.37099907
0.4902369 0.5621504 0.5417129 -0.14710583 0.083166204 0.33441475 -0.21961513 0.258779
-0.20927766 0.14678285 0.22375764 0.30440503 -0.15028161 -0.2021154 -0.1760833 -0.3210058
-0.21816477 -0.09941186 -0.43915218 -0.41753462 0.45833844 -0.14742371 -0.30224988 -0.27153027
-0.074825145 0.3854352 0.21094018 -0.3907777 0.32021564 -0.15975903 0.4462723 0.4138756
0.53660655 0.24515136 0.41661963 -0.25510204 -0.33558607 -0.21236916 0.48310924 0.28683606
0.26015773 -0.13128029 -0.19822063 -0.17894982 0.20338431 0.33575904 0.07045171 -0.3831978
0.28873232 0.368746 -0.14650244 -0.09777046 0.40667716 0.10328227 0.4753243 -0.018955648
0.5495933 -0.31193143 0.52904606 -0.2570054 0.2337435 -0.06414213 0.12003325 0.20510024
-0.44923216 -0.17519444 0.627586 0.37444812 -0.38213468 -0.35114217 -0.48571068 0.4411848
-0.43132406 -0.4771209 -0.0881501 0.29446232 0.4641936 -0.27645373 0.19990137 -0.20803687
-0.42611963 0.07491698 -0.3575572 -0.27579206 -0.13127276 -0.289844 0.21159455 0.45897374
-0.24661793 0.27139097 0.43020612 0.14411394 0.3338164 -0.1711676 -0.37356222 -0.2629081
0.08023821 0.24029417 0.051690537 -0.18759069 -0.36919022 0.1667683 -0.3280561 0.371879
-0.40195882 0.13017337 -0.27688143 0.50731087 -0.22091715 -0.4632993 0.041274086 0.18382147
0.5754976 -0.45273286 0.052870013 0.50382215 0.20170365 -0.37534112 -0.35979322 0.0357535
00000000: 42dc 51bb 6584 083f 8b1b 083f 315f ab3e
00000010: 364a d1be 0e8a c93d 68fb 89be 97f3 bd3e
00000020: 5500 fb3e 17e9 0f3f b2ad 0a3f e9a2 16be
00000030: 0b53 aa3d 6938 ab3e cae2 60be ae7e 843e
00000040: e24c 56be 3e4e 163e b920 653e fada 9b3e
00000050: 6ce3 19be 57f7 4ebe 2e4f 34be df5a a4be
00000060: 9666 5fbe 7298 cbbd 8ed8 e0be 19c7 d5be
00000070: 56ab ea3e 3ef6 16be 7fc0 9abe 0406 8bbe
00000080: ed3d 99bd c357 c53e b400 583e 0414 c8be
00000090: 4ef3 a33e df97 23be ce7d e43e 81e7 d33e
000000a0: 0c5f 093f f508 7b3e 2b4f d53e bc9c 82be
000000b0: f0d1 abbe 4d77 59be 185a f73e 2ddc 923e
000000c0: 6533 853e 576e 06be 59fa 4abe 9f3e 37be
000000d0: fa43 503e 9ce8 ab3e fc48 903d 8132 c4be
000000e0: b9d4 933e 47cc bc3e bc04 16be e13b c8bd
000000f0: fd37 d03e a885 d33d b55d f33e e048 9bbc
00000100: 26b2 0c3f 7ab5 9fbe 906f 073f 3696 83be
00000110: 755a 6f3e f35c 83bd fed3 f53d cc05 523e
00000120: c201 e6be 2c66 33be 7aa9 203f aab7 bf3e
00000130: 28a7 c3be e8c8 b3be 12af f8be f9e2 e13e
00000140: 82d6 dcbe 3149 f4be 0a88 b4bd c4c3 963e
00000150: c9aa ed3e 588b 8dbe f2b2 4c3e 9e07 55be
00000160: 5a2c dabe 136e 993d bd11 b7be 9e34 8dbe
00000170: 5e6c 06be 6f66 94be 3eac 583e 9bfe ea3e
00000180: 6989 7cbe c2f3 8a3e fa43 dc3e 9b92 133e
00000190: fce9 aa3e 8f46 2fbe 8c43 bfbe e49b 86be
000001a0: ee53 a43d ad0f 763e 75b9 533d c617 40be
000001b0: 8006 bdbe 4fc5 2a3e f8f6 a7be ed66 be3e
000001c0: 8ccd cdbe 2b4c 053e 67c3 8dbe 20df 013f
000001d0: 1b38 62be 9135 edbe 040f 293d b23b 3c3e
000001e0: d053 133f 9acc e7be 3a8e 583d 7dfa 003f
000001f0: 678b 4e3e b62c c0be d136 b8be 4372 123d

weight f4 [128, 128]
0.012458177 0.082091756 0.018691491 -0.023567194 -0.06946058 0.051443495 0.047378298 0.058219
0.11762213 -0.04474062 0.10457406 -0.00524118 0.08717413 -0.00810429 -0.06304423 0.022822507
-0.0064072507 -0.049372073 -0.06608573 -0.0014435174 -0.005850245 0.04267177 0.06856616 0.035855863
-0.052511476 0.067318514 -0.045176417 0.08279879 0.092257485 0.06237344 -0.08812338 0.011925881
0.07030935 -0.008599555 0.06362249 0.0056622233 0.070190914 -0.04313742 -0.032590598 0.121151425
0.08738728 0.032037564 -0.0016671027 -0.09163035 0.042016983 -0.06277404 -0.006217001 -0.0415891
0.012613892 -0.020025 -0.05084673 -0.04107154 0.08957538 -0.045991458 0.04393476 0.0077402336
0.009730941 0.05797949 0.039331026 -0.08886271 0.09884198 -0.017708786 0.10546765 -0.057582907
0.07369309 0.019056369 -0.017901115 -0.08753853 -0.03618256 0.025781991 -0.049732916 0.017885715
-0.067579 0.07074332 0.12115181 0.075150594 -0.050278515 0.042846635 0.04218852 0.0834019
-0.028923856 0.075240105 -0.017837275 0.044041045 0.106058836 0.042191308 0.038709324 -0.05365381
-0.036252927 -0.03549036 0.03661102 -0.009431917 -0.018062081 0.01583684 0.0440077 0.012576515
-0.104066946 -0.068536274 -0.048515044 0.025555428 0.015167294 0.011079311 -0.1016426 -0.0045689056
-0.020445306 0.03885672 0.091455676 0.05595896 0.027051263 -0.03719927 -0.06921149 0.068468265
0.06425832 0.007373134 0.03799326 -0.002345079 -0.09716012 -0.020547098 -0.042352337 0.02071259
-0.012402172 0.059896506 -0.054101113 0.05123633 -0.04011994 0.06478463 -0.032981753 -0.03252358
0.07892407 0.036771175 0.013100492 -0.051175732 -0.03529806 -0.06341916 0.0086553125 0.053062063
-0.019226378 0.0036826832 -0.054921605 0.042185556 -0.0956012 -0.040891603 0.06259667 0.011126888
0.017520858 0.03992751 -0.10070404 -0.023904953 0.02745775 -0.021408752 0.07842512 0.015407593
0.07621049 -0.087752216 -0.033551913 -0.037201513 0.0065196087 0.049026754 0.034614597 -0.05982283
0.049249694 -0.047229934 -0.009026315 0.033286896 0.0340371 -0.03402391 -0.08776412 0.01061946
-0.057950273 -0.007122952 0.02857906 0.041724883 0.02181381 0.049287423 0.042934142 -0.10429473
0.0021142839 0.073753275 -0.0025538262 -0.061750103 -0.052464463 -0.054595955 -0.026724568 -0.07379824
0.015851932 -0.088177204 0.017602695 0.018916573 -0.08165653 -0.015186327 -0.101228066 -0.041741665
-0.044383135 0.021571731 -0.042915765 0.06146125 -0.10999215 0.009191237 -0.062966645 -0.07484441
0.066372484 -0.0673361 -0.09001847 0.058905013 0.06613799 -0.017549995 -0.028389145 -0.0147508085
-0.011635056 -0.07019648 -0.006110226 0.04499193 0.054560255 -0.029212998 -0.101981625 0.075961255
0.0046688616 0.030182635 0.03515831 -0.051428635 0.012292399 -0.039362714 0.058382966 0.017354676
0.04684187 0.048797466 0.008249204 -0.09310041 -0.013247259 0.023948895 -0.049224924 -0.048864316
-0.110766485 -0.00876885 -0.024452826 -0.087388255 -0.04267874 -0.062057342 -0.029390762 0.05232632
-0.029112646 0.033150673 0.005337428 -0.020252489 -0.05347912 0.03045095 -0.065455146 -0.113611884
0.049839493 0.04171173 0.07823226 -0.049045354 0.015836474 -0.024718951 0.07773598 -0.077468574
00000000: 621d 4c3c b91f a83d e61e 993c fd0f c1bc
00000010: 5941 8ebd 6ab6 523d bf0f 423d 0c77 6e3d
00000020: dfe3 f03d f141 37bd ed2a d63d 34be abbb
00000030: 5a88 b23d dbc7 04bc 551d 81bd 44f6 ba3c
00000040: eaf3 d1bb 5f3a 4abd f557 87bd 6834 bdba
00000050: 69b3 bfbb 98c8 2e3d 6a6c 8c3d 99dd 123d
00000060: 4616 57bd 4ade 893d e80a 39bd 6992 a93d
00000070: 7ef1 bc3d 4b7b 7f3d 087a b4bd c564 433c
00000080: 59fe 8f3d 26e5 0cbc 824c 823d 2c8a b93b
00000090: 41c0 8f3d ddb0 30bd b87d 05bd 3d1e f83d
000000a0: 1af8 b23d d239 033d af82 daba b1a8 bbbd
000000b0: 001a 2c3d ad8f 80bd fcb7 cbbb 5559 2abd
000000c0: 7faa 4e3c 780b a4bc a944 50bd a23a 28bd
000000d0: 4c73 b73d 8a61 3cbd eff4 333d c9a1 fd3b
000000e0: 866e 1f3c e77b 6d3d 9219 213d a7fd b5bd
000000f0: aa6d ca3d 0412 91bc 6cff d73d 0edc 6bbd
00000100: 67ec 963d 1a1c 9c3c 5ca5 92bc 6747 b3bd
00000110: 2a34 14bd c134 d33c beb4 4bbd 1085 923c
00000120: dc66 8abd e0e1 903d 711e f83d 8ee8 993d
00000130: d8f0 4dbd f47f 2f3d dfcd 2c3d 9ece aa3d
00000140: b9f1 ecbc 7c17 9a3d 7a1f 92bc 6264 343d
00000150: 6035 d93d cbd0 2c3d ab8d 1e3d 19c4 5bbd
00000160: f37d 14bd 575e 11bd 70f5 153d 5488 1abc
00000170: eef6 93bc 43bc 813c 6b41 343d ba0d 4e3c
00000180: 0d21 d5bd bf5c 8cbd b6b7 46bd 9e59 d13c
00000190: 3e80 783c 0086 353c ff29 d0bd c2b6 95bb
000001a0: ea7c a7bc 3928 1f3d 1d4d bb3d 3935 653d
000001b0: 9c9a dd3c 435e 18bd c1be 8dbd 1739 8c3d
000001c0: de99 833d 559a f13b d29e 1b3d e6af 19bb
000001d0: e3fb c6bd 6352 a8bc a579 2dbd 73ad a93c
000001e0: 7b32 4bbc 0a56 753d 2199 5dbd 30dd 513d
000001f0: ce54 24bd cead 843d e017 07bd 7237 05bd
00000200: f1a2 a13d 5f9d 163d 72a3 563c a59d 51bd
00000210: b394 10bd e8e1 81bd 03cf 0d3c 9b57 593d
00000220: a380 9dbc 2c59 713b 7af5 60bd c3ca 2c3d
00000230: 90ca c3bd f47d 27bd af32 803d 8d4d 363c
00000240: e787 8f3c 078b 233d eb3d cebd 52d4 c3bc
00000250: 13ef e03c 6861 afbc 599d a03d 2170 7c3c
00000260: 3f14 9c3d 6fb7 b3bd bb6d 09bd 9d60 18bd
00000270: 71a2 d53b 47d0 483d 09c8 0d3d c908 75bd
00000280: 0cba 493d 2d74 41bd 1ce3 13bc d757 083d
00000290: 7c6a 0b3d a85c 0bbd adbd b3bd 3efd 2d3c
000002a0: 445d 6dbd a767 e9bb a21e ea3c b6e7 2a3d
000002b0: e0b2 b23c 9ce1 493d b6db 2f3d 7a98 d5bd
000002c0: cc8f 0a3b f50b 973d 185e 27bb aded 7cbd
000002d0: fae4 56bd 02a0 5fbd 7bed dabc 8823 97bd
000002e0: e9db 813c 4096 b4bd 8733 903c eef6 9a3c
000002f0: 8a3b a7bd 12d0 78bc a950 cfbd 4ff9 2abd
00000300: 17cb 35bd 33b7 b03c 71c8 2fbd cbbe 7b3d
00000310: 9043 e1bd d896 163c a8f4 80bd 0748 99bd
00000320: 4cee 873d 82e7 89bd 9b5b b8bd 6246 713d
00000330: 5b73 873d 02c5 8fbc 5a90 e8bc 60ad 71bc
00000340: f6a0 3ebc 2cc3 8fbd 4a38 c8bb 7549 383d
00000350: 937a 5f3d 1950 efbc bedb d0bd 9391 9b3d
00000360: 40fd 983b 9341 f73c 2902 103d d5a6 52bd
00000370: 0f66 493c cc3a 21bd fa22 6f3d 652b 8e3c
00000380: 43dd 3f3d dadf 473d ab27 073c 6eab bebd
00000390: 080b 59bc 7930 c43c 13a0 49bd f325 48bd
000003a0: 8ad9 e2bd 39ab 0fbc 4b51 c8bc 9df8 b2bd
000003b0: e7cf 2ebd d72f 7ebd e5c4 f0bc 2054 563d
000003c0: a57d eebc 00c9 073d 97e5 ae3b 8ce8 a5bc
000003d0: ec0c 5bbd 4574 f93c 590d 86bd 59ad e8bd
000003e0: 7f24 4c3d ebd9 2a3d 3c38 a03d c8e3 48bd
000003f0: 7ebb 813c 667f cabc 0b34 9f3d d8a7 9ebd

bias f4 [128]
0.044265226 0.011673623 0.066066675 -0.06636832 0.14217672 -0.03116208 -0.02513255 -0.017602881
-0.051091153 0.09034344 -0.030076467 -0.009746631 -0.04542625 0.019388352 -0.09895415 -0.09760984
0.14078692 0.010109755 0.031311877 -0.050772514 0.17107028 -0.05295099 -0.0059776315 -0.0016823093
-0.057413083 0.031258184 0.0534691 -0.017863747 -0.008985537 0.11417973 -0.07735204 0.021563265
0.08161418 0.059175782 0.08688783 -0.028448144 0.042968914 0.017126674 0.013393896 -0.03443655
-0.067536525 0.14205973 0.06598367 -0.05612191 -0.011451143 -0.0076023387 -0.061051562 0.013201812
0.00178042 -0.005745043 -0.0038622743 0.07760719 -0.007524613 0.119879216 0.04835399 -0.043459203
-0.010233431 0.018439826 -0.008861264 0.16656771 0.0775216 0.05717642 -0.08202364 -0.035351537
0.16080907 -0.096872784 -0.023185454 0.08153678 -0.00073418644 -0.025832852 0.055253033 -0.01818429
-0.057771325 -0.062571205 0.0028699466 0.15584126 -0.023833819 -0.07271141 0.053705644 -0.042273324
0.006823435 0.043659177 -0.09323918 -0.08844404 0.029885666 -0.018069647 0.14012757 -0.059327435
0.009657737 -0.082317926 0.011866086 -0.06146908 0.0069694375 0.025504392 -0.006460781 0.06497544
0.010140152 0.04291885 -0.017450763 0.03463167 -0.10510767 -0.096186355 -0.07450708 0.11809929
0.052324258 0.10539897 -0.0015228413 0.051604737 -0.052333444 -0.09078578 0.037756477 -0.08626665
0.008555647 0.10540883 0.00046973466 0.021999536 -0.07009408 -0.02156085 0.018488387 0.015414661
-0.015870914 0.021636361 -0.11125679 0.14686437 -0.07368096 -0.00062367856 -0.036568075 -0.0065162354
00000000: 744f 353d b942 3f3c f74d 873d 1dec 87bd
00000010: c696 113e 9e47 ffbc c7e2 cdbc eb33 90bc
00000020: f544 51bd fb05 b93d ec62 f6bc 55b0 1fbc
00000030: e010 3abd 52d4 9e3c 79a8 cabd abe7 c7bd
00000040: 722a 103e 63a3 253c e240 003d d7f6 4fbd
00000050: 0c2d 2f3e 23e3 58bd 02e0 c3bb ef80 dcba
00000060: fb29 6bbd 9508 003d 6a02 5b3d fe56 92bc
00000070: 1338 13bc 10d7 e93d bf6a 9ebd 72a5 b03c
00000080: 5625 a73d 4e62 723d 3ff2 b13d 150c e9bc
00000090: 2c00 303d 3d4d 8c3c 1272 5b3c 570d 0dbd
000000a0: 9750 8abd 1b78 113e 7222 873d 17e0 65bd
000000b0: 939d 3bbc 0a1d f9bb 3411 7abd 6a4c 583c
000000c0: fb5c e93a ea40 bcbb 361e 7dbb 85f0 9e3d
000000d0: 0791 f6bb 3c83 f53d d50e 463d 4702 32bd
000000e0: 1faa 27bc 1e0f 973c d62e 11bc ba90 2a3e
000000f0: a5c3 9e3d d231 6a3d 03fc a7bd c6cc 10bd
00000100: 22ab 243e 3d65 c6bd 6cef bdbc c1fc a63d
00000110: 6b76 40ba 6b9f d3bc 0151 623d 38f7 94bc
00000120: a0a1 6cbd 5525 80bd b715 3c3b da94 1f3e
00000130: 243f c3bc b8e9 94bd 73fa 5b3d cb26 2dbd
00000140: 1f97 df3b f7d3 323d 2ff4 bebd 2622 b5bd
00000150: c9d2 f43c cc06 94bc 9a7d 0f3e 5301 73bd
00000160: 7c3b 1e3c 4d96 a8bd f969 423c 01c7 7bbd
00000170: e15f e43b 96ee d03c f6b4 d3bb d811 853d
00000180: e122 263c adcb 2f3d e7f4 8ebc f0d9 0d3d
00000190: b142 d7bd 5afd c4bd 2b97 98bd 0ade f13d
000001a0: f651 563d 6adb d73d 139a c7ba 7d5f 533d
000001b0: 985b 56bd e5ed b9bd 89a6 1a3d 92ac b0bd
000001c0: fc2c 0c3c 96e0 d73d b846 f639 5f38 b43c
000001d0: 7c8d 8fbd 61a0 b0bc f574 973c c68d 7c3c
000001e0: b803 82bc bd3e b13c 9ada e3bd 9d63 163e
000001f0: 0be6 96bd 5c7e 23ba 68c8 15bd 2586 d5bb

weight f4 [2, 128]
0.108773164 0.016577434 -0.022863433 0.0020621908 0.09955957 0.09822222 -0.03549656 -0.04433116
0.019144729 0.11976141 0.07830789 -0.039505716 -0.048061214 0.07906912 -0.053572994 0.016576102
0.1185818 0.046798866 0.11255409 0.033897165 0.116268784 -0.034560997 -0.05577889 0.09753574
0.037634403 0.14048335 0.056448072 -0.04656107 -0.02975688 0.07725312 -0.04663334 0.09457539
0.04042386 -0.053735632 -0.03288565 -0.007772922 -0.013440572 0.12646322 0.123518854 0.08748909
-0.01385292 0.06721876 0.1281677 0.07867425 0.041080505 0.012055867 0.020289743 0.07412775
0.0935609 -0.03077323 0.036945727 0.05561236 -0.04218678 0.055230264 0.027954604 0.039562497
-0.0046507358 0.11256419 0.018757677 0.076238364 0.029594433 -0.018228458 -0.031866763 -0.0060954127
0.0694795 -0.029155029 0.07901757 0.14070663 0.063195385 0.09272619 0.008912137 -0.029265352
-0.053697783 -0.052435353 0.14465894 0.113370664 0.0016639218 0.077449046 0.10763654 0.031115182
0.03439952 -0.0134670185 0.04767255 -0.023395121 -0.00250896 -0.045320105 0.105410226 -0.060800605
-0.06393852 -0.07288052 -0.024523754 0.028648252 -0.05292888 -0.012091954 0.038187742 0.07462372
0.010916868 -0.005657938 -0.06138114 0.024259645 -0.03994251 -0.04878329 0.05969455 0.08289828
0.063777596 0.058408145 -0.048264854 0.017532874 -0.045210645 0.004691487 0.08757518 0.070832185
0.08738277 0.040020473 -0.00750609 -0.04772439 -0.034748256 0.018319787 0.052118767 -0.042536967
-0.050310843 -0.009496559 -0.028649213 0.04211155 -0.042366106 -0.048491728 0.107192226 0.07528499
0.04479773 0.0858537 -0.017382037 0.0635061 0.092934184 0.027256655 0.08682414 -0.050920222
0.1974481 0.07291438 -0.03891175 -0.002780649 0.023273792 0.12222797 0.019951278 0.048158087
0.08789481 -0.06590868 0.00013649616 0.0054829055 0.120765634 -0.03293724 0.073334225 0.08006479
-0.020650249 0.047977045 0.061095268 0.061846353 -0.08109768 0.09126807 -0.036918186 0.08324669
-0.035553113 -0.021234835 0.11887358 -0.03529104 0.10415858 0.06906468 0.035641715 0.032880537
0.08451651 0.11259778 0.09383629 -0.03353295 -0.03482114 -0.011328837 -0.014099619 0.11306643
0.0048348773 -0.0046262913 0.11174454 -0.0829167 0.03519814 0.12940499 0.012276044 -0.05805165
-0.019411366 0.014968804 -0.020781325 0.09224701 0.0924255 0.027298668 0.05223696 0.044611976
0.11753634 -0.00039781755 -0.06520428 0.047280535 0.09387508 0.07902691 -0.0052966 -0.053616975
0.027756745 0.0134750055 0.10322619 0.11870174 0.032861795 -0.05498668 0.10735924 0.09331512
-0.018574877 -0.044848308 -0.008419515 0.0049026245 0.013624104 0.013972145 0.12652028 0.03151557
-0.027918879 -0.08163787 -0.0036736373 0.054980684 -0.044157997 0.11317803 -0.035692647 -0.04921836
0.045165427 -0.07210585 -0.016949004 -0.010473975 0.055827964 -0.070061855 -0.024003068 0.17365243
-0.007452305 0.029196473 -0.0459441 -0.07068294 0.04374979 -0.026460685 -0.054559145 -0.040104233
0.083410375 0.083811894 0.064646706 0.01944932 0.059261248 -0.038425818 0.033257544 0.05133415
-0.064745635 0.010415118 0.07311529 0.12633638 -0.04230996 0.0603337 -0.029655237 0.12947045
00000000: 77c4 de3d 66cd 873c 184c bbbc d225 073b
00000010: e3e5 cb3d bb28 c93d d764 11bd 9794 35bd
00000020: 68d5 9c3c 7845 f53d e35f a03d bfd0 21bd
00000030: d6db 44bd feee a13d 5b6f 5bbd 9bca 873c
00000040: 04db f23d 2bb0 3f3d c282 e63d c1d7 0a3d
00000050: 541e ee3d d58f 0dbd 6878 64bd d1c0 c73d
00000060: 8826 1a3d deda 0f3e 1836 673d d2b6 3ebd
00000070: b3c4 f3bc e236 9e3d 9a02 3fbd beb0 c13d
00000080: 7d93 253d e519 5cbd 1ab3 06bd ffb3 febb
00000090: d835 5cbc 937f 013e 74f7 fc3d 7b2d b33d
000000a0: 5cf7 62bc fda9 893d 653e 033e f71f a13d
000000b0: 0844 283d f985 453c ad36 a63c 4ad0 973d
000000c0: db9c bf3d 2418 fcbc 6754 173d c9c9 633d
000000d0: 0ccc 2cbd 2139 623d 0e01 e53c 490c 223d
000000e0: 3365 98bb 0e88 e63d b3a9 993c dc22 9c3d
000000f0: 0670 f23c d953 95bc b986 02bd 07bc c7bb
00000100: 454b 8e3d 87d6 eebc f7d3 a13d 6615 103e
00000110: 956c 813d 3be7 bd3d 3604 123c e4bd efbc
00000120: 35f2 5bbd 74c6 56bd 7921 143e e12e e83d
00000130: f317 da3a 9b9d 9e3d 8c70 dc3d 44e5 fe3c
00000140: 83e6 0c3d c5a4 5cbc 4b44 433d 20a7 bfbc
00000150: 5d6d 24bb 93a1 39bd 51e1 d73d 0e0a 79bd
00000160: 33f2 82bd 6242 95bd 0ae6 c8bc bdaf ea3c
00000170: f4cb 58bd 551d 46bc c06a 1c3d 52d4 983d
00000180: aadc 323c 3966 b9bb ca6a 7bbd 2abc c63c
00000190: c29a 23bd fdd0 47bd 4682 743d 93c6 a93d
000001a0: d49d 823d 613d 6f3d 5eb1 45bd 1aa1 8f3c
000001b0: cc2e 39bd 0cbb 993b 9e5a b33d 7710 913d
000001c0: bdf5 b23d 82ec 233d a6f5 f5bb a67a 43bd
000001d0: 3054 0ebd 6113 963c 7d7a 553d 3e3b 2ebd
000001e0: be12 4ebd 7597 1bbc c1b1 eabc 297d 2c3d
000001f0: 1588 2dbd 439f 46bd 9987 db3d 042f 9a3d
00000200: d37d 373d 11d4 af3d c664 8ebc 7c0f 823d
00000210: 4754 be3d 5949 df3c dbd0 b13d b991 50bd
00000220: d62f 4a3e 2254 953d ed61 1fbd 8d3b 36bb
00000230: aea8 be3c a852 fa3d dd70 a33c 6a41 453d
00000240: 3202 b43d 21fb 86bd 6920 0f39 f2a9 b33b
00000250: f953 f73d 33e9 06bd 4130 963d 02f9 a33d
00000260: b62a a9bc 9483 443d 083f 7a3d 9a52 7d3d
00000270: 8a16 a6bd c1ea ba3d 8637 17bd 3e7d aa3d
00000280: 24a0 11bd adf4 adbc fe73 f33d 568d 10bd
00000290: 1851 d53d c871 8d3d 0cfd 113d bead 063d
000002a0: fe16 ad3d aa99 e63d 3e2d c03d d959 09bd
000002b0: 9da0 0ebd 969c 39bc 1702 67bc 5f8f e73d
000002c0: e46d 9e3b 2598 97bb 52da e43d 3bd0 a9bd
000002d0: ed2b 103d be82 043e 7621 493c 91c7 6dbd
000002e0: 9604 9fbc b73f 753c 993d aabc 00ec bc3d
000002f0: 9549 bd3d 75a1 df3c 6cf6 553d 0cbb 363d
00000300: e5b6 f03d 2b92 d0b9 d289 85bd 3ca9 413d
00000310: 9441 c03d dcd8 a13d 1a8f adbb 799d 5bbd
00000320: 1d62 e33c 45c6 5c3c 4168 d33d e619 f33d
00000330: 179a 063d b739 61bd 29df db3d ff1b bf3d
00000340: 572a 98bc dcb2 37bd 01f2 09bc 32a6 a03b
00000350: a237 5f3c 6ceb 643c 888e 013e 7816 013d
00000360: 22b6 e4bc c131 a7bd 68c1 70bb 6d33 613d
00000370: 04df 34bd e2c9 e73d 7432 12bd 3199 49bd
00000380: 62ff 383d 3bac 93bd a3d8 8abc 099b 2bbc
00000390: ddab 643d 977c 8fbd 15a2 c4bc f1d1 313e
000003a0: 7732 f4bb 712d ef3c e12f 3cbd 38c2 90bd
000003b0: fb32 333d 14c4 d8bc 6979 5fbd 5644 24bd
000003c0: 0fd3 aa3d 92a5 ab3d 7e65 843d 2e54 9f3c
000003d0: ecbb 723d 6464 1dbd 1039 083d c243 523d
000003e0: 5c99 84bd 2ca4 2a3c 78bd 953d 535e 013e
000003f0: 354d 2dbd 7820 773d 8aef f2bc e793 043e

bias f4 [2]
0.08016171 0.013160055
00000000: d32b a43d 459d 573c
