TP6/models/lab6/lab6_naive_q_network.pth (torch, 73482 bytes, 6 tensors)

weight f4 [128, 4]
-0.15151186 0.10919122 0.15041304 0.082827285 0.52001584 0.4755055 0.25141424 0.03835311
0.2993617 0.020169282 -0.32215893 -0.04628518 0.32101855 -0.4013198 0.15211038 -0.31139305
0.19124636 -0.11058103 -0.10686669 -0.13378866 0.24555784 -0.191081 0.11279416 -0.3745106
-0.282875 -0.06584351 -0.34312898 -0.038475733 -0.23335657 0.3603858 -0.07884056 0.13894236
0.35263038 0.08094682 -0.48695365 0.14952017 -0.34865513 -0.46798193 -0.28216448 0.21587148
0.14890666 -0.29724973 -0.4731465 -0.31785622 -0.13481192 0.26461083 -0.09659327 0.15393782
-0.00048060901 0.24775442 0.31261015 0.42641294 -0.31718424 0.47196215 0.20043272 0.22335266
-0.09801509 -0.25654647 0.44678825 -0.3259109 -0.35022163 -0.27299175 0.2561505 -0.2106843
-0.32781842 0.39833024 0.3030874 0.46462926 -0.06725858 0.29336956 0.39223897 0.47422126
-0.42204797 -0.25667223 0.37282538 0.32539347 -0.4075861 -0.05450057 -0.35970616 -0.19137955
-0.32778192 -0.39801052 0.110307135 -0.3130379 0.3352548 0.18115933 0.39637142 -0.30222467
0.12391865 -0.33009228 0.3589416 0.26368764 -0.14449197 -0.17204702 -0.30234736 -0.12706028
0.05705506 -0.20484145 -0.15442096 -0.050643075 -0.4892646 0.44306365 0.067393325 -0.09537231
-0.39055106 0.51061195 0.30224338 -0.3770789 -0.45484412 -0.043406107 0.41087228 -0.47855753
0.20749544 -0.34874693 -0.07425976 -0.033257846 -0.5323709 -0.37720385 -0.39163816 0.046416722
-0.091928676 -0.34654063 0.36374852 -0.06614104 -0.3804348 0.30562517 0.029078962 0.039734967
-0.062843546 0.008201101 -0.03905103 -0.43568006 0.4953109 -0.2111367 0.2562944 -0.5096842
-0.37321225 0.24760124 0.04419665 0.23400444 0.10038491 0.019031841 -0.062375076 0.080295704
0.2845617 -0.16824451 -0.22922799 0.372598 -0.40408802 -0.26465034 -0.45066708 -0.19705483
-0.35111618 -0.15301825 -0.15622361 0.07016936 0.39773774 0.14430343 0.3304988 0.031293176
0.00033143288 0.04841723 0.4263459 -0.49496543 0.37947187 0.034127716 0.3746521 0.17101191
0.48115292 -0.2330102 -0.18187824 0.4261832 -0.4016428 -0.0724785 -0.21288933 0.33169225
0.29925665 -0.4837425 -0.13258936 -0.43643293 0.26107073 -0.35062507 -0.23489752 -0.067052454
-0.37653455 -0.26046988 0.21488234 -0.17810111 0.10301153 0.39074007 0.1654111 0.26830158
0.15839571 0.027657446 -0.30916741 -0.45770982 -0.36908382 -0.45236102 -0.018595167 -0.0497114
0.24470602 -0.12721635 -0.2845384 -0.16402446 -0.44004 0.46950924 0.2777991 -0.333084
0.23192263 -0.46067092 0.3287076 -0.13617292 0.14476249 -0.18189031 0.24855722 -0.14012074
-0.43103254 0.0137027595 0.1414284 -0.20226651 0.21917623 -0.3593057 -0.46969604 0.21036874
-0.2848539 -0.3014289 -0.06951546 0.012827673 0.22217682 -0.2826332 -0.4227114 -0.1240205
0.45972255 0.44978857 0.12108379 -0.24082781 -0.08504381 -0.24219485 -0.19448529 0.059829902
-0.33708063 0.0380906 0.3689651 -0.4144938 -0.5019011 0.27999827 -0.19879986 0.49997562
-0.1752195 -0.1372213 -0.027134273 0.22523214 0.15316121 0.45908388 0.08321644 0.50823694
00000000: ed25 1bbe a59f df3d e005 1a3e 5aa1 a93d
00000010: c21f 053f 7575 f33e 5eb9 803e 2718 1d3d
00000020: f045 993e 0d3a a53c 04f2 a4be 8795 3dbd
00000030: 8b5c a43e ca79 cdbe d3c2 1b3e e96e 9fbe
00000040: 16d6 433e 4f78 e2bd ecdc dabd e5ff 08be
00000050: 8473 7b3e bdaa 43be a000 e73d dabf bfbe
00000060: fed4 90be f6d8 86bd 9aae afbe bb98 1dbd
00000070: 06f5 6ebe 7d84 b83e 2977 a1bd e846 0e3e
00000080: f88b b43e 72c7 a53d fd51 f9be d11b 193e
00000090: ed82 b2be 549b efbe dd77 90be 6a0d 5d3e
000000a0: fd7a 183e 1e31 98be 4240 f2be 0dbe a2be
000000b0: 230c 0abe 127b 873e b1d2 c5bd e0a1 1d3e
000000c0: 40fa fbb9 56b3 7d3e 700e a03e cc52 da3e
000000d0: f965 a2be 06a5 f13e 3c3e 4d3e 8fb6 643e
000000e0: 23bc c8bd 0f5a 83be 6ec1 e43e cbdd a6be
000000f0: 4050 b3be 93c5 8bbe 2926 833e a0bd 57be
00000100: d1d7 a7be f1f1 cb3e 462e 9b3e e3e3 ed3e
00000110: debe 89bd 8934 963e 8cd3 c83e 21cd f23e
00000120: ac16 d8be 8b6a 83be f8e2 be3e f999 a63e
00000130: 20af d0be fd3b 5fbd 682b b8be 00f9 43be
00000140: 08d3 a7be 09c8 cbbe b5e8 e13d 8146 a0be
00000150: 84a6 ab3e d581 393e 32f1 ca3e 31bd 9abe
00000160: 10c9 fd3d db01 a9be 32c7 b73e 1102 873e
00000170: b4f5 13be 182d 30be 46cd 9abe 171c 02be
00000180: 91b2 693d f5c1 51be 8720 1ebe 1d6f 4fbd
00000190: e480 fabe 3dd9 e23e 8305 8a3d 8f52 c3bd
000001a0: 4ff6 c7be 77b7 023f a5bf 9a3e 7c10 c1be
000001b0: 54e1 e8be 9aca 31bd da5d d23e 7e05 f5be
000001c0: af79 543e f58e b2be 8015 98bd 6139 08bd
000001d0: 7649 08bf dd20 c1be cc84 c8be 761f 3e3d
000001e0: 1a45 bcbd c66d b1be 3f3d ba3e f474 87bd
000001f0: 5ac8 c2be e77a 9c3e 0137 ee3c 22c1 223d
00000200: 1eb4 80bd e95d 063c f9f3 1fbd 7511 dfbe
00000210: 6499 fd3e 3834 58be 0539 833e aa7a 02bf
00000220: ad15 bfbe 2e8b 7d3e 8c07 353d dc9e 6f3e
00000230: 9b96 cd3d aae8 9b3c 027d 7fbd 1372 a43d
00000240: 12b2 913e 4a48 2cbe beba 6abe 2ac5 be3e
00000250: a0e4 cebe 4080 87be d6bd e6be bec8 49be
00000260: 80c5 b3be d1b0 1cbe 15f9 1fbe f4b4 8f3d
00000270: 48a4 cb3e 47c4 133e 2437 a93e 462d 003d
00000280: 2bc4 ad39 2551 463d 034a da3e 1c6c fdbe
00000290: 234a c23e 81c9 0b3d 66d2 bf3e bf1d 2f3e
000002a0: ad59 f63e 3a9a 6ebe 4a3e 3abe af34 da3e
000002b0: 20a4 cdbe 9c6f 94bd a9ff 59be 91d3 a93e
000002c0: 2b38 993e 19ad f7be 81c5 07be 2374 dfbe
000002d0: 10ab 853e 2185 b3be fa88 70be cc52 89bd
000002e0: 23c9 c0be 4f5c 85be 1e0a 5c3e 2360 36be
000002f0: b6f7 d23d 150f c83e 8761 293e d35e 893e
00000300: 7c32 223e de91 e23c 314b 9ebe f158 eabe
00000310: 8ef8 bcbe dd9b e7be e454 98bc 2e9e 4bbd
00000320: 3794 7a3e 0145 02be 04af 91be 07f6 27be
00000330: ec4c e1be 8463 f03e af3b 8e3e fc89 aabe
00000340: 207d 6d3e 0fdd ebbe 5d4c a83e ea70 0bbe
00000350: 9e3c 143e 7441 3abe c985 7e3e d07b 0fbe
00000360: 4cb0 dcbe 8a81 603c 9bd2 103e f41e 4fbe
00000370: bc6f 603e ebf6 b7be 007c f0be e76a 573e
00000380: 5fd8 91be e454 9abe 1f5e 8ebd 292b 523c
00000390: 5282 633e 4cb5 90be a16d d8be 76fe fdbd
000003a0: c160 eb3e b04a e63e c7fa f73d 919b 76be
000003b0: 732b aebd ed01 78be 2727 47be 3310 753d
000003c0: d595 acbe e404 1c3d fee8 bc3e 8838 d4be
000003d0: 977c 00bf ef5b 8f3e 3192 4bbe cefc ff3e
000003e0: be6c 33be be83 0cbe b248 debc 41a3 663e
000003f0: 4bd6 1c3e 0b0d eb3e 626d aa3d d11b 023f

bias f4 [128]
0.21376728 0.06306192 0.25442606 -0.36199474 0.4092383 0.51075876 -0.1805925 -0.4379064
0.31863883 -0.19730332 0.4242235 0.31328243 0.3114219 -0.43979612 0.096107386 -0.3065028
-0.21749957 -0.39782652 0.15703866 0.41853568 -0.33725813 0.53279704 0.5427419 0.35015503
-0.073650345 -0.36445528 -0.317522 0.4908365 0.007108036 -0.19223335 0.30109102 -0.22888532
-0.13145226 -0.05435584 0.22808596 -0.022034312 -0.34861478 -0.028506938 0.27989992 0.42689362
0.2588632 -0.099855594 0.3585004 -0.30536124 0.39112023 0.033131532 0.12758648 -0.12201246
-0.22474894 0.42467803 0.51925623 0.4788514 -0.49938986 0.09610155 0.10285927 -0.039414942
-0.2428733 0.0837471 -0.14559887 0.049182296 -0.38814282 -0.2026166 0.16774371 -0.05745915
-0.25431508 -0.4069981 0.5202936 0.4044656 -0.49804312 -0.14836878 0.16607696 -0.2704128
-0.32948515 0.5838729 0.029946983 0.3058277 0.12135777 0.33762497 0.23540992 0.25231618
0.06273998 0.32719138 -0.423561 0.20531894 -0.4414501 0.10913284 -0.17668444 0.5676753
0.33898997 -0.28042978 -0.23617467 0.106472686 -0.18377878 0.4955305 -0.29443267 -0.47376668
0.5433672 -0.22206579 0.26381963 -0.06341163 0.2419365 0.42547593 0.13649067 -0.2598897
-0.5071802 0.11520638 0.48062187 0.5787296 0.3902366 0.42582855 0.22501306 0.52865773
-0.04729598 0.3595603 -0.40361258 0.1606097 0.47749555 0.36137742 0.28380412 0.33425727
0.39684182 0.37200704 -0.1526882 0.36978278 0.5016086 0.5438991 0.07405162 0.2843464
00000000: cfe5 5a3e 9c26 813d 2244 823e 6057 b9be
00000010: af87 d13e 16c1 023f 3eed 38be 4535 e0be
00000020: a124 a33e e209 4abe d333 d93e 8e66 a03e
00000030: b172 9f3e f52c e1be f3d3 c43d efed 9cbe
00000040: 35b8 5ebe ebaf cbbe bece 203e 4f4a d63e
00000050: 19ad acbe 6365 083f 22f1 0a3f 8547 b33e
00000060: fed5 96bd e299 babe 3e92 a2be ec4e fb3e
00000070: 87ea e83b d2d8 44be 9a28 9a3e ea60 6abe
00000080: 6c9b 06be 3ba4 5ebd 5e8f 693e 4d81 b4bc
00000090: a37d b2be 6287 e9bc 0b4f 8f3e cd91 da3e
000000a0: b889 843e 1781 ccbd 5d8d b73e 4f58 9cbe
000000b0: e940 c83e eeb4 073d 08a6 023e abe1 f9bd
000000c0: 9624 66be 666f d93e faed 043f 032c f53e
000000d0: 07b0 ffbe e4d0 c43d e2a7 d23d 9071 21bd
000000e0: c7b3 78be 9983 ab3d df17 15be 6073 493d
000000f0: a8ba c6be ba7a 4fbe 02c5 2b3e 495a 6bbd
00000100: 9635 82be 0e62 d0be f631 053f 1d16 cf3e
00000110: 82ff febe fced 17be 1410 2a3e 8c73 8abe
00000120: 47b2 a8be b278 153f 6053 f53c 7395 9c3e
00000130: 6c8a f83d 2edd ac3e 4c0f 713e 962f 813e
00000140: d27d 803d a185 a73e fddc d8be 213f 523e
00000150: bf05 e2be 0a81 df3d c4ec 34be 2b53 113f
00000160: 1890 ad3e 7e94 8fbe c6d7 71be 5a0e da3d
00000170: 8130 3cbe 2cb6 fd3e e1bf 96be 8c91 f2be
00000180: 1d1a 0b3f 3765 63be 5e13 873e f5dd 81bd
00000190: 34be 773e fbd7 d93e 36c4 0b3e 4310 85be
000001a0: 90d6 01bf 53f1 eb3d 1214 f63e a027 143f
000001b0: 17cd c73e 3306 da3e d369 663e 1d56 073f
000001c0: 6eb9 41bd 4a18 b83e 4fa6 cebe df76 243e
000001d0: 4c7a f43e 7606 b93e c64e 913e c523 ab3e
000001e0: da2e cb3e b577 be3e 4c5a 1cbe 2b54 bd3e
000001f0: 6c69 003f f93c 0b3f 60a8 973d da95 913e

weight f4 [128, 128]
-0.06085986 -0.08497867 -0.070687994 -0.059045315 -0.008129806 -0.026164118 0.02187726 -0.021667665
-0.09454906 -0.029616805 0.038602058 0.049486134 -0.1079869 0.015719857 0.028446486 -0.07336826
-0.08612999 -0.0023330357 0.039882228 -0.10614548 -0.055728085 -0.02880397 -0.055700827 -0.092127316
-0.023025008 -0.068243794 -0.08353784 -0.122168824 0.05468994 -0.075212516 -0.06961574 0.037167888
0.04077093 -0.016726283 -0.06540019 -0.025088938 0.032210127 0.06380284 -0.022206442 -0.06627324
0.03214981 -0.017868549 -0.10288538 0.00623624 0.010077203 -0.023084542 -0.122566864 -0.059657842
0.024413422 -0.054164976 0.042775143 -0.10241417 0.05311487 -0.12131485 -0.03537107 0.072866514
-0.084149435 -0.019050933 0.04695977 -0.09292879 0.08181368 0.071689844 0.020544497 0.009482306
0.04466124 0.0024358588 -0.10988678 -0.016915968 0.051886123 -0.055431567 -0.09884411 -0.0050427755
-0.0620661 -0.107422374 -0.09541676 0.003326809 0.03418614 -0.0033390513 -0.052917037 0.04031944
-0.050265986 0.045651663 -0.048877638 0.0046061627 0.07630654 -0.039495878 -0.01872186 0.021568578
-0.0379686 -0.069670305 0.05827059 -0.034990028 -0.029863883 0.03301316 0.014099707 0.07004333
0.045462854 -0.06874227 -0.094027326 -0.069476925 -0.04515005 0.032214455 0.0075802347 0.06371124
0.082517006 -0.038501807 0.046384323 -0.016119331 0.027467983 -0.047159106 -0.014871624 0.02925233
0.019965699 0.044589017 0.0350597 -0.010734149 -0.030729268 -0.06965096 0.01258907 -0.04719644
-0.11770963 -0.07887862 0.07832189 0.015639752 0.010080507 0.04941312 0.044214286 -0.04566503
0.03763197 -0.07799417 0.08875714 0.046199426 -0.008949657 -0.03119919 0.053046 -0.013738047
0.008425415 -0.10031106 0.07804169 0.008608098 -0.047111005 0.061594 -0.03602588 -0.04814712
-0.07477329 -0.087845735 0.10391547 0.08287234 0.009711713 0.012918503 -0.08089521 0.0473665
0.052481797 0.05862255 0.011247617 -0.037321784 -0.04945855 0.003948009 -0.032447346 -0.060497344
0.07059426 0.083908014 0.036676668 0.0006848449 0.029667126 -0.032397967 0.07134604 -0.031918902
-0.0026671905 -0.07269513 0.013989637 -0.115756996 -0.0578053 -0.039619967 0.02019744 -0.019226652
0.08207672 0.016269038 0.03190549 0.011828617 0.061446063 -0.07712365 0.029956644 -0.034959745
-0.083318524 -0.02129122 -0.01747509 0.05193792 -0.073306814 -0.08308995 -0.038440034 -0.019709233
-0.048842963 -0.006199313 -0.036302418 0.09715552 -0.06129283 -0.074141786 0.054864343 0.029688835
0.02191077 0.01921425 0.08064638 -0.022531413 -0.047842044 0.11501514 0.0369973 0.09145643
0.018132979 -0.038740315 0.046068177 -0.07253111 0.04216085 0.07626473 0.039785262 0.096948795
0.05353356 -0.07482993 0.0732863 0.033793643 -0.06262683 0.018924762 0.028225923 -0.063860044
0.054322198 0.013996894 -0.065319166 -0.00938732 -0.019041115 -0.018543813 0.016441692 -0.0050201626
0.066675305 0.060110368 -0.085448466 0.11623222 -0.009007602 0.06252168 -0.024457073 0.090349
-0.024017103 0.011474388 0.03029497 0.027113907 -0.02180018 -0.021743542 -0.052066684 0.02468615
-0.028759997 -0.023218982 0.039365157 0.017924175 -0.018994289 0.09777495 0.033326507 0.06474888
00000000: 3048 79bd 4c09 aebd dec4 90bd 80d9 71bd
00000010: e132 05bc 2256 d6bc f137 b33c 6380 b1bc
00000020: f0a2 c1bd f19e f2bc 311d 1e3d f9b1 4a3d
00000030: 3c28 ddbd eec6 803c 9b08 e93c 1942 96bd
00000040: ec64 b0bd d8e5 18bb 8c5b 233d cd62 d9bd
00000050: 2243 64bd 4ef6 ebbc 8d26 64bd 3fad bcbd
00000060: f19e bcbc 67c3 8bbd e315 abbd a633 fabd
00000070: 8f02 603d 0509 9abd b292 8ebd 5b3d 183d
00000080: 6bff 263d 8f05 89bc 89f0 85bd 5187 cdbc
00000090: c4ee 033d 10ab 823d 49ea b5bc 44ba 87bd
000000a0: 85af 033d 1061 92bc 92b5 d2bd 5f59 cc3b
000000b0: da1a 253c cb1b bdbc 5604 fbbd c85b 74bd
000000c0: a8fe c73c 18dc 5dbd fd34 2f3d 85be d1bd
000000d0: fa8e 593d ec73 f8bd 41e1 10bd 0a3b 953d
000000e0: 8a56 acbd b410 9cbc e358 403d 7351 bebd
000000f0: ee8d a73d 20d2 923d ef4c a83c ad5b 1b3c
00000100: b4ee 363d eea2 1f3b 520c e1bd 5b93 8abc
00000110: 8b86 543d 360c 63bd c86e cabd de3d a5bb
00000120: 0639 7ebd 4300 dcbd dd69 c3bd 9806 5a3b
00000130: c406 0c3d fcd3 5abb 89bf 58bd ff25 253d
00000140: b5e3 4dbd 3dfd 3a3d eb33 48bd 4bef 963b
00000150: 9a46 9c3d 6ec6 21bd 965e 99bc 96b0 b03c
00000160: f684 1bbd 4eaf 8ebd 24ad 6e3d b451 0fbd
00000170: 1aa5 f4bc cf38 073d 7502 673c e172 8f3d
00000180: 4237 3a3d bfc8 8cbd 6691 c0bd eb49 8ebd
00000190: 42ef 38bd 4ef3 033d 9e63 f83b 0a7b 823d
000001a0: adfe a83d 12b4 1dbd 7dfd 3d3d b00c 84bc
000001b0: 8904 e13c e829 41bd 1da8 73bc 95a2 ef3c
000001c0: 1b8f a33c f9a2 363d c39a 0f3d 49de 2fbc
000001d0: f2bb fbbc 2aa5 8ebd 6342 4e3c 0e51 41bd
000001e0: bf11 f1bd 1d8b a1bd 3a67 a03d f01e 803c
000001f0: b628 253c 6965 4a3d 0a1a 353d 410b 3bbd
00000200: fb23 1a3d 68bb 9fbd 4ec6 b53d 9c3b 3d3d
00000210: 95a1 12bc 7295 ffbc c346 593d 8c15 61bc
00000220: c00a 0a3c e36f cdbd 52d4 9f3d fb08 0d3c
00000230: 78f7 40bd fd49 7c3d e08f 13bd ea35 45bd
00000240: bd22 99bd 77e8 b3bd a2d1 d43d f9b8 a93d
00000250: e01d 1f3c 21a8 533c 63ac a5bd 6003 423d
00000260: 27f7 563d 331e 703d ed47 383c bade 18bd
00000270: 0c95 4abd 4d5e 813b 82e7 04bd 10cc 77bd
00000280: b993 903d f7d7 ab3d 463a 163d 2a87 333a
00000290: 7908 f33c bbb3 04bd df1d 923d 65bd 02bd
000002a0: 08cc 2ebb 2fe1 94bd ca34 653c 0112 edbd
000002b0: 40c5 6cbd 8c48 22bd 1a75 a53c 3681 9dbc
000002c0: d717 a83d a546 853c 55af 023d d1cc 413c
000002d0: deae 7b3d 01f3 9dbd a367 f53c f331 0fbd
000002e0: e7a2 aabd ed6a aebc ec27 8fbc dbbc 543d
000002f0: e221 96bd 102b aabd 4c73 1dbd 4275 a1bc
00000300: 8f0f 48bd 9b23 cbbb d8b1 14bd 79f9 c63d
00000310: 310e 7bbd a6d7 97bd 6fb9 603d 0036 f33c
00000320: 377e b33c 3467 9d3c ee29 a53d cc93 b8bc
00000330: 05f6 43bd 0f8d eb3d 7b8a 173d 824d bb3d
00000340: 9d8b 943c 2aae 1ebd fcb1 3c3d 318b 94bd
00000350: dbb0 2c3d af30 9c3d dff5 223d 178d c63d
00000360: 0246 5b3d 6f40 99bd 2117 963d 346b 0a3d
00000370: 7f42 80bd 1a08 9b3c 0d3a e73c 0ec9 82bd
00000380: f480 5e3d 3a53 653c 0ec6 85bd 46cd 19bc
00000390: 1dfc 9bbc 32e9 97bc bab0 863c 2d80 a4bb
000003a0: 108d 883d 4a36 763d 9bff aebd 280b ee3d
000003b0: 9f94 13bc 5e0b 803d 335a c8bc e608 b93d
000003c0: 84bf c4bc 12ff 3b3c 282d f83c fc1d de3c
000003d0: 4b96 b2bc 831f b2bc e043 55bd 9c3a ca3c
000003e0: 169a ebbc bc35 bebc 5c3d 213d b8d5 923c
000003f0: e999 9bbc 3c3e c83d 6081 083d 109b 843d

bias f4 [128]
0.050792728 0.07491805 6.468754e-05 0.042281132 -0.07192827 0.080080256 0.15595509 -0.023414288
-0.04599836 -0.0073106755 -0.09258254 -0.024495082 0.058480132 0.0039810077 0.12849082 0.04584572
0.10797818 -0.03469198 0.098912016 0.14439669 0.039117243 0.0015456233 0.03838388 0.077147745
0.09190188 -0.011784083 -0.010579433 -0.057197705 -0.03275794 0.015963297 -0.09060734 0.02499965
0.049840864 0.052790496 -0.0570221 0.054170057 -0.02184218 0.13960722 -0.00038150494 0.07982704
0.15095861 0.030352825 0.104854204 -0.07995627 0.10221414 0.05107299 -0.0033611406 0.04083315
0.10591416 -0.06128056 -0.07179498 -0.07952828 0.060001727 -0.001415466 0.051025666 0.030387703
0.021437654 -0.031498604 0.00056876405 -0.00500256 -0.026326943 0.030834408 0.020364815 -0.03199339
-0.058763113 0.016949106 0.00744066 0.012951818 -0.011809785 0.07748668 -0.02109231 -0.021359298
-0.062485054 -0.08578042 0.0012395842 0.045554515 -0.0018688341 -0.015127162 -0.07834142 -0.023987554
0.12909912 -0.0032045115 -0.04721566 0.1328769 -0.02760163 0.03183344 -0.0073197787 0.04238538
-0.05332749 0.11929817 0.036506318 -0.043743137 0.062837474 0.04758199 -0.051201545 0.014641302
-0.014347656 0.053934306 -0.087333985 0.046576757 -0.019809417 0.05186818 0.11708424 0.090144575
0.046614446 0.021404142 0.054704234 -0.0023978057 -0.079184406 -0.10134029 -0.025089184 0.05152945
0.15057237 -0.03140467 0.04040717 -0.035486143 -0.057859514 -0.07632266 0.07450236 -0.09072862
-0.0014783652 -0.066841744 0.025171543 0.111930564 0.044244103 0.061950736 0.063689664 0.10593361
00000000: 090c 503d a26e 993d dca8 8738 fb2e 2d3d
00000010: 214f 93bd 1e01 a43d b1b2 1f3e 52cf bfbc
00000020: c768 3cbd 648e efbb ea9b bdbd e9a9 c8bc
00000030: dd88 6f3d 1d73 823b 1993 033e b9c8 3b3d
00000040: aa23 dd3d 2d19 0ebd 6292 ca3d badc 133e
00000050: 6739 203d 8396 ca3a 6a38 1d3d a3ff 9d3d
00000060: 0e37 bc3d 0712 41bc 5c55 2dbc 2448 6abd
00000070: 312d 06bd 76c5 823c 5790 b9bd 11cc cc3c
00000080: ef25 4c3d d93a 583d 0190 69bd 6ce1 5d3d
00000090: 5fee b2bc 32f5 0e3e ba04 c8b9 5c7c a33d
000000a0: e594 1a3e 7da6 f83c cdbd d63d 1dc0 a3bd
000000b0: a655 d13d e931 513d 9546 5cbb a940 273d
000000c0: 86e9 d83d 5301 7bbd 3f09 93bd b9df a2bd
000000d0: 5fc4 753d 2887 b9ba 4a00 513d a2ef f83c
000000e0: 059e af3c ae04 01bd 1c19 153a 84ec a3bb
000000f0: 9aab d7bc 7198 fc3c 1dd4 a63c 800b 03bd
00000100: 97b1 70bd dad8 8a3c c8d0 f33b dd33 543c
00000110: d47d 41bc 56b1 9e3d c8c9 acbc b2f9 aebc
00000120: 54f0 7fbd a5ad afbd 8b79 a23a 5f97 3a3d
00000130: abf3 f4ba ebd7 77bc 7771 a0bd 8c81 c4bc
00000140: 8f32 043e c802 52bb 3565 41bd e210 083e
00000150: d01c e2bc c863 023d c1da efbb 4b9c 2d3d
00000160: ed6d 5abd 9952 f43d a687 153d 012c 33bd
00000170: efb0 803d 55e5 423d b6b8 51bd 12e2 6f3c
00000180: 6e12 6bbc 38ea 5c3d 29dc b2bd 45c7 3e3d
00000190: 5c47 a2bc bb73 543d ddc9 ef3d b89d b83d
000001a0: caee 3e3d bd57 af3c 8c11 603d 8124 1dbb
000001b0: 6f2b a2bd 7f8b cfbd d587 cdbc 8b10 533d
000001c0: a52f 1a3e 2fa2 00bd fd81 253d eb59 11bd
000001d0: 19fe 6cbd 0e4f 9cbd b194 983d edcf b9bd
000001e0: b4c5 c1ba 53e4 88bd 8d34 ce3c da3b e53d
000001f0: 4e39 353d 0ec0 7d3d ba6f 823d b8f3 d83d

weight f4 [2, 128]
-0.025334556 0.019882401 0.018209375 0.010925511 0.056700118 0.011575298 0.13425058 0.07902311
-0.06829622 -0.027858496 0.020172264 -0.053850938 0.07534577 -0.07620046 0.043402288 -0.032715246
0.015852667 -0.066761605 0.0120845605 0.089512035 0.017581176 -0.013634957 0.042760238 -0.0019264123
0.09601372 -0.06227843 0.04449 -0.030594394 -0.05069354 -0.05432852 -0.0066874092 0.060962304
0.03515294 -0.043233205 0.034644205 0.1215923 0.051288467 0.06630761 0.033807777 0.028106198
0.13895611 0.107281774 0.09581719 0.020200184 0.0015358147 -0.031560786 -0.04683265 0.014532273
0.10371918 -0.06729385 -0.020147284 -0.077189974 0.12376677 0.04210661 -0.07722458 -0.027982654
-0.02479041 -0.051486086 0.030176504 -0.02650627 0.05089228 -0.016782364 0.08800241 -0.05156794
0.03152241 -0.008119513 0.10356163 0.07614324 0.00050169503 -0.036911555 0.04471969 0.045163892
0.0864293 -0.035669785 -0.0032236292 -0.022139836 0.05956001 -0.07479732 -0.009574522 -0.042524114
0.14506954 -0.03492742 0.08374776 0.105230026 0.09215477 0.006524484 0.047042735 0.083552346
0.07333049 0.11225488 -0.07797623 -0.030317156 -0.079094924 -0.04768888 0.051622298 0.06634944
0.08855082 0.061562877 0.050879158 0.11822175 -0.03982111 0.13426405 0.10352198 0.0034750889
-0.004220968 -0.08123728 0.008152261 0.13107193 -0.059064165 -0.059442356 -0.016641142 0.06668787
0.102591135 0.104252435 -0.057645362 0.06559064 -0.052664142 0.0012053022 0.021351041 -0.07135536
-0.017899754 0.086917035 0.018488266 0.038659215 0.012662101 0.061653443 0.038603354 0.12380976
-0.00094607455 0.041357502 0.0338833 0.08044349 -0.069702856 -0.005995162 0.046863295 0.026396653
-0.05278613 0.046405025 -0.04134505 0.030472005 0.026120426 -0.010454421 0.05776793 -0.011606551
0.08216683 -0.009270102 0.10861848 0.11450574 -0.041577164 0.038078275 0.0118470015 -0.02708559
0.096600845 -0.01975013 0.04920714 -0.06495415 -0.06782477 0.055679835 0.027609188 0.08364406
0.06516191 0.06857463 0.029974563 0.04200353 0.09112246 0.039669264 -0.011234338 0.10289834
0.052781805 0.016810874 0.029129032 -0.035836104 0.11097438 0.08167683 -0.08688678 0.007428763
0.08011943 0.0119190095 0.016709944 0.060509108 0.0133766 -0.031461224 -0.012224843 0.038879924
-0.015072581 0.043963823 0.053962924 0.013629251 -0.04222539 0.07856119 -0.06246618 -0.025124915
0.071938835 0.011681976 0.05431962 -0.060958497 -0.07038503 0.09958027 0.064540654 -0.05203838
-0.012428613 0.025650017 0.09107498 0.023501776 -0.05815067 0.048459772 -0.04043804 0.0047146063
0.015838312 -0.0050487043 -0.06724426 0.11595376 -0.02960719 0.008275147 0.083047815 0.060612448
-0.034090523 0.05851617 -0.062132172 0.07469321 0.027816674 -0.06125797 0.01217199 -0.020929474
0.11897732 0.03776697 -0.06928892 0.11438085 0.0682486 0.04270386 0.1017506 0.11287481
-0.04271829 -0.060335193 0.11873388 0.051713213 -0.032346733 -0.0018570651 -0.078325264 -0.04499831
0.07307098 -0.01672771 -0.0674573 0.03512596 -0.02220631 -0.03507911 0.073360175 0.076557025
-0.045195714 -0.05809007 -0.042484313 0.11923892 0.0038818521 0.12245543 -0.065870866 0.0033312722
00000000: 6a8a cfbc 6be0 a23c d42b 953c ea00 333c
00000010: 623e 683d 52a6 3d3c fc78 093e ded6 a13d
00000020: e3de 8bbd 8037 e4bc 4e40 a53c cd92 5cbd
00000030: e24e 9a3d fd0e 9cbd 99c6 313d 6c00 06bd
00000040: 74dd 813c 4fba 88bd 52fe 453c 1652 b73d
00000050: 6606 903c 2865 5fbc 5c25 2f3d ac7f fcba
00000060: d7a2 c43d ab17 7fbd 253b 363d 18a1 fabc
00000070: 08a4 4fbd 9587 5ebd 0e22 dbbb 9cb3 793d
00000080: 87fc 0f3d 4d15 31bd 15e7 0d3d 6205 f93d
00000090: db13 523d 49cc 873d 067a 0a3d f83e e63c
000000a0: 834a 0e3e 8cb6 db3d ce3b c43d db7a a53c
000000b0: 644d c93a e245 01bd 98d3 3fbd c518 6e3c
000000c0: b96a d43d 5cd1 89bd eb0b a5bc c715 9ebd
000000d0: 6f79 fd3d fb77 2c3d ec27 9ebd e13b e5bc
000000e0: 4215 cbbc 13e3 52bd b734 f73c ad23 d9bc
000000f0: 6c74 503d 2b7b 89bc 9c3a b43d e738 53bd
00000100: a51d 013d b507 05bc 1f18 d43d fdf0 9b3d
00000110: 2f84 033a 9230 17bd fe2b 373d c6fd 383d
00000120: d801 b13d 7b1a 12bd 8643 53bb 9a5e b5bc
00000130: 32f5 733d 562f 99bd 75de 1cbc c42d 2ebd
00000140: 1c8d 143e 0e10 0fbd f283 ab3d d782 d73d
00000150: a4bb bc3d 57cb d53b e2af 403d 7e1d ab3d
00000160: 4c2e 963d e3e5 e53d 00b2 9fbd af5b f8bc
00000170: 85fc a1bd 6a55 43bd e771 533d 37e2 873d
00000180: 225a b53d 5b29 7c3d aa66 503d 3f1e f23d
00000190: 761b 23bd 847c 093e 5503 d43d 51be 633b
000001a0: 0c50 8abb bb5f a6bd 1091 053c b837 063e
000001b0: 44ed 71bd d479 73bd 0153 88bc a693 883d
000001c0: 4d1b d23d 4d82 d53d 8b1d 6cbd 6354 863d
000001d0: 5bb6 57bd 3bfb 9d3a 61e8 ae3c c222 92bd
000001e0: 81a2 92bc 8f01 b23d b474 973c 2059 1e3d
000001f0: b374 4f3c 5288 7c3d 8d1e 1e3d f98f fd3d
00000200: fd01 78ba 7c66 293d 37c9 0a3d 8ebf a43d
00000210: 5fc0 8ebd 1073 c4bb baf3 3f3d cb3d d83c
00000220: 4536 58bd 3213 3e3d 6d59 29bd 6da0 f93c
00000230: 81fa d53c 0549 2bbc 119e 6c3d 6729 3ebc
00000240: 1547 a83d a0e1 17bc 5e73 de3d fc81 ea3d
00000250: d14c 2abd f7f7 1b3d ed19 423c 99e2 ddbc
00000260: aad6 c53d 06cb a1bc 6d8d 493d ae06 85bd
00000270: b7e7 8abd 8a10 643d aa2c e23c 944d ab3d
00000280: 9c73 853d db70 8c3d 378d f53c e50b 2c3d
00000290: 6a9e ba3d 3d7c 223d 3b10 38bc 5dbc d23d
000002a0: bc31 583d f5b6 893c 02a0 ee3c e1c8 12bd
000002b0: 8946 e33d 2f46 a73d b2f1 b1bd fb6c f33b
000002c0: a815 a43d f347 433c 4be3 883c 66d8 773d
000002d0: 8729 5b3c 7cdd 00bd b54a 48bc 8e40 1f3d
000002e0: fdf2 76bc 6913 343d 3a08 5d3d 394d 5f3c
000002f0: 88f4 2cbd b0e4 a03d 8adc 7fbd c4d2 cdbc
00000300: ab54 933d c265 3f3c 407e 5e3d 9eaf 79bd
00000310: 0726 90bd bef0 cb3d e42d 843d 3226 55bd
00000320: 62a1 4bbc fc1f d23c 8585 ba3d cc86 c03c
00000330: 662f 6ebd c17d 463d 5ca2 25bd fc7c 9a3b
00000340: 59bf 813c 9a6f a5bb 5cb7 89bd 2a79 ed3d
00000350: c78a f2bc 7b94 073c f914 aa3d c244 783d
00000360: 81a2 0bbd a7ae 6f3d 4e7e 7ebd c1f8 983d
00000370: cbdf e33c a3e9 7abd 076d 473c 4a74 abbc
00000380: 62aa f33d 8ab1 1a3d 59e7 8dbd 8240 ea3d
00000390: ecc5 8b3d 3eea 2e3d 9e62 d03d e92a e73d
000003a0: 60f9 2ebd 0922 77bd c02a f33d 3cd1 533d
000003b0: 027e 04bd c468 f3ba ff68 a0bd 2650 38bd
000003c0: 3da6 953d 8d08 89bc 0e27 8abd 3de0 0f3d
000003d0: 02ea b5bc 1daf 0fbd dc3d 963d eec9 9c3d
000003e0: 241f 39bd daef 6dbd 0804 2ebd 8933 f43d
000003f0: ac66 7e3b eac9 fa3d 4ee7 86bd 7951 5a3b

bias f4 [2]
0.065221384 -0.01605073
00000000: ca92 853d d27c 83bc
